example/Reprogramming/Output/ckpt.pth (torch, 164106 bytes, 45 tensors)

GRN_net.encoder.0.weight f4 [10, 3]
000000 5e c1 5f be 2d 35 25 be 7e c9 03 3e a6 68 36 be
       -0.21851107 -0.16133566 0.12869832 -0.17813358
000010 83 89 95 3e 04 59 33 be 41 69 01 3f a7 65 0c 3e
       0.29206476 -0.17514426 0.5055123 0.13710652
000020 98 cf ce bd 81 eb 3f 3f 1b 08 5b 3e cb 7c cb be
       -0.10098189 0.74968725 0.2138981 -0.39743647
000030 af 98 bc be db a8 b2 3e f0 6e 6f 3e 18 3b 18 3f
       -0.36835238 0.34894451 0.23382163 0.5946517
000040 92 48 6c bd a9 62 c2 3e a4 eb ab 3e 44 20 87 3e
       -0.057686396 0.37965897 0.33578217 0.26391804
000050 b3 8e ee bd 2f 65 52 3f 6e 85 98 3e 59 95 02 be
       -0.116483115 0.82185644 0.297893 -0.12752284
000060 54 78 6e be 09 dc 58 3f 34 00 6f 3e 86 01 a7 be
       -0.23288089 0.84710747 0.23339921 -0.3261835
000070 08 2e 0a 3f ae 9b 4a 3e
       0.5397649 0.1978595

GRN_net.encoder.0.bias f4 [10]
000000 52 bb 2e 3e c9 d3 0a 3f 0b 6f c3 3e 90 a3 e0 be
       0.17063645 0.5422941 0.38170657 -0.43874788
000010 aa 45 1e bf 29 69 96 be 6a 58 06 3f c0 43 a0 3a
       -0.6182505 -0.29377106 0.5247866 0.0012227222
000020 21 bb 4a 3d 52 95 f5 be
       0.049494866 -0.47965485

GRN_net.encoder.2.weight f4 [10, 10]
000000 f9 50 40 bf b5 91 05 bf ba 55 c2 3e 1c ba af 3f
       -0.75123554 -0.52175456 0.3795603 1.3728671
000010 f5 2a d1 be 14 02 92 3e 55 ee 82 3d 97 3c ad bc
       -0.40853086 0.2851721 0.063931145 -0.021147056
000020 45 d9 3b be fd a8 84 be 4a dd ca 3c 99 0f a9 3e
       -0.183446 -0.25910178 0.024763722 0.33019713
000030 34 03 3d 3e ab 23 8b 3e 9a 0c 03 3f 51 3f 24 3e
       0.18458253 0.2717565 0.51191103 0.16039778
000040 98 f6 8d 3d 83 78 73 be 81 cc bd 3e 3a 03 e0 3d
       0.069318 -0.2377644 0.37070087 0.109381154
000050 d0 11 ba 3e 2e 32 05 3f 81 48 fd bd c2 b5 ca 3e
       0.36341715 0.52029693 -0.12367345 0.39591795
000060 12 2c f0 bd cc 90 f9 3e 12 d3 de 3e 2a a5 57 be
       -0.11727156 0.48743284 0.4352041 -0.21059099
000070 6d da 47 bb e7 28 80 be f3 73 64 be ad d1 36 be
       -0.0030495182 -0.25031206 -0.22309856 -0.17853422
000080 62 08 29 bd ee e0 7f be 72 e6 f3 be 84 09 b5 be
       -0.04126776 -0.24988148 -0.47636753 -0.35358822
000090 0d 97 9e bd 5d 6d 6b be a5 19 a8 3e f9 8c f2 3e
       -0.077436544 -0.22990938 0.32832065 0.4737318
0000a0 1c 03 a6 3e b0 41 71 3e a1 7e d6 be d7 62 1e 3f
       0.32424247 0.23560214 -0.41893485 0.6186957
0000b0 82 c3 02 bf 31 a5 3c be 3f e8 c4 be 36 eb 6a 3e
       -0.5107957 -0.1842239 -0.3845844 0.22941288
0000c0 d2 32 f5 be 17 92 95 be 41 05 fc be cf b5 77 be
       -0.47890335 -0.2921302 -0.49222758 -0.24190448
0000d0 9e 4e 0c be e5 af 50 3f 38 7f 1c be 79 bf 89 3e
       -0.13701865 0.81518394 -0.15282905 0.26903895
0000e0 d2 f9 e1 be 78 74 21 3f 73 87 c8 bc fa b4 18 bf
       -0.4413591 0.6306834 -0.02447865 -0.5965115
0000f0 4e f0 e6 3e 30 81 22 be cd 33 01 3f 87 13 e4 be
       0.45105213 -0.15869594 0.50469667 -0.44546148
000100 38 e6 01 bf 25 56 bf be e7 5b 81 3e 58 21 95 bd
       -0.5074191 -0.3737041 0.25265428 -0.072817504
000110 e0 3f 05 bf c4 26 08 3d 23 94 72 bd bf cc 88 3d
       -0.5205059 0.033240095 -0.059223305 0.06679677
000120 9a cd 87 be a5 4c a4 be 50 7e af 3e ed 69 55 be
       -0.2652405 -0.32089725 0.34276056 -0.20841189
000130 3b 55 cb 3e e2 99 e6 3e 50 e4 ff be 47 28 bb be
       0.39713463 0.45039278 -0.49978876 -0.36554167
000140 54 ef 80 bd 43 01 0e bf 47 60 44 3e 8d 02 ca bd
       -0.06295648 -0.55470675 0.19177352 -0.09863768
000150 e5 e7 90 be 52 3c ce be 7f f5 8b 3e c8 d2 a6 be
       -0.2830192 -0.40280396 0.27335736 -0.32582688
000160 0f ee fd be 4d 3b 3e be e3 53 a7 be 39 86 15 bf
       -0.49595687 -0.18577309 -0.32681188 -0.5840793
000170 ad 8a 41 3e 03 4a 44 be c7 93 c6 3e 50 a3 b4 3e
       0.18900557 -0.19168858 0.3878462 0.35280848
000180 71 7e c7 be 8a 6c a8 be bc 5d 73 be c2 63 97 3e
       -0.38963655 -0.3289531 -0.23766226 0.29568297

GRN_net.encoder.2.bias f4 [10]
000000 a4 ad 04 be 83 d4 7a bd 0d b2 42 be 6c 43 b2 3d
       -0.12956864 -0.061237823 -0.19013233 0.08704266
000010 83 76 b6 3d 60 e2 a4 3c 47 ae 16 3e 10 ab db 3d
       0.08909323 0.020127475 0.14714919 0.10725987
000020 5c 9a 48 3e 02 3c 27 3e
       0.19590133 0.16331485

GRN_net.encoder.4.weight f4 [10, 10]
000000 0d 54 35 3d 44 2c 6e be 91 69 aa 3e ba 64 e4 3e
       0.04426961 -0.23259073 0.33283666 0.44608098
000010 c7 c0 02 3f 9a a2 ad be b4 92 4a be 54 e9 80 be
       0.51075405 -0.33913118 -0.19782525 -0.25178015
000020 5e 3d 0a 3f fa b0 85 be 62 30 19 bf 60 69 66 3d
       0.5399989 -0.26111585 -0.5983945 0.056252837
000030 f3 21 41 be aa 0a 8b 3e 4f 57 b9 bc 7c cc f8 be
       -0.18860607 0.27156574 -0.02262464 -0.4859351
000040 a8 67 d8 3e f0 5e db 3e a2 7b 03 3e 88 ab de be
       0.42266583 0.4284587 0.12840131 -0.43490243
000050 3f 9a 5a 3e e1 e5 b2 3e f9 d5 04 3e e6 53 7a be
       0.21347903 0.3494101 0.12972249 -0.24446067
000060 e5 b8 52 3d 24 7b 66 be bb 35 f4 3e ab 54 0d 3f
       0.05144586 -0.22507912 0.47697243 0.5520732
000070 88 ad 94 3c 0a dc a5 be 78 66 d0 3e ec e5 b1 3e
       0.018149152 -0.3239444 0.40703177 0.3474573
000080 5e 78 8e 3e 62 27 ae be 10 40 0d 3e 1b c9 77 be
       0.27826208 -0.34014422 0.13793969 -0.2419781
000090 ce 9a 0a bf 44 db 0d bf 39 85 04 3e 3b 34 49 3e
       -0.54142463 -0.554127 0.12941445 0.1964883
0000a0 16 81 05 bf f5 37 89 3e 10 b4 e0 3e eb 30 b3 3e
       -0.52150095 0.26800504 0.43887377 0.3499826
0000b0 5f 26 b5 3e 97 c3 bb bd 29 2e c7 3e b5 e5 f4 3e
       0.35380837 -0.09168165 0.38902405 0.47831503
0000c0 ad 10 c5 3e 64 e8 c4 be db 89 95 be e6 10 f4 3e
       0.38489285 -0.3845855 -0.29206738 0.47669142
0000d0 fa da d6 3e 44 8c c1 3e 7c 0f 8e be 94 91 36 be
       0.4196394 0.37802327 -0.2774619 -0.17828971
0000e0 d6 77 cf be 99 6e a1 be a7 15 e6 3e 4d ce e1 be
       -0.40521115 -0.31529692 0.44938394 -0.44102708
0000f0 0a d8 b7 3c 5a af b2 3c 15 7e bf be e1 2e 18 3d
       0.022441883 0.02181213 -0.3740088 0.037154082
000100 fc 45 0e 3c 7c e1 9e 3e 54 22 f2 be c3 a7 1d 3e
       0.008683678 0.31031406 -0.47291815 0.15396027
000110 79 d0 cc be 7b e9 cf 3e 8c 02 ef 3e a4 db 24 be
       -0.40002802 0.4060782 0.4668163 -0.16099411
000120 8f e8 e7 3d e0 2a 82 be 2c bb d2 be 09 06 ad be
       0.11323654 -0.25423336 -0.41158426 -0.33793667
000130 a3 8d 68 be 9d 58 a8 3d 34 1b af bd 60 ba a0 3c
       -0.2271028 0.08220027 -0.085501105 0.01962012
000140 dd 1b c7 be 03 1d 9a be fe 6b f8 be e0 66 a8 be
       -0.38888445 -0.3010026 -0.48519892 -0.32890987
000150 bd 01 dc 3e 88 c6 5b 3e df 7b 0d bf 55 3c 86 be
       0.42970076 0.21462452 -0.5526714 -0.26217905
000160 3a a1 c1 bd 35 92 65 3e 13 3b 33 3f b8 2c a7 3d
       -0.0945458 0.22419055 0.70012015 0.08162826
000170 67 36 e7 3e ce c2 7f be 73 20 92 3d 5e d8 57 be
       0.45158693 -0.24976656 0.071350954 -0.21078631
000180 69 76 03 3e 2e f4 ce 3e 97 26 ac 3e 15 f2 d9 3e
       0.12838139 0.4042067 0.33623192 0.42567506

GRN_net.encoder.4.bias f4 [10]
000000 8a bd 59 3e 13 d7 c0 bd 6c a4 3f 3b a8 49 00 3e
       0.2126371 -0.09416022 0.002924229 0.12528098
000010 ab 58 73 3d cf 58 0e be ec b4 e4 3d 14 ba 89 3e
       0.059410732 -0.13901065 0.111673206 0.2689978
000020 c5 ca 5e bd 16 bb 6c bd
       -0.054392595 -0.057795607

GRN_net.encoder.6.weight f4 [10, 10]
000000 cb ae 94 be 89 be 84 bd b6 27 d0 3d 20 a9 be 3e
       -0.29039606 -0.06481654 0.10163824 0.37238407
000010 6d e8 16 bf 46 9a 89 be 70 65 ef 3d ae be a3 be
       -0.58948404 -0.26875514 0.116892695 -0.31981415
000020 1d b2 1e 3e d0 9e 9e bd e8 7d 9e bd c1 d5 e4 3e
       0.15497632 -0.07745135 -0.077388585 0.4469433
000030 07 8a d0 3e cb 53 d4 3e b3 c4 cd 3e e2 39 8f 3d
       0.40730307 0.4147018 0.40189132 0.06993462
000040 fc f4 e7 3e 2e ac e9 3e db f9 93 be 41 31 36 3e
       0.45304096 0.45639175 -0.28901562 0.17792226
000050 65 5f 10 3e ba 58 24 be 97 3b ae bd c9 33 64 be
       0.1409889 -0.16049471 -0.085074596 -0.2228538
000060 e5 95 8f be 2a 4e 14 be 67 b6 58 3e 85 e5 e2 3e
       -0.28044048 -0.14482942 0.21163331 0.44315735
000070 15 b4 01 3d e7 cb 04 bf ee 4f a8 3e 4f d8 1a be
       0.03166588 -0.5187363 0.32873482 -0.15121578
000080 8a 8b d6 3e 89 37 0c bf 49 d2 1f be a2 44 c7 3e
       0.41903335 -0.5477224 -0.15607561 0.3891955
000090 c7 7d 97 3e 28 aa be be 67 c8 96 be 54 0f d8 3d
       0.29588148 -0.37239194 -0.2944977 0.105497986
0000a0 62 68 70 3e 97 c2 a7 be 0e 85 f8 be 5c 26 4b bd
       0.23477319 -0.32765648 -0.48539013 -0.04959713
0000b0 7b 9e 01 bc 87 2d db 3e a8 37 0b bf 7a b7 1c be
       -0.00791132 0.42808172 -0.543818 -0.15304366
0000c0 0a 00 bf be 99 dd e6 bd e2 22 a8 be 21 54 cf 3c
       -0.37304717 -0.11272735 -0.32839113 0.02530867
0000d0 74 28 f3 be c7 06 cb be 3d c4 e2 be da 4c 18 bf
       -0.474918 -0.39653608 -0.44290343 -0.59492266
0000e0 75 af a6 3e c1 5e 08 be bf 90 87 be b5 91 f5 3e
       0.32555738 -0.13317396 -0.2647762 0.47962728
0000f0 20 72 84 bd bf c0 d4 3e f1 c9 f4 bd 8a 2a 24 bf
       -0.0646708 0.41553304 -0.1195258 -0.6412741
000100 fe 7f 72 3e d3 76 d8 3e ac 1a 07 bf 04 9a e6 3d
       0.23681638 0.42278156 -0.52775073 0.11259845
000110 c0 01 0f 3d 17 a0 b0 bc 88 c8 16 bd d3 10 0c be
       0.03491378 -0.021560712 -0.036812335 -0.13678293
000120 29 ec ce be 46 b0 18 bd 9d 6d b5 be fc f7 e7 be
       -0.4041455 -0.037277482 -0.3543519 -0.45306385
000130 cc f7 01 be 34 ff a9 be e3 51 8a 3d f5 48 b3 3e
       -0.12692183 -0.33202517 0.067539 0.350166
000140 d7 d2 b6 3e fd 83 0f bf a5 94 5f 3e 80 82 28 3f
       0.35707733 -0.56060773 0.21834047 0.6582413
000150 40 3f 5d be 18 98 24 3e 66 73 9b 3e 7e 13 c0 3e
       -0.21606159 0.16073644 0.3036148 0.3751487
000160 53 2b aa 3e bf ad 9f 3e 9b fe 42 be 1a f4 98 be
       0.3323618 0.31187245 -0.19042437 -0.29873735
000170 7c 7e 60 be 4b bb c3 3e 12 fa cb bd 58 08 de 3c
       -0.2192325 0.3822883 -0.099598065 0.027103588
000180 c2 98 ef be 38 99 77 3d 22 6c 80 be 11 c9 c6 be
       -0.46796232 0.060448855 -0.250825 -0.38825276

GRN_net.encoder.6.bias f4 [10]
000000 62 d5 5f be 0e b6 7a be 67 89 83 3e dc 2b c8 bd
       -0.21858743 -0.24483511 0.25690767 -0.097739905
000010 4a 44 01 3e 4d 79 85 bd f5 55 66 be c3 36 14 be
       0.12623706 -0.06517277 -0.22493728 -0.14474015
000020 8f aa 1d 3c 6d 3e a2 bc
       0.009623184 -0.019805158

GRN_net.decoder.0.weight f4 [3, 10]
000000 07 dd 2b 3f 2b d5 30 bf 7d 4d 2c be de 34 0b be
       0.67134136 -0.6907527 -0.16826434 -0.13594386
000010 fd 66 2e bf 7b 97 17 3f 67 52 b3 be cf 36 e8 3e
       -0.681259 0.59215516 -0.35023805 0.45354316
000020 07 9b 05 3f d2 5d 2f 3f 0c 36 89 3d 84 d6 20 3f
       0.5218968 0.68502533 0.06699762 0.62827325
000030 ce 3e 48 3f 19 19 57 3e d9 ac cb bd 61 f1 a1 be
       0.7822083 0.21005668 -0.099450774 -0.3162947
000040 03 b7 8c 3e 7d 3a 0a 3e 9c 62 5b bf eb 99 cb 3e
       0.27483377 0.13498874 -0.8569734 0.39765868
000050 4a 26 86 3e 90 89 1a bf 86 e8 1e 3e 4d e0 c9 3e
       0.26201087 -0.60366154 0.15518388 0.3942894
000060 b5 5a 35 3e 4a 32 2a 3f a5 bf 9a 3d 3b a0 00 bf
       0.17710383 0.66482985 0.075560845 -0.5024449
000070 aa a8 31 bd 7b d6 f3 3e
       -0.04337374 0.47624573

GRN_net.decoder.0.bias f4 [3]
000000 71 94 7c be 2a 1a 98 3e 03 eb 20 be
       -0.24666001 0.29707462 -0.1571465

BRD_net.encoder.0.weight f4 [10, 4]
000000 a4 72 94 be 2d af 97 3e c2 86 cc 3d 5e c7 9b bd
       -0.28993714 0.29625836 0.099866405 -0.07606386
000010 a7 57 ea 3c 1b f3 66 3e eb 96 1b bf 33 18 e2 3e
       0.028606249 0.22553675 -0.6077716 0.44159088
000020 87 94 c5 3e 2f 13 1e 3e 62 b4 85 3e 75 08 4c be
       0.3858988 0.15437005 0.26114184 -0.19925101
000030 13 5b f6 be b5 46 b9 3d ed ac d3 bd 94 2e 69 3e
       -0.4811636 0.090466894 -0.10335717 0.22771674
000040 01 3b 06 3f e1 3a b1 be 27 cd a3 bd 6a 60 1e 3f
       0.5243378 -0.34615234 -0.07998114 0.61865866
000050 24 1e fb be e9 62 2c be 78 27 8c 3f c9 b1 f3 3e
       -0.49046433 -0.16834606 1.0949545 0.47596577
000060 cb 69 6a 3e 44 8e aa 3c f2 01 93 be ec d3 e2 be
       0.2289192 0.02081979 -0.28712422 -0.4430231
000070 23 24 18 bf 93 b4 16 bf da 3b 8c 3e 63 98 02 3f
       -0.5943014 -0.58869284 0.27389413 0.51013774
000080 60 f7 48 3e 10 f1 80 be 7b 80 6b be 7f 84 88 be
       0.19625616 -0.25183916 -0.2299823 -0.26663586
000090 72 c6 f1 3e 3b 38 8d bd ae 73 87 be 11 0a 29 be
       0.47221714 -0.06895491 -0.26455444 -0.16507746

BRD_net.encoder.0.bias f4 [10]
000000 90 be 9e 3e 39 44 63 3d f8 e7 52 3e 73 3c 93 be
       0.31004763 0.055484984 0.20596302 -0.28757057
000010 48 9d 8e 3e d6 fb 7a be b6 d0 d4 be 47 11 42 3e
       0.2785437 -0.2451013 -0.41565484 0.18951903
000020 b3 f4 7b 3e 3a de 03 3f
       0.24605064 0.51510966

BRD_net.encoder.2.weight f4 [10, 10]
000000 86 88 05 be 34 c4 04 bf 46 b9 04 3e e5 df 05 be
       -0.13040361 -0.5186188 0.12961301 -0.1307369
000010 d6 e4 5a 3e e4 86 c1 3e 6b 96 74 bd c3 e0 94 3e
       0.21376356 0.37798226 -0.059713762 0.2907773
000020 23 ef 9d 3d f8 fd ab 3e a7 1c be be 98 36 80 bd
       0.07711627 0.335922 -0.37131235 -0.06260413
000030 0a de 54 be 9f 0e 01 3f 65 30 04 bf 5d 1d 91 be
       -0.20787826 0.50412935 -0.51636344 -0.28342715
000040 cb 92 aa 3d e1 bf 00 3f 7a 86 b1 3e b3 2c 09 bf
       0.0832878 0.50292784 0.3467291 -0.5358383
000050 1f 83 d7 be 07 c6 d0 3e 7a 6f 4a 3d 0c 40 e5 be
       -0.42092225 0.40776083 0.04942272 -0.44775426
000060 e8 f2 45 be 17 ba 8a 3e fa 16 af bd 82 ec c6 be
       -0.19330943 0.270951 -0.08549304 -0.38852316
000070 54 ed b5 be 1f c8 9e be ef 51 b8 3b d6 18 a9 3e
       -0.3553263 -0.31012055 0.0056250016 0.3302676
000080 d0 31 88 3e 4e 78 8e be 59 f1 ac bd ae 7e e3 be
       0.26600504 -0.2782616 -0.08444471 -0.44432586
000090 a5 24 cd 3e 74 47 0e 3f 62 88 0b 3f 38 1b 75 3e
       0.4006702 0.5557778 0.5450498 0.23936164
0000a0 d8 26 ec bd 8d 61 08 3c f1 ad 1e 3e c4 21 dd be
       -0.11530846 0.008324039 0.15496041 -0.43189824
0000b0 de 36 5b bc 06 69 d6 be b4 37 05 bf 04 71 36 bc
       -0.013379781 -0.41877002 -0.5203812 -0.011135343
0000c0 b7 cd 5b be 78 70 c2 be e2 de a4 3d ee 2d c5 3c
       -0.21465193 -0.37976432 0.08050324 0.024069753
0000d0 f7 e6 ab 3d 76 82 a8 be e0 28 fd be e2 0d de 3c
       0.083936624 -0.32912034 -0.49445248 0.02710623
0000e0 44 ea 80 be cd cd a4 bd ae a0 d9 3e ce f3 c8 3d
       -0.2517873 -0.08047066 0.425054 0.09812127
0000f0 64 42 88 3e b3 ff 0a be 3c a0 d0 be 4c 8a a9 3d
       0.26613152 -0.13574104 -0.4074725 0.08278331
000100 11 fc aa be fb cc 36 3d 50 a2 e3 be 67 cc cf 3e
       -0.33395436 0.04462908 -0.44459772 0.40585634
000110 b3 31 b2 be 16 d4 ff 3e 71 20 c9 3e d4 f4 a4 3e
       -0.34803542 0.49966496 0.39282563 0.3221804
000120 64 9a 98 3e d7 8f 01 3e 75 45 a8 bc bb a4 f1 bb
       0.2980529 0.12652527 -0.020540932 -0.0073743737
000130 c0 ba 66 be 17 3a bd be 62 21 02 3f a5 0c ca 3c
       -0.22532177 -0.36958382 0.5083219 0.024664233
000140 95 76 8b 3e 76 a4 3a 3d 99 4c 37 3e 06 67 ba be
       0.27238908 0.045567 0.17900313 -0.36406726
000150 56 4f cb be da d2 c8 3e e9 0f 44 3e 93 eb 81 3e
       -0.39708966 0.39223367 0.19146694 0.2537504
000160 00 8b 04 bf 6d 70 7c 3d c7 40 fe be 3b bf 21 bd
       -0.517746 0.061630655 -0.49658796 -0.039489012
000170 85 27 cd 3a a0 04 d4 be d3 57 03 bf e8 f4 cf bc
       0.0015652037 -0.4140978 -0.51305884 -0.025385335
000180 b0 eb f0 3e 45 b3 ef 3e 83 96 9c be f0 a1 90 bd
       0.47054815 0.4681646 -0.3058358 -0.07062137

BRD_net.encoder.2.bias f4 [10]
000000 c8 53 8a be bb 35 42 be 5a 93 38 3c 1d 1b 89 3e
       -0.27017045 -0.18965809 0.0112656 0.26778498
000010 e0 e6 27 be ff 4b 3a be ec 36 37 be ff 27 10 be
       -0.16396666 -0.18193053 -0.17892045 -0.14077757
000020 ea 8c b0 bd dc 9c 49 bd
       -0.08620627 -0.04922186

BRD_net.decoder.weight f4 [1, 10]
000000 43 fc 17 bf 3b b7 1a bf 2a 49 60 be 17 34 3e 3f
       -0.59369296 -0.6043584 -0.2190291 0.7429823
000010 e8 04 2a be 02 cb 9c 3d bb 00 29 3f bf ea 20 3e
       -0.16603434 0.07655908 0.6601674 0.15714549
000020 ac cf 10 3f 1e 31 ed 3e
       0.5656688 0.46326536

exp_avg f4 [10, 3]
000000 b9 35 14 bf 30 ca 42 40 d1 2d 46 c0 61 02 02 40
       -0.57894474 3.0435905 -3.0965464 2.0313952
000010 4a 91 82 be 3b f0 1f c0 c0 ee e1 be 6a 2b 9e 3e
       -0.25501472 -2.4990375 -0.44127464 0.30892497
000020 cc 96 f2 be 24 7b fe be fb 7d df bf 44 0e 29 40
       -0.47380674 -0.49703324 -1.7460321 2.6414957
000030 fa 08 da 3f cd 5a dd be 74 84 ed 3d fd 9a 39 3f
       1.703399 -0.43233338 0.11597529 0.7250212
000040 f9 d2 93 c0 b5 7a 0f 40 eb dc 86 c0 77 25 ed 3e
       -4.6195035 2.2418644 -4.2144675 0.46317646
000050 9a e1 be bf aa 3f 85 be 5e 6e ff be 24 79 5b 3e
       -1.4912598 -0.26025134 -0.4988889 0.2143293
000060 36 77 2c 40 e7 6c 37 bf 9a 61 12 3f 92 ac ac 3f
       2.694776 -0.71650547 0.5718018 1.3490164
000070 30 b0 64 3f 5e 92 33 bf
       0.8933134 -0.70145214

exp_avg_sq f4 [10, 3]
000000 6d 41 16 46 95 55 87 45 ce f3 6c 45 b3 cf 3a 46
       9616.356 4330.6978 3791.2378 11955.925
000010 10 6b d7 44 db 50 e8 44 ec 52 c6 41 47 cf 99 40
       1723.3457 1858.5267 24.79049 4.8065524
000020 e5 fc 2c 41 71 d0 d7 46 da 9f 63 46 33 d4 74 46
       10.811742 27624.22 14567.963 15669.05
000030 a9 ad 0c 45 14 08 aa 44 c8 07 9f 44 79 a9 94 46
       2250.8538 1360.2524 1272.2432 19028.736
000040 11 29 1e 46 f1 17 23 46 a7 f2 91 45 6d 36 13 45
       10122.267 10437.985 4670.3315 2355.4016
000050 cd ec f9 44 9c bb 80 42 ef cd 5b 42 6a f6 69 42
       1999.4 64.366425 54.951107 58.49064
000060 ce 0c 8e 44 fb a9 0e 43 56 3d 3e 42 6a eb c4 43
       1136.4001 142.66399 47.5599 393.83917
000070 70 ba 7f 42 cd 09 46 43
       63.932068 198.03828

exp_avg f4 [10]
000000 aa 3c d3 bf 5f db 8b bf 52 41 a9 bd 5e 8d 93 3f
       -1.6502888 -1.0926322 -0.08264412 1.1527517
000010 ac 24 29 3f a0 06 02 3d e9 5d 0d c0 f4 64 77 3e
       0.6607158 0.0317446 -2.2088568 0.24159604
000020 8b c5 8f 3f f4 41 ba 3e
       1.123216 0.36378443

exp_avg_sq f4 [10]
000000 4c 1c 14 46 f2 34 8f 45 cd 18 a5 41 6b 80 0e 47
       9479.074 4582.618 20.63711 36480.418
000010 65 2b 43 45 34 f7 c3 46 97 0b 99 45 45 a0 d6 42
       3122.7122 25083.602 4897.4487 107.31303
000020 2a aa 22 43 d9 d2 ab 43
       162.6647 343.64725

exp_avg f4 [10, 10]
000000 f2 9d 25 3f 06 ad c2 be cb 69 83 bf 9b c9 db bf
       0.6469413 -0.3802263 -1.026666 -1.71709
000010 44 ee 05 3f 0b f7 c6 be c0 28 4a bf 9c b5 b2 bf
       0.5231669 -0.38860354 -0.7896843 -1.3961673
000020 58 c0 f5 bd 0a 34 48 be e3 f7 01 3f 95 cd bd be
       -0.11999577 -0.19551101 0.5076887 -0.3707091
000030 4c af a6 bf 13 06 a5 bf b6 b1 ab 3f 47 75 9b bf
       -1.3022246 -1.2892479 1.3413608 -1.2145165
000040 79 75 a3 bf 1c c8 a1 bf 08 4a 68 3d cf 73 8c 3f
       -1.2770225 -1.2639194 0.056711227 1.0972842
000050 70 b4 f2 be 46 51 15 bf d6 0d 18 bf fc 3a e4 be
       -0.47403288 -0.5832714 -0.5939611 -0.44576252
000060 ae e1 86 3f 3c a1 3f bf 8e bf f4 be 3a d0 00 bf
       1.0537622 -0.748554 -0.47802395 -0.5031773
000070 30 94 0a 3d 55 d0 8b 3f 2e 4e 0f be a4 a9 81 be
       0.03383273 1.0922953 -0.13994667 -0.25324738
000080 45 c6 b0 bf 58 bb 61 bf 91 2d ec 3f 74 7b f2 bf
       -1.3810507 -0.8817649 1.8451406 -1.8943925
000090 a5 9f a6 bf 32 d5 9d bf 3a 56 90 3e f8 ee fc 3f
       -1.301747 -1.2330687 0.28190786 1.9760427
0000a0 9d a0 6c 3d 1f 4e 90 be e4 e3 1a 3f ea 92 60 3d
       0.05777036 -0.28184602 0.60503983 0.05482761
0000b0 85 93 2e bf 6f 1b 81 3f 9b d0 05 3f 2d 12 23 3f
       -0.68193847 1.0086497 0.5227143 0.6369961
0000c0 4a 90 dc 3d 02 73 12 bf 02 84 e6 3e 6c 89 18 bf
       0.107697085 -0.5720674 0.4502259 -0.5958469
0000d0 40 1f 24 bf c3 6e 4e bf f5 bf 83 be 37 bd ac 3e
       -0.64110184 -0.8063776 -0.2573239 0.3373811
0000e0 12 bb 29 bf 95 62 5a bf 4c 80 27 bf bd c6 48 bf
       -0.6630107 -0.85306674 -0.6543014 -0.7842825
0000f0 89 3f 69 bf 9e d7 c3 3d db f4 86 bf e8 f5 8b 3d
       -0.9111257 0.0956261 -1.0543474 0.06834012
000100 fd 87 a4 3f 20 56 ca bf d5 82 74 bf 8f 4e 7c bf
       1.2854 -1.5807533 -0.95512134 -0.9855737
000110 36 ec e0 3e fc 2f d8 3f b7 55 10 bf 04 20 25 3e
       0.43930215 1.6889644 -0.5638079 0.16125494
000120 4c 60 d2 bf f4 b6 93 bf 2d 75 e5 3f 03 a4 f8 bf
       -1.6435637 -1.1540208 1.7926384 -1.9425052
000130 e8 8b bb bf b0 da d4 bf 4d e7 80 3f f8 68 07 40
       -1.4652071 -1.6629238 1.0070587 2.1157818
000140 6a 69 04 3f 12 24 2a bf 4e 59 ff bf 8d 3b ea bf
       0.5172335 -0.6646129 -1.9949129 -1.8299423
000150 53 22 0a 40 d8 de d4 bf 10 29 fa bf 98 bd f2 bf
       2.158345 -1.6630507 -1.9543781 -1.896411
000160 0b 73 05 3f eb 50 fb 3f b7 e3 90 3f f4 d7 76 3f
       0.52128667 1.9634069 1.1319493 0.9642327
000170 96 a6 13 40 09 b3 b5 3f cf 34 1a c0 b3 6e 1a 40
       2.3070426 1.4195262 -2.4094732 2.4130065
000180 78 09 fd 3f d2 6a 19 40 24 76 57 3e 53 76 0b c0
       1.9768515 2.3971448 0.21041161 -2.179097

exp_avg_sq f4 [10, 10]
000000 f4 df ec 40 42 c9 15 45 3b b3 8d 45 9c ba 0e 42
       7.402338 2396.5786 4534.404 35.682236
000010 74 0f 51 45 ac ba f0 44 72 eb cc 45 0e 64 9e 45
       3344.9658 1925.8335 6557.4307 5068.507
000020 0f 09 d3 45 cf a0 64 42 05 1a eb 41 46 ec 83 41
       6753.1323 57.15704 29.387705 16.490368
000030 be 13 a9 43 64 0e 1c 43 da cc ae 43 b6 26 98 43
       338.15424 156.05621 349.6004 304.30243
000040 08 93 a6 43 58 66 bb 43 68 61 7f 42 22 74 32 43
       333.14868 374.79956 63.845123 178.45364
000050 20 1e 1f 42 21 00 f6 42 ea 55 c8 43 54 0e 3d 43
       39.77942 123.00025 400.6712 189.05597
000060 c4 e9 a9 43 b4 73 8d 43 c8 23 da 43 54 2b c8 43
       339.8263 282.90393 436.27954 400.3385
000070 48 d8 82 43 83 e7 68 43 df f8 a3 42 a3 d2 d3 44
       261.6897 232.90434 81.98608 1694.5824
000080 32 19 5a 45 ab 62 e1 43 c0 42 27 45 82 6b d4 44
       3489.5747 450.77084 2676.1719 1699.3596
000090 49 96 94 45 00 a6 6d 45 1b 18 8e 45 39 10 fc 43
       4754.7856 3802.375 4547.013 504.12674
0000a0 d7 b3 5d 41 1a ba 93 43 85 57 4f 44 84 9d a5 42
       13.856406 295.45392 829.3675 82.80765
0000b0 f9 c0 2e 44 6d fb ea 43 2b 04 8a 44 63 c9 6c 44
       699.0152 469.96426 1104.1302 947.14667
0000c0 ce 4c 68 44 0c 8e af 42 33 8c dc 40 74 72 81 43
       929.2001 87.777435 6.892114 258.89417
0000d0 00 f6 d9 43 0f 49 2e 42 d3 97 99 43 5b 4a 34 43
       435.92188 43.571346 307.18613 180.29045
0000e0 1a d3 18 44 63 9c e6 43 6f f9 1f 44 86 d9 77 42
       611.29846 461.22177 639.8974 61.962425
0000f0 7d 8c 3a 42 5e 89 ff 44 53 90 70 45 12 c4 76 43
       46.637196 2044.2927 3849.0203 246.7659
000100 4c cb 31 45 aa 3a d3 44 25 28 ab 45 b1 ce 84 45
       2844.706 1689.8333 5477.018 4249.8364
000110 ad 62 af 45 7e 0d 89 43 7f b5 c6 42 73 71 49 44
       5612.3345 274.1054 99.354485 805.77264
000120 42 49 e7 44 ec 51 0e 44 cd 9e bd 44 4c 22 8f 44
       1850.2893 569.28 1516.9625 1145.0718
000130 d4 5d 11 45 00 85 f8 44 ac 86 f2 44 f7 61 3e 44
       2325.8643 1988.1562 1940.2085 761.5307
000140 1e 59 b3 41 50 3e 71 44 3a 39 a6 44 3c ea 07 43
       22.418514 964.97363 1329.7883 135.91498
000150 27 cb 57 44 0c 78 e3 43 a5 3b f5 44 ab d7 ab 44
       863.17426 454.93787 1961.8639 1374.7396
000160 4d 02 13 45 1f bb 4e 43 62 9a 3a 43 48 17 05 45
       2352.1438 206.73094 186.60306 2129.455
000170 85 af a1 45 46 59 74 44 ad 88 82 45 dd 1c 33 45
       5173.94 977.3949 4177.0845 2865.804
000180 de 21 d4 45 e3 3b b0 45 27 79 ba 45 1d 47 87 44
       6788.2334 5639.486 5967.144 1082.2223

exp_avg f4 [10]
000000 b5 07 22 bf ac 79 bb bf 3c 85 5e bf 01 31 e9 bf
       -0.6329301 -1.4646506 -0.8692205 -1.821808
000010 0d ef 3d 3f 0b bf 1a bf 69 fd db bf 57 b9 07 c0
       0.7419289 -0.6044776 -1.718671 -2.1206872
000020 90 2e 1a c0 cd a6 42 40
       -2.409092 3.0414307

exp_avg_sq f4 [10]
000000 14 eb 56 46 a7 48 06 44 f1 3a 32 44 ad 20 14 46
       13754.77 537.1352 712.92096 9480.169
000010 88 a1 0b 45 9a 14 9a 44 48 f7 2e 46 6a a9 85 45
       2234.0957 1232.6438 11197.82 4277.177
000020 8a 88 7b 45 9a ca 4f 46
       4024.5337 13298.65

exp_avg f4 [10, 10]
000000 d0 d0 6c bf 5b 06 4a 3d 0a f9 6a bf 1a da 19 3f
       -0.9250612 0.049322467 -0.91786253 0.6009842
000010 2b 2e 5a bf 4a c2 70 bf 21 64 63 be a0 94 0e be
       -0.85226697 -0.9404646 -0.22206165 -0.13923883
000020 da 57 f7 bd b9 c6 87 3f 67 7e d7 3e 2f a6 7b 3f
       -0.12077303 1.060752 0.42088625 0.9830045
000030 5b 96 1e bf 40 90 71 3f 6d a1 8a bf e2 e7 b4 be
       -0.61948174 0.94360733 -1.0830513 -0.35333163
000040 9d 11 86 bf 1f 04 03 bf bb b6 84 bf 8c a1 0f 3d
       -1.0474125 -0.51178163 -1.0368265 0.035066172
000050 e1 41 e8 be cc 50 0f be ed 79 2b bf d1 6e c4 3e
       -0.45362762 -0.13995665 -0.6698292 0.38365796
000060 1a 46 a0 be 36 b6 12 bf 1a 9b 2c bd 18 8d 9e bc
       -0.31303483 -0.5730928 -0.042140104 -0.019354388
000070 33 66 c0 3d d8 26 4d 3f f8 3e 11 3f 88 bf 0f bf
       0.09394493 0.80137396 0.5673671 -0.5615163
000080 a4 5f a0 3f 1f bd 86 bf 73 ae 57 3f e8 82 6e 3f
       1.2529187 -1.0526465 0.84250563 0.931685
000090 58 fe b9 3f 2b 63 39 3f d9 1c 15 3f 2e 40 b9 bf
       1.4530745 0.72416943 0.58247143 -1.4472711
0000a0 28 db d7 bf 24 fa 8b 3f 2f 0a 1d c0 2f c2 09 40
       -1.6863756 1.0935712 -2.4537466 2.152477
0000b0 93 38 11 c0 de bf 15 c0 27 5c e1 bf 65 49 7e bf
       -2.269078 -2.3398356 -1.7606248 -0.9933074
0000c0 b2 54 9d bf 9c 55 0c 40 e8 4e b5 bf f5 cb ec 3e
       -1.2291472 2.1927252 -1.4164705 0.46249357
0000d0 ab 7d fe bf 77 75 a6 3f 1b 4e 99 bf 9e b7 eb bf
       -1.9882101 1.3004597 -1.1976961 -1.841541
0000e0 36 93 82 bf 07 fd e8 be 4a 82 ea be 5c f8 e8 3f
       -1.0201175 -0.45505545 -0.45802528 1.8200793
0000f0 d0 83 55 3c cb e9 93 be e4 71 fa 3e d1 4d 91 be
       0.013031915 -0.28889307 0.48915017 -0.28379682
000100 0a fb 88 3c 30 21 81 3e dc 03 3d 3f 8a 24 69 3e
       0.016721267 0.25220633 0.73834014 0.22767845
000110 7a 04 f4 3d 94 4b f8 be a0 d7 ba be 2e 6d 00 3e
       0.11914916 -0.48495162 -0.36492634 0.12541649
000120 9c df 6c bf 28 f7 f8 3e bc 66 c3 be a9 94 39 bf
       -0.925287 0.48626065 -0.38164318 -0.7249246
000130 07 64 d1 be 92 0a b3 3e ff 2a 24 3e 36 9d 26 3f
       -0.40896627 0.34969002 0.16032027 0.65083635
000140 6c fe 27 3f 4a 96 ab be 87 61 76 3f 87 0c 3e bf
       0.6562259 -0.335131 0.96242565 -0.74237865
000150 fa 59 15 3f eb 53 70 3f 99 06 22 3f ff 5d e1 3d
       0.5834042 0.9387805 0.6329132 0.110042565
000160 45 cf 72 3e 01 f8 38 bf 76 6d 91 bd c9 07 67 be
       0.2371188 -0.72253424 -0.07100956 -0.22561564
000170 cf e9 24 3f ab 80 ee be 68 8a 26 3d 4e dd c8 3e
       0.64419264 -0.4658254 0.04065934 0.39231342
000180 90 61 e0 3e d2 48 fa bc bf f7 20 3d fc 1c 85 be
       0.43824434 -0.030552302 0.03929877 -0.25998676

exp_avg_sq f4 [10, 10]
000000 c5 9f ba 42 b7 3b 54 42 16 be 31 43 bd 7c 7d 42
       93.31205 53.058315 177.74252 63.371815
000010 09 91 d8 42 ca 7c dd 42 2c c0 b2 42 dc e6 1f 41
       108.28327 110.74373 89.375336 9.993862
000020 4b 68 09 43 22 72 a5 43 50 38 30 43 c0 32 9e 43
       137.4074 330.89166 176.21997 316.39648
000030 f7 34 35 44 07 8d c8 43 e7 26 3f 44 4d 58 e6 43
       724.8276 401.10178 764.60785 460.68985
000040 c9 6e ce 43 b5 46 25 42 6d ec 93 44 ef db 12 45
       412.8655 41.31905 1183.3883 2349.7458
000050 06 bb 09 43 86 83 8e 42 f7 3d 68 43 b0 23 ad 42
       137.73056 71.25688 232.24205 86.5697
000060 06 0a 04 43 7f 9d 14 43 ec e6 01 43 cf b3 88 41
       132.03915 148.61522 129.90204 17.087797
000070 41 52 4c 43 93 01 eb 43 28 2a 8a 43 83 4f 30 44
       204.3213 470.0123 276.32935 705.2424
000080 1f bd a8 44 6d df 61 44 0f 8f d5 44 6f 9a 81 44
       1349.91 903.491 1708.4706 1036.826
000090 1f cd 4a 44 7a 26 a6 42 0f e0 1f 45 e3 58 98 45
       811.205 83.07515 2558.0037 4875.111
0000a0 0b 9a 3c 44 e5 a9 9a 43 19 f4 dc 43 d8 68 a4 43
       754.4069 309.3273 441.907 328.8191
0000b0 63 7b e0 43 69 ab 40 44 9f df 90 43 b7 18 5d 42
       448.96396 770.6783 289.74704 55.274136
0000c0 14 13 ab 43 bf a3 fb 43 60 46 b7 43 87 d9 d1 43
       342.14905 503.27927 366.5498 419.69943
0000d0 e2 50 35 44 ff b8 ff 43 cb 82 67 44 46 25 3a 44
       725.2638 511.44528 926.04364 744.5824
0000e0 3a b2 e2 43 b7 cc 3f 42 30 8f 9c 44 ff 84 12 45
       453.3924 47.949917 1252.4746 2344.3123
0000f0 fe db 8c 42 a1 b0 03 44 61 4e a6 44 da 91 32 44
       70.42967 526.7598 1330.4493 714.27893
000100 23 d7 a9 44 3a a4 2c 44 60 c8 3e 44 aa a6 96 42
       1358.723 690.56604 763.13086 75.325516
000110 97 1f 0d 45 5e d3 8e 45 d2 d0 d4 43 cc 27 14 43
       2257.9744 4570.421 425.6314 148.15546
000120 05 65 88 43 53 86 1a 43 66 4a 54 43 61 31 c8 43
       272.7892 154.5247 212.29062 400.38577
000130 f8 f8 29 43 1b 68 e7 41 47 a6 01 43 76 12 71 43
       169.97253 28.925833 129.64952 241.07211
000140 d3 f1 d3 43 0e c5 08 43 3a d1 86 43 ef ec 09 43
       423.88925 136.76974 269.63458 137.92552
000150 49 f2 28 43 65 d5 c3 43 b0 24 25 43 a8 e2 db 41
       168.94643 391.66714 165.14331 27.485672
000160 e0 54 a1 42 89 cf 2b 43 59 93 69 43 49 ad 00 43
       80.66577 171.81068 233.57558 128.6769
000170 7f e6 1c 43 fc 63 0e 43 f8 77 7a 43 83 3e b4 43
       156.90038 142.39056 250.46863 360.48837
000180 0a 4e ae 42 ad 4a 86 41 a5 b2 98 42 a5 c9 0e 43
       87.15242 16.786463 76.348915 142.78767

exp_avg f4 [10]
000000 e2 2c 63 bf 46 58 b5 be b8 ab 81 bf 9e 74 15 40
       -0.8874036 -0.3541891 -1.0130529 2.3352427
000010 c3 c1 3e c0 9d e2 27 c0 60 11 5b 3f 51 07 0d bf
       -2.9805763 -2.6232064 0.8557339 -0.5508929
000020 8a 79 96 3f d2 ba 4f 3f
       1.1755841 0.8114444

exp_avg_sq f4 [10]
000000 f5 4a af 44 00 22 06 46 61 16 e8 44 9e 22 88 46
       1402.3424 8584.5 1856.6993 17425.309
000010 0a d8 13 45 81 63 05 46 7f 7e 80 46 28 26 a3 44
       2365.5024 8536.876 16447.248 1305.1924
000020 91 0d 80 44 eb bb 66 44
       1024.424 922.9362

exp_avg f4 [10, 10]
000000 b1 f4 68 3f 2d a7 e1 be 31 34 a1 3f 7e 04 28 3d
       0.9099837 -0.44072857 1.2594053 0.04101991
000010 2c 97 99 3f 28 3b 27 bf 7c 6c 77 bf 40 27 e0 3e
       1.1999259 -0.6532464 -0.9664991 0.43779945
000020 16 b6 80 bf 97 d8 5f 3f f9 a8 7c bf 42 61 25 3f
       -1.0055568 0.87439865 -0.9869533 0.6460153
000030 6f a0 6f bf a4 38 53 be 5a 21 84 bf ba 88 54 3f
       -0.9360418 -0.20627075 -1.0322678 0.8302113
000040 73 1b 95 3f e8 19 22 be fd 06 20 3f 69 1e 76 bf
       1.1649002 -0.15830195 0.62510663 -0.9614015
000050 e0 cb 0d 3f b8 66 68 bd f1 74 13 3f 21 6b 63 be
       0.55389214 -0.056738585 0.57600313 -0.22208835
000060 9c bd 30 3f 37 16 aa be 82 8b 1b be 34 33 8f 3d
       0.6903932 -0.33220074 -0.15189937 0.06992188
000070 20 eb 06 be 04 b2 e0 3e 00 81 aa 3a ea 69 0f bd
       -0.1317563 0.43885815 0.0013008416 -0.035013117
000080 74 50 10 3d d5 e0 30 be 36 79 b8 3c fc 21 42 be
       0.035232976 -0.17273267 0.022518735 -0.18958277
000090 a0 73 05 bc 84 05 4d bd 70 d0 e2 3c 35 d6 30 3e
       -0.008145243 -0.05005409 0.027687281 0.17269213
0000a0 0c aa bf bf 6e a4 86 3f 86 24 d1 bf 58 e9 c4 bd
       -1.4973769 1.051893 -1.6339271 -0.09614819
0000b0 30 76 ca bf 84 7a aa 3f f5 c8 bb 3f b7 d0 9b be
       -1.5817318 1.3318639 1.4670702 -0.30432674
0000c0 d4 30 85 3f fb de d3 bf c2 94 56 3f 6a c1 12 bf
       1.0405526 -1.6552423 0.83820736 -0.57326376
0000d0 a7 a5 bb 3f 80 43 22 3e 86 c6 96 3f ba bc 2a bf
       1.4659928 0.15846062 1.1779335 -0.66694224
0000e0 b4 81 83 bf a7 d9 40 3f 51 06 b2 bf fa 6b 5e 3f
       -1.0273957 0.7533211 -1.3908178 0.8688351
0000f0 1b 03 90 be 5e 3c 7b be aa a7 83 be ba 36 b2 3e
       -0.2812737 -0.24534747 -0.25713855 0.34807378
000100 b7 de 15 bf b8 6c 9c 3e bc f6 2b 3f 06 c9 3b 3e
       -0.5854296 0.30551696 0.6717336 0.18338403
000110 d9 29 59 3e ee e3 57 be 75 e1 8a 3f 7b 0a 60 bf
       0.2120737 -0.21083042 1.0850054 -0.8751599
000120 fe 16 ad 3f 54 91 30 3e 66 ee 96 3f ef cb 61 bf
       1.3522642 0.17242938 1.1791503 -0.882018
000130 5d 21 81 bf 9d 66 ed 3e 18 f2 7e bf d0 f0 96 3f
       -1.0088307 0.4636735 -0.99588156 1.179224
000140 fc 08 48 3f 90 82 80 3d 73 28 d1 3f d9 eb be be
       0.7813871 0.06274903 1.6340469 -0.37289312
000150 6b 33 cd 3f dc 09 5a bf 4e 04 9b bf 5c 92 4b 3f
       1.6031317 -0.85171294 -1.2110689 0.795202
000160 11 70 b9 bf 48 64 32 3f e6 03 ec 3f 00 da 84 bf
       -1.4487325 0.6968427 1.843869 -1.0379028
000170 88 76 09 40 a4 e7 82 3d 56 db 03 40 ae df bd bf
       2.1478596 0.06391838 2.0602622 -1.4833887
000180 84 3f c0 bf 6e a0 06 3f 15 7c a5 bf 62 bc ec 3f
       -1.5019383 0.52588546 -1.2928492 1.849499

exp_avg_sq f4 [10, 10]
000000 34 19 07 43 4b 57 a3 42 19 5a 00 43 bb 01 85 41
       135.09845 81.670494 128.35194 16.625845
000010 18 98 eb 41 1b 14 f9 42 23 45 b3 42 91 c6 56 42
       29.449265 124.53927 89.63503 53.693913
000020 58 77 a9 42 c0 82 ce 42 02 66 f9 43 a6 77 af 43
       84.73309 103.25537 498.79694 350.93475
000030 35 52 08 44 23 c7 5a 42 06 03 61 43 6f c6 f8 43
       545.2845 54.69447 225.01181 497.55026
000040 60 7b b2 43 9f 7c 5b 43 b9 83 08 44 5f 31 ba 43
       356.96387 219.4868 546.05817 372.3857
000050 34 94 5e 43 fc 02 30 43 5c 5c 85 43 24 39 b4 41
       222.57892 176.01166 266.72156 22.5279
000060 7f ee 07 43 31 92 8c 43 cb 94 34 43 7c 72 ea 42
       135.93163 281.14212 180.58122 117.2236
000070 23 19 c8 43 1e 9e 31 43 ee 3b e4 41 23 ac ba 41
       400.19638 177.61765 28.529263 23.334051
000080 7d d3 0b 42 22 89 38 40 47 e9 4c 41 12 98 12 42
       34.95653 2.88337 12.806952 36.648506
000090 6a 04 9e 41 50 54 54 41 39 e4 fa 41 b8 fd 02 42
       19.752155 13.270584 31.361437 32.747772
0000a0 90 0e 32 43 c4 af ad 42 93 44 3e 43 b3 be 8e 41
       178.05688 86.84329 190.26787 17.843115
0000b0 fc d9 6b 42 07 83 0a 43 4a 4f e7 42 e2 c1 9b 42
       58.962875 138.51183 115.65486 77.87868
0000c0 d0 31 19 43 12 33 e2 42 8a ab 33 43 7f 39 0a 43
       153.19458 113.09975 179.67007 138.2246
0000d0 c5 72 4b 43 91 f7 97 41 0d 3c 93 42 b7 f4 43 43
       203.44832 18.995882 73.61729 195.95592
0000e0 39 be fc 42 ec 9b 98 42 41 df 21 43 80 d5 21 43
       126.37153 76.304535 161.87209 161.83398
0000f0 25 0a 72 45 d0 a2 b7 45 0d 38 f1 45 2d 31 81 42
       3872.634 5876.3516 7719.0063 64.59605
000100 50 71 ff 45 d6 53 19 45 ee 7d 8c 44 2e 97 8d 45
       8174.164 2453.2397 1123.9353 4530.8975
000110 41 79 d8 46 69 79 1a 46 9e 57 41 42 32 31 04 42
       27708.627 9886.353 48.335564 33.048042
000120 bc a0 4a 42 e3 d5 d8 40 e6 ee 54 41 c0 85 3e 42
       50.656967 6.776109 13.308325 47.630615
000130 84 1e f9 41 fb 24 ad 41 cd ff 1d 42 7d 9b 23 42
       31.1399 21.643057 39.499805 40.901844
000140 42 d4 67 43 ed 4e 3c 43 3c e2 94 43 d8 94 d8 41
       231.82913 188.3083 297.76746 27.072678
000150 fa 5c 29 43 62 16 91 43 a9 53 4e 43 7d c5 0a 43
       169.36319 290.17487 206.3268 138.77144
000160 e7 86 02 44 19 24 23 43 53 e4 57 43 7b db be 42
       522.10785 163.141 215.89189 95.42867
000170 88 d5 62 43 55 03 b7 41 ea 6b c2 42 29 d5 23 43
       226.8341 22.876627 97.21077 163.83266
000180 b6 31 0f 43 44 ba d8 42 78 4c 90 43 7d 38 ee 42
       143.19418 108.3638 288.5974 119.11033

exp_avg f4 [10]
000000 10 c4 02 40 46 7d d2 bf 12 ef eb 3e 7c e2 30 be
       2.0432167 -1.644448 0.46080834 -0.17273897
000010 f5 da 08 c0 3b bc 30 40 ac 19 62 be a8 c5 03 40
       -2.138364 2.7614887 -0.22080106 2.058939
000020 78 db 4b 40 5b cb 37 40
       3.1852703 2.8717868

exp_avg_sq f4 [10]
000000 80 fb 3f 44 91 93 3d 45 5c e7 c1 44 76 eb 21 43
       767.9297 3033.223 1551.23 161.91977
000010 62 7e 8c 44 e6 09 82 44 89 b0 86 47 56 0d 93 43
       1123.9495 1040.3093 68961.07 294.1042
000020 ec 2d e8 44 9e e8 c1 44
       1857.435 1551.2693

exp_avg f4 [3, 10]
000000 59 a1 5e c0 08 1c a6 3f b8 25 22 3e bd d8 08 3f
       -3.4785979 1.2977304 0.15834701 0.53455716
000010 6a 69 a4 3f aa 73 1b c0 34 d2 85 3e b4 ae 02 c0
       1.284467 -2.4289346 0.26136935 -2.041913
000020 26 4f 11 bf 74 bd 91 bd 88 fd 91 bf b8 e2 cd be
       -0.56761396 -0.071162134 -1.1405497 -0.40212035
000030 1a 22 9e bf 19 f9 c9 3e 0d 07 4a be 09 8d 53 3f
       -1.2354157 0.3944786 -0.19729252 0.8263708
000040 8e 4c 23 c0 ae fd 96 3f 2c 67 2a 40 8c 20 5e bf
       -2.5515475 1.1796167 2.662547 -0.8676841
000050 d4 52 51 be ea e8 db 3c ab bf 8a bd 45 98 29 3d
       -0.20441753 0.02684446 -0.06774839 0.04140498
000060 58 95 fa bc ab f5 a1 bc bf 0c 54 3e 3a aa 8b bc
       -0.03058879 -0.019770464 0.20707987 -0.017048944
000070 e5 c2 81 be a1 99 0d be
       -0.25344005 -0.13828136

exp_avg_sq f4 [3, 10]
000000 1a 71 11 44 4e 08 87 42 52 d6 c4 42 e4 a2 f8 42
       581.7672 67.51622 98.418594 124.318146
000010 a3 42 91 43 1f 32 83 43 9f 6e 07 44 3c f2 a0 43
       290.5206 262.39157 541.72845 321.89246
000020 52 ef ef 43 e2 02 68 42 32 53 51 44 00 77 f3 42
       479.8697 58.002815 837.2999 121.73242
000030 3f 88 bb 42 4e 8d cc 43 f3 45 4c 43 1f c2 41 43
       93.766106 409.10394 204.27324 193.75829
000040 f6 a5 be 43 54 c1 42 44 08 1b 97 43 14 cc f8 42
       381.29657 779.02075 302.21118 124.39859
000050 e9 f0 e7 40 d2 bb 0b 40 92 fe db 40 07 31 45 40
       7.248158 2.1833386 6.8748255 3.0811174
000060 84 2b c7 40 ba 3f c9 40 e1 f6 33 41 4d 6a 21 41
       6.224062 6.289029 11.247773 10.088452
000070 88 ec 3b 41 b6 9a 46 40
       11.745247 3.1031928

exp_avg f4 [3]
000000 a1 7d b0 40 6b b7 d7 3f 94 9e 1a 3e
       5.5153356 1.685285 0.15099555

exp_avg_sq f4 [3]
000000 8b 8e 70 45 7b 90 43 45 0b 4a 10 42
       3848.909 3129.03 36.072308

exp_avg f4 [10, 4]
000000 5c 86 8d 3e a9 91 ff be a0 3b c0 be 2b a7 9e bf
       0.2764157 -0.49915817 -0.3754549 -1.2394766
000010 25 5a 6f be 6c ec d6 bb af 83 b7 be 9f 86 cd be
       -0.23374231 -0.0065589454 -0.35842654 -0.4014177
000020 bb fe c4 3f db 19 a6 3f 0b 23 ab 3e f5 a1 eb 3e
       1.5390238 1.297664 0.33425173 0.46022
000030 0d 87 a1 bf 42 00 d9 be b5 13 48 bf e4 94 14 bf
       -1.2619339 -0.4238301 -0.7815507 -0.5803969
000040 55 fb a4 be 1e c0 d9 be 9d 3e 1c 3e f7 90 c0 3c
       -0.32223 -0.42529386 0.1525826 0.023506625
000050 48 11 43 be d7 e1 29 3f a5 ee 54 3e 7b 1a 01 3f
       -0.19049561 0.6636023 0.2079416 0.5043103
000060 cb 84 9c 3e f6 1d 3b bf d1 2d f9 3e 9b a7 a1 3d
       0.30570063 -0.7309259 0.48667768 0.07893296
000070 ca e5 57 40 ba 4d 23 bf eb 4e e1 3f 5f b5 25 3f
       3.3734002 -0.63790476 1.7602209 0.64729875
000080 fe ed 82 40 7a a5 bc 3f 56 55 32 3f 84 00 36 bf
       4.091552 1.4738 0.6966146 -0.71094537
000090 41 6d 43 3f c9 a8 a0 3f 92 5c c4 bc dc f1 41 be
       0.76338583 1.2551509 -0.023969922 -0.18939918

exp_avg_sq f4 [10, 4]
000000 8c b8 54 47 26 6d 8a 44 a5 7f 82 41 80 ee 64 44
       54456.547 1107.4109 16.312326 915.72656
000010 74 5f d3 46 69 1a b0 41 dd 99 04 40 d1 76 32 41
       27055.727 22.012896 2.071891 11.154008
000020 3a dd 6a 45 c8 ad ee 41 72 15 53 40 56 4b 33 41
       3757.8267 29.834854 3.298184 11.205893
000030 05 b9 13 46 0a e2 6c 43 ba b8 1b 41 91 09 27 43
       9454.255 236.88297 9.732599 167.03737
000040 b6 80 85 47 25 02 d4 43 8e 85 bd 40 c1 76 ab 43
       68353.42 424.01675 5.922553 342.92776
000050 a0 1c da 43 49 a5 26 43 04 07 58 40 f4 cf 0b 43
       436.22363 166.64565 3.3754282 139.81232
000060 01 d9 e1 46 4d 79 e3 42 8c b9 8d 41 a5 82 8d 40
       28908.502 113.736916 17.7156 4.422198
000070 61 53 87 47 5e f5 b9 44 dd 89 a8 41 a4 43 9a 44
       69286.76 1487.6677 21.067316 1234.1138
000080 5f 20 db 46 4e 7b 1e 43 fd b8 12 41 f3 7e fb 42
       28048.186 158.48166 9.170163 125.74795
000090 1c bd bf 46 ef 40 9a 44 9f 56 ba 41 fd 83 74 44
       24542.555 1234.0292 23.292295 978.0623

exp_avg f4 [10]
000000 46 04 06 40 74 22 c4 3f a8 3e 8b 3f ae ce 2c c0
       2.0940108 1.5323014 1.0878496 -2.7001147
000010 cb a6 39 c0 eb 87 0e be eb 92 35 3f 8a 95 8f 40
       -2.9008052 -0.13919036 0.70927304 4.4870043
000020 67 86 75 3f 64 07 3d 40
       0.95908207 2.953576

exp_avg_sq f4 [10]
000000 9e 4d 19 49 3e 3f 2c 48 2d 44 4f 47 f2 ed 0a 48
       627929.9 176380.97 53060.176 142263.78
000010 37 d0 6a 49 ef 7e e2 44 d3 f9 45 48 26 4e 62 49
       961795.44 1811.9667 202727.3 926946.4
000020 44 ff c0 48 8d 6c b7 48
       395258.12 375652.4

exp_avg f4 [10, 10]
000000 9a 7a 07 c0 e5 5e 8f bf d3 03 69 40 e4 13 59 c0
       -2.116858 -1.1200835 3.6408584 -3.391839
000010 1c 32 80 40 c1 b4 12 3f d8 bb 0d bf c5 29 23 c0
       4.006117 0.5730706 -0.5536475 -2.5494244
000020 96 50 7d 3f 14 c8 30 40 75 b7 06 bf cc d7 f7 bd
       0.9895109 2.7622118 -0.52623683 -0.12101707
000030 97 b1 a4 be c3 76 f3 3e 4a 3f fe be 6e 25 e5 3e
       -0.3216674 0.47551546 -0.4965766 0.4475512
000040 56 cd 26 3f be a9 81 be 4d 23 b5 be c9 77 49 bf
       0.6515707 -0.25324816 -0.35378495 -0.786984
000050 5f 42 57 3f 0d ef 69 3f 40 e9 62 3e 74 5c 0c 3f
       0.8408565 0.9138039 0.2215929 0.5482857
000060 23 d4 13 bf 9e e8 5a 3e 73 d0 1a bf d1 3d 24 bf
       -0.5774557 0.21377799 -0.6047432 -0.64156824
000070 2e e6 8a bf 8a 5e 7d bd 7c b5 fe be fd 08 5d bf
       -1.0851495 -0.061857738 -0.49747837 -0.8634184
000080 94 89 80 40 90 ad 7e c0 80 c3 67 40 bc 12 17 c0
       4.016794 -3.9793434 3.6213074 -2.3605185
000090 75 69 60 bf f9 0b 17 c0 27 50 2e 40 ba 64 99 40
       -0.87660915 -2.3601058 2.723642 4.7935457
0000a0 20 4d ac bf c1 3a cc be 0a eb 8d 3f bc 1e ac bf
       -1.3461037 -0.39888576 1.1087353 -1.3446879
0000b0 a0 8c de 3f e8 6f 88 3c 4c 62 b4 3d 15 d5 0d bf
       1.7386665 0.016654924 0.08807811 -0.5540326
0000c0 59 13 3c 3f b6 2a 65 3f 93 7f f7 3e aa d8 83 bd
       0.7346702 0.89518297 0.4833952 -0.0643781
0000d0 70 e9 ee 3c ec d5 cc 3d 57 ed ab be 4b b9 52 be
       0.029164046 0.1000174 -0.33579513 -0.20578496
0000e0 14 bb 50 3c 25 18 2b be 61 09 9c bc 3e ae b9 3d
       0.012739915 -0.16708429 -0.019047441 0.09066437
0000f0 c7 e8 c0 3f 71 ec ef 3e 0a 7a f6 3e d5 25 e9 be
       1.5071038 0.46860078 0.48139983 -0.45536676
000100 44 03 b8 3c 69 c0 bf bf 28 68 64 bf 05 f0 43 3e
       0.022462495 -1.4980594 -0.8922143 0.19134529
000110 13 80 3b 3f b2 88 c1 3f c4 9d de 3e 85 16 1d 3f
       0.732423 1.5119841 0.4347974 0.6136249
000120 9b b3 1a 40 7d 69 ca bf 21 78 66 3f 50 d3 31 c0
       2.4172122 -1.5813442 0.9002705 -2.7785225
000130 bc 6e 70 be 35 82 3d c0 d9 80 66 3f 5f 35 36 40
       -0.23479742 -2.9610722 0.90040356 2.8470075
000140 25 78 43 3f 16 3a 2f be 68 f6 1b 3f 47 71 86 bf
       0.763552 -0.17112002 0.6092286 -1.050332
000150 1b 1d 9e 3f be 67 4c 3e 6d c8 a4 bf 20 ad 9c 3f
       1.2352632 0.1996145 -1.2873665 1.2240334
000160 34 de 31 3f e1 00 a1 3f f2 f6 5d 3f 2b 06 28 3e
       0.6947968 1.2578393 0.86704934 0.16408603
000170 5f 39 86 bd a6 77 ef bd ac e9 6c 3d 0d db 08 be
       -0.065539114 -0.11692743 0.057840034 -0.13364811
000180 22 f8 48 bf 8a 13 41 3f 57 30 ce 3d e6 f3 df 3e
       -0.7850362 0.7542044 0.10067814 0.43740767

exp_avg_sq f4 [10, 10]
000000 a9 f9 3e 47 c8 a5 8c 44 3e c0 01 48 5d ff 37 48
       48889.66 1125.1807 132864.97 188413.45
000010 4a de 47 48 b0 4e 27 48 3d 6b 10 48 0c a7 18 46
       204665.16 171322.75 147884.95 9769.762
000020 bf e7 06 48 87 75 b6 48 47 d0 72 46 23 fb fc 43
       138142.98 373676.22 15540.069 505.962
000030 5c 89 18 47 b2 fd 4c 47 ff ae 6b 47 cc f0 38 47
       39049.36 52477.695 60334.996 47344.797
000040 23 88 3b 47 fb ec 2d 44 af 13 16 47 e6 6e d6 47
       48008.137 695.7028 38419.684 109789.8
000050 fd 8d a6 45 6d dd 15 43 08 e3 67 46 d8 53 a1 46
       5329.7485 149.86494 14840.758 20649.922
000060 51 c8 b0 46 f2 6f 93 46 b9 3b 79 46 05 ce b2 44
       22628.158 18871.973 15950.931 1430.4381
000070 2f 7d 69 46 3a 77 1e 47 39 72 c1 46 98 65 83 43
       14943.296 40567.227 24761.111 262.7937
000080 66 19 74 47 b1 bd ba 47 e3 bf c0 47 1c 88 a7 47
       62489.4 95611.38 98687.77 85776.22
000090 43 b5 91 47 45 1e 07 45 53 ed 8e 47 b4 23 3a 48
       74602.52 2161.8918 73178.65 190606.81
0000a0 2f 00 8f 45 27 52 e4 42 00 4f 3e 46 ee be 87 46
       4576.023 114.16045 12179.75 17375.465
0000b0 e0 f5 92 46 84 4c 76 46 a2 d6 57 46 c8 a9 44 44
       18810.938 15763.129 13813.658 786.65283
0000c0 bf 7d 48 46 b6 49 07 47 fb e7 9e 43 bd 4c 21 41
       12831.437 34633.71 317.81235 10.081235
0000d0 46 27 6c 44 09 bd a5 44 86 75 b4 44 03 61 98 44
       944.61365 1325.9073 1443.6726 1219.0316
0000e0 6a b0 6e 44 b6 a8 f0 42 d9 bb 6d 44 5f a7 1e 45
       954.7565 120.32951 950.9351 2538.4607
0000f0 f7 cf 62 47 60 f3 7a 44 85 93 10 48 b3 fb 50 48
       58063.965 1003.80273 148046.08 213998.8
000100 da 06 62 48 5a 0d 3c 48 6c 85 2d 48 57 cf 75 45
       231451.4 192565.4 177685.69 3932.9587
000110 ca 6b 1c 48 a8 2d d4 48 4a d2 f4 44 a1 1a 75 42
       160175.16 434541.25 1958.5715 61.276005
000120 73 b5 a2 45 2a c1 de 45 26 0d fb 45 c5 39 ca 45
       5206.681 7128.1455 8033.6436 6471.221
000130 45 99 bc 45 66 3f 79 43 fd ac a1 45 cd a4 62 46
       6035.1587 249.24765 5173.6235 14505.2
000140 3c a6 fa 46 34 29 ff 43 c2 76 a2 47 f4 ff ed 47
       32083.117 510.3219 83181.516 121855.91
000150 fa f5 fd 47 41 92 d6 47 7b db be 47 4b e0 4e 45
       130027.95 109860.51 97718.96 3310.0183
000160 6b 56 b2 47 a3 d6 6e 48 1b f5 86 46 69 4f 25 44
       91308.836 244570.55 17274.553 661.2408
000170 9e 4f 36 47 7c c8 72 47 2c e6 8a 47 32 72 5d 47
       46671.617 62152.484 71116.34 56690.195
000180 de 2d 4e 47 ff ac 43 45 ad f9 2d 47 e4 35 f6 47
       52781.867 3130.8123 44537.676 126059.78

exp_avg f4 [10]
000000 d0 89 2e 40 d0 f7 c5 bf 0f b8 0a 3f 85 53 e0 40
       2.7271614 -1.5466251 0.541871 7.0101953
000010 d0 93 04 3f fe ce d6 3e 82 b3 5a 40 8f 01 8e 40
       0.51788044 0.41954798 3.4172063 4.4376903
000020 aa d2 2a 40 fe bd a1 3f
       2.669108 1.2636106

exp_avg_sq f4 [10]
000000 93 52 90 49 ff f2 af 48 e9 55 f8 47 f9 44 15 49
       1.1822904e+06 360343.97 127147.82 611407.56
000010 c9 3e d7 47 c0 5e f3 45 a1 68 ab 49 09 f6 35 47
       110205.57 7787.8438 1.4041801e+06 46582.035
000020 83 65 3f 49 e6 e7 c4 48
       783960.2 403263.2

exp_avg f4 [1, 10]
000000 5f e0 f1 bd ae a7 b7 bf c2 53 04 c0 f1 d0 07 40
       -0.118103735 -1.4348047 -2.0676122 2.1221278
000010 f6 80 77 be 97 ea a2 3e b0 fb a9 3f 4a 32 28 3e
       -0.24170288 0.31819603 1.3279934 0.16425434
000020 22 cd a1 bd 68 f0 8b bf
       -0.07900454 -1.0932741

exp_avg_sq f4 [1, 10]
000000 b9 bc 78 46 13 71 a4 49 de 2c 2b 48 c2 e7 9f 49
       15919.181 1.3471064e+06 175283.47 1.3099442e+06
000010 44 3e d5 47 e3 e2 b3 45 6a 30 05 48 37 85 6c 48
       109180.53 5756.361 136385.66 242196.86
000020 11 94 f2 48 e8 75 4e 49
       496800.53 845662.5
