example/Reprogramming/Output/ckpt_itr300.pth (torch, 7862 bytes, 15 tensors)

GRN_net.encoder.0.weight f4 [10, 3]
-0.1998959 -0.12712853 0.1042548 -0.15178624 0.28348723 -0.20301689 0.40109384 0.1440119
-0.22560029 0.71225506 0.20055251 -0.39927825 -0.36488473 0.34605613 0.232417 0.57019025
-0.09934534 0.38867807 0.3193333 0.26344007 -0.12556396 0.7735887 0.21633522 -0.082028374
-0.14193444 0.7757803 0.34226927 -0.2570272 0.6185327 0.15918905
00000000: 83b1 4cbe fb2d 02be 8a83 d53d da6d 1bbe
00000010: 3d25 913e a9e3 4fbe 2c5c cd3e db77 133e
00000020: c303 67be 5956 363f a35d 4d3e 336e ccbe
00000030: 2cd2 babe 452e b13e b9fe 6d3e fdf7 113f
00000040: 9275 cbbd d000 c73e a87f a33e 9ee1 863e
00000050: d793 00be e909 463f fb86 5d3e 7efe a7bd
00000060: 4357 11be 8a99 463f eb3d af3e 1299 83be
00000070: 2958 1e3f 7402 233e

GRN_net.encoder.0.bias f4 [10]
0.18072745 0.5559407 0.31253812 -0.4577835 -0.61838853 -0.30960122 0.5241012 -0.0051470455
0.12741585 -0.44811127
00000000: 9e10 393e 2152 0e3f ff04 a03e 9962 eabe
00000010: b64e 1ebf 0d84 9ebe 7f2b 063f 8ca8 a8bb
00000020: 4d79 023e d76e e5be

GRN_net.encoder.2.weight f4 [10, 10]
-0.5031467 -0.5414826 0.34840143 0.965858 -0.37872028 0.26066208 0.038753815 -0.05798825
-0.18987681 -0.10590535 0.090952314 0.3121691 0.16809855 0.22142963 0.52555525 0.13739985
0.05248007 -0.24868086 0.33421552 0.11390425 0.3169817 0.5011821 -0.110623255 0.402633
-0.120263234 0.49333093 0.44802484 -0.19187811 -0.028891388 -0.25535166 -0.22388358 -0.16167554
-0.03037702 -0.25001952 -0.48393396 -0.3592395 -0.067402855 -0.21341278 0.33389598 0.47752288
0.2940903 0.21751282 -0.4075286 0.63637435 -0.5253559 -0.15146011 -0.37406978 0.24031517
-0.4787059 -0.3301362 -0.36827248 -0.28033626 -0.19191003 0.6648081 -0.11557814 0.24288076
-0.48789775 0.565505 -0.038469877 -0.57939404 0.39637485 -0.13979094 0.5004295 -0.4468192
-0.49887764 -0.40165612 0.24880461 -0.074475534 -0.5097515 0.1070452 -0.07719585 0.10396659
-0.27281913 -0.35990104 0.35316435 -0.24208874 0.39217216 0.44691172 -0.4751544 -0.32540497
-0.011909089 -0.56116915 0.18606785 -0.15971148 -0.27735984 -0.40745634 0.26968223 -0.32516098
-0.49719152 -0.18061042 -0.2943422 -0.5865017 0.19338694 -0.16996895 0.3839203 0.36661094
-0.38609484 -0.3252656 -0.23214136 0.28788006
00000000: 39ce 00bf 9b9e 0abf ac61 b23e 7842 773f
00000010: a0e7 c1be 8075 853e 52bc 1e3d 1685 6dbd
00000020: 116f 42be e7e4 d8bd 3545 ba3d a1d4 9f3e
00000030: 0722 2c3e 73be 623e ca8a 063f 8cb2 0c3e
00000040: 58f5 563d 32a6 7ebe 4c1e ab3e a246 e93d
00000050: 6d4b a23e 784d 003f 728e e2bd ea25 ce3e
00000060: 924c f6bd df95 fc3e 8363 e53e b27b 44be
00000070: a2ad ecbc 74bd 82be bd41 65be 468e 25be
00000080: 3ad9 f8bc 8f02 80be 31c6 f7be 3dee b7be
00000090: 820a 8abd e188 5abe 6af4 aa3e e17d f43e
000000a0: 0193 963e aebb 5e3e 97a7 d0be 6ee9 223f
000000b0: b97d 06bf 5c18 1bbe 1386 bfbe 2e15 763e
000000c0: f118 f5be 9d07 a9be 368e bcbe 3c88 8fbe
000000d0: 1084 44be dd30 2a3f 3bb4 ecbd bcb5 783e
000000e0: bccd f9be f0c4 103f 9792 1dbd 2b53 14bf
000000f0: a5f1 ca3e 5b25 0fbe 261c 003f 7cc5 e4be
00000100: e46c ffbe dfa5 cdbe a3c6 7e3e a186 98bd
00000110: 137f 02bf 843a db3d dc18 9ebd 6fec d43d
00000120: f3ae 8bbe f344 b8be f5d1 b43e 1ce6 77be
00000130: caca c83e 9dd1 e43e 7047 f3be 7b9b a6be
00000140: 571e 43bc c8a8 0fbf 9288 3e3e 688b 23be
00000150: 1c02 8ebe 1e9e d0be ca13 8a3e 807b a6be
00000160: e38f febe f0f1 38be 05b4 96be fa24 16bf
00000170: 3a07 463e 570c 2ebe 3491 c43e 6eb4 bb3e
00000180: 39ae c5be 3689 a6be 77b6 6dbe 0465 933e

GRN_net.encoder.2.bias f4 [10]
-0.14999424 -0.06862546 -0.17996474 0.09793882 0.09782504 -0.019313063 0.14235872 0.10435817
0.19584757 0.1666865
00000000: 1798 19be 818b 8cbd ad48 38be 2694 c83d
00000010: 7f58 c83d 6e36 9ebc 7cc6 113e bcb9 d53d
00000020: 448c 483e deaf 2a3e

GRN_net.encoder.4.weight f4 [10, 10]
0.06678397 -0.27805835 0.342149 0.4267869 0.5014511 -0.32231405 -0.13653249 -0.0600422
0.56249905 -0.2626577 -0.47333875 0.07557927 -0.16884276 0.27989602 -0.02599514 -0.45131403
0.4233301 0.42521134 0.10916461 -0.45675787 0.24194883 0.31155178 0.12880565 -0.25387368
0.061648536 -0.2081055 0.5209934 0.65645736 0.036972534 -0.3196613 0.38260916 0.32591364
0.29243812 -0.36772916 0.15360878 -0.2346441 -0.51589745 -0.50107384 0.14605568 0.19379336
-0.49644428 0.2753324 0.4189706 0.38255864 0.32622588 -0.09342898 0.3958393 0.5199668
0.36995497 -0.37536368 -0.25941595 0.46223503 0.4051014 0.38028455 -0.27476662 -0.17399119
-0.3895472 -0.2476921 0.4578887 -0.43399185 -0.019837204 0.020038327 -0.36472252 0.036795024
0.00027455075 0.30879295 -0.4547117 0.1748306 -0.40322766 0.39917594 0.4822633 -0.16895194
0.0896001 -0.24324028 -0.4145304 -0.34165713 -0.20804027 0.20888542 -0.060822424 0.032949857
-0.3714738 -0.33725396 -0.4424416 -0.388946 0.47587335 0.24920774 -0.53833395 -0.27031472
-0.050253466 0.20882101 0.6480392 0.077846274 0.45387277 -0.2547708 0.05812222 -0.22823104
0.11211622 0.35695073 0.3388077 0.4529043
00000000: 09c6 883d aa5d 8ebe 272e af3e d083 da3e
00000010: 195f 003f 5906 a5be 2ccf 0bbe cfee 75bd
00000020: f0ff 0f3f 127b 86be 7559 f2be 4ec9 9a3d
00000030: 1ee5 2cbe 884e 8f3e c3f3 d4bc a212 e7be
00000040: b9be d83e 4db5 d93e b291 df3d 2bdc e9be
00000050: 6fc1 773e b783 9f3e a1e5 033e bbfb 81be
00000060: 2d83 7c3d 9c19 55be d35f 053f 970d 283f
00000070: 8370 173d a5aa a3be 59e5 c33e 27de a63e
00000080: 73ba 953e ff46 bcbe 9f4b 1d3e 8b46 70be
00000090: db11 04bf 6046 00bf 9f8f 153e c471 463e
000000a0: f22d febe 5ef8 8c3e 5183 d63e bade c33e
000000b0: 1407 a73e b157 bfbd 73ab ca3e 8b1c 053f
000000c0: bd6a bd3e ab2f c0be 2bd2 84be 12aa ec3e
000000d0: 7369 cf3e a8b4 c23e 36ae 8cbe bf2a 32be
000000e0: bb72 c7be ffa2 7dbe 6370 ea3e 2e34 debe
000000f0: a281 a2bc 6b27 a43c e9bc babe 61b6 163d
00000100: 94f1 8f39 1c1a 9e3e f9cf e8be cb06 333e
00000110: db73 cebe ca60 cc3e 37eb f63e bd01 2dbe
00000120: 4280 b73d fb13 79be 543d d4be afed aebe
00000130: 8208 55be 0fe6 553e ef20 79bd 6ef6 063d
00000140: d031 bebe 8dac acbe b587 e2be ee23 c7be
00000150: aca5 f33e 5030 7f3e 41d0 09bf b166 8abe
00000160: 94d6 4dbd 2dd5 553e e6e5 253f de6d 9f3d
00000170: 0362 e83e 5171 82be 9111 6e3d 66b5 69be
00000180: 309d e53d 3fc2 b63e 3478 ad3e 13e3 e73e

GRN_net.encoder.4.bias f4 [10]
0.23141177 -0.08058697 0.0025885594 0.13203236 0.058416244 -0.14185089 0.11800435 0.26406798
-0.030468691 -0.058144744
00000000: 35f7 6c3e c80a a5bd d2a4 293b 7e33 073e
00000010: df45 6f3d 5c41 11be 44ac f13d eb33 873e
00000020: 7a99 f9bc 2f29 6ebd

GRN_net.encoder.6.weight f4 [10, 10]
-0.2623477 -0.057980478 0.11960773 0.41940865 -0.51509655 -0.25547233 0.08807361 -0.31447917
0.14788142 -0.085349366 -0.0903052 0.4272589 0.42420623 0.3891221 0.39068863 0.051479265
0.46495616 0.47251347 -0.3136671 0.20142269 0.12311998 -0.12716326 -0.076611675 -0.28669792
-0.2594046 -0.12464882 0.21684842 0.4398663 0.008596116 -0.54857874 0.3262287 -0.119801104
0.47722062 -0.6513062 -0.07528921 0.3907913 0.27735212 -0.32931858 -0.37621987 0.09567158
0.21625292 -0.3508269 -0.46840605 -0.08377681 -0.038348712 0.4022334 -0.5201213 -0.10416484
-0.40882608 -0.093772955 -0.3277529 0.07703243 -0.4864712 -0.35198477 -0.4225519 -0.5367469
0.32656085 -0.12348443 -0.26521802 0.41358384 -0.06668472 0.4098921 -0.122850135 -0.5758713
0.23002915 0.4228975 -0.5134264 0.11293951 0.036963213 -0.019483909 -0.018057633 -0.12823878
-0.4141516 0.04785146 -0.32275254 -0.40594286 -0.14439693 -0.35482618 0.07880047 0.31808576
0.40162775 -0.5189287 0.27306804 0.61197305 -0.12291507 0.14690767 0.25908086 0.40895092
0.32222858 0.32164592 -0.17583212 -0.2727885 -0.22438833 0.42328033 -0.06740091 0.050296243
-0.48015723 0.023134539 -0.22803117 -0.3955366
00000000: 7052 86be f07c 6dbd e6f4 f43d bbbc d63e
00000010: 5edd 03bf 45cd 82be f05f b43d 6a03 a1be
00000020: 3a6e 173e a6cb aebd eff1 b8bd aec1 da3e
00000030: 8f31 d93e 033b c73e 5708 c83e ecdb 523d
00000040: bc0e ee3e 49ed f13e f998 a0be c041 4e3e
00000050: 5426 fc3d 1637 02be 95e6 9cbd 12ca 92be
00000060: aed0 84be e147 ffbd 830d 5e3e 2836 e13e
00000070: b9d6 0c3c a86f 0cbf 7307 a73e 485a f5bd
00000080: 4356 f43e 01bc 26bf 3b31 9abd cc15 c83e
00000090: 1901 8e3e 729c a8be e49f c0be 76ef c33d
000000a0: 6871 5d3e 959f b3be ebd2 efbe 2d93 abbd
000000b0: 8a13 1dbd 89f1 cd3e ab26 05bf 6054 d5bd
000000c0: a751 d1be 090c c0bd 3acf a7be 2ec3 9d3d
000000d0: c112 f9be 5937 b4be b958 d8be 3f68 09bf
000000e0: fc32 a73e 68e5 fcbd a8ca 87be 43c1 d33e
000000f0: 0092 88bd 61dd d13e da98 fbbd 4d6c 13bf
00000100: c38c 6b3e 0586 d83e ea6f 03bf d44c e73d
00000110: bd66 173d b89c 9fbc 9aed 93bc 0751 03be
00000120: ae0b d4be e4ff 433d d23f a5be bed7 cfbe
00000130: cadc 13be c7ab b5be 2462 a13d 23dc a23e
00000140: 27a2 cd3e 83d8 04bf 93cf 8b3e 44aa 1c3f
00000150: e5ba fbbd f76e 163e 3fa6 843e 0462 d13e
00000160: 25fb a43e c6ae a43e 560d 34be efaa 8bbe
00000170: 0ec6 65be 33b8 d83e 7d09 8abd 6f03 4e3d
00000180: 2bd7 f5be a584 bd3c 0181 69be c683 cabe

GRN_net.encoder.6.bias f4 [10]
-0.1954838 -0.25041133 0.24760126 -0.07373714 0.13859321 -0.046389632 -0.2274882 -0.14388184
0.054495975 -0.031716548
00000000: e82c 48be ea35 80be 2f8b 7d3e 7f03 97bd
00000010: 61eb 0d3e 0e03 3ebd abf2 68be c355 13be
00000020: 2c37 5f3d 36e9 01bd

GRN_net.decoder.0.weight f4 [3, 10]
0.6077857 -0.60436404 -0.110897414 -0.113186695 -0.6269605 0.4673551 -0.28117818 0.37027678
0.44350898 0.71440667 0.07419979 0.5937747 0.67473024 0.21886729 -0.12051014 -0.273188
0.17508066 0.16846389 -0.72816396 0.3723202 0.17127304 -0.55989814 0.15414298 0.43630043
0.17965129 0.6337018 0.098948255 -0.52712667 -0.07819033 0.4190645
00000000: d897 1b3f 9ab7 1abf 2f1e e3bd 6dce e7bd
00000010: 7c80 20bf 2b49 ef3e 96f6 8fbe eb94 bd3e
00000020: 9c13 e33e 5be3 363f 0ff6 973d 9e01 183f
00000030: 1fbb 2c3f bf1e 603e 05ce f6bd 4cdf 8bbe
00000040: 5848 333e cc81 2c3e f468 3abf c1a0 be3e
00000050: 3362 2f3e 7c55 0fbf a8d7 1d3e c562 df3e
00000060: 82f6 373e 483a 223f 62a5 ca3d c6f1 06bf
00000070: 4022 a0bd 9f8f d63e

GRN_net.decoder.0.bias f4 [3]
-0.20704387 0.28503886 -0.1065032
00000000: 4f03 54be 9df0 913e 5a1e dabd

BRD_net.encoder.0.weight f4 [10, 4]
-0.28491113 0.2802106 0.12806751 -0.102732606 0.038021013 0.23338406 -0.62080896 0.41233227
0.40478244 0.3330068 0.48515412 -0.036746554 -0.4908479 0.05326116 -0.15610066 0.22357382
0.5211574 -0.35223943 0.015622646 0.63506514 -0.53503484 -0.12942524 0.8782981 0.46994725
0.22871418 -0.049654007 -0.19569074 -0.58622 -0.5823483 -0.6084855 0.5636321 0.51733935
0.21895793 -0.14747462 0.2395331 -0.18751605 0.47873792 -0.03283076 -0.2932973 -0.17615753
00000000: dfdf 91be c477 8f3e 2124 033e 7965 d2bd
00000010: ecbb 1b3d 3bfc 6e3e 56ed 1ebf 371d d33e
00000020: a53f cf3e de7f aa3e 1f66 f83e 8e83 16bd
00000030: 6a50 fbbe 6028 5a3d dad8 1fbe 89f0 643e
00000040: 926a 053f ba58 b4be 20f6 7f3c a193 223f
00000050: 0bf8 08bf 0d88 04be 25d8 603f ed9c f03e
00000060: 0d34 6a3e 0062 4bbd 2763 48be 8412 16bf
00000070: c714 15bf b5c5 1bbf 314a 103f 5a70 043f
00000080: 8236 603e 9603 17be 2a48 753e 3504 40be
00000090: 231d f53e 8c79 06bd 102b 96be a462 34be

BRD_net.encoder.0.bias f4 [10]
0.31445634 0.062211454 0.20917954 -0.29434273 0.27494735 -0.2651147 -0.41318926 0.194287
0.24707195 0.5205247
00000000: 6c00 a13e 70d1 7e3d 2933 563e 17b4 96be
00000010: e6c5 8c3e 1dbd 87be 8b8d d3be 2cf3 463e
00000020: 6e00 7d3e 1b41 053f

BRD_net.encoder.2.weight f4 [10, 10]
-0.13859035 -0.53178227 0.13526678 -0.13405493 0.21810845 0.38129184 -0.060126673 0.27962157
0.078037545 0.33692434 -0.3756031 -0.06708779 -0.21070085 0.50754774 -0.5194342 -0.27999642
0.086445235 0.497533 0.34367627 -0.5392811 -0.41406703 0.47187465 0.047571484 -0.44012323
-0.20170991 0.27168018 -0.08525229 -0.40500775 -0.36462194 -0.3135201 0.004103488 0.2859028
0.2814695 -0.29107538 -0.07224552 -0.45056716 0.3960058 0.5345767 0.5558569 0.24966736
-0.13521537 -0.034314923 0.16061144 -0.43950298 -0.002831093 -0.4142917 -0.519352 -0.009386549
-0.20848684 -0.37846974 0.10135235 0.0476803 0.09664059 -0.33189926 -0.50415015 -0.004209968
-0.24445003 -0.15838441 0.42842495 0.11112775 0.2723767 -0.12539549 -0.40496418 0.08037972
-0.33276787 0.03960909 -0.44701073 0.4047376 -0.3452177 0.5031535 0.4049162 0.4086113
0.33921283 0.10375014 -0.0017198636 -0.030744588 -0.23845129 -0.48536348 0.5228002 0.04968751
0.27902347 0.053109612 0.18211082 -0.3672179 -0.39475816 0.388486 0.18816923 0.2588754
-0.51500607 0.06540836 -0.49046683 -0.03894284 0.0035301151 -0.4169912 -0.5106335 -0.02847358
0.46732685 0.47530615 -0.30294114 -0.06739702
00000000: a1ea 0dbe e222 08bf 6083 0a3e b245 09be
00000010: d257 5f3e af38 c33e 6347 76bd 8f2a 8f3e
00000020: 26d2 9f3d 5981 ac3e 0d4f c0be 5365 89bd
00000030: f7c1 57be a6ee 013f a4f9 04bf b15b 8fbe
00000040: 330a b13d a5bc fe3e 56f6 af3e 530e 0abf
00000050: 9800 d4be 8e99 f13e 51da 423d d557 e1be
00000060: 0b8d 4ebe aa19 8b3e c198 aebd 2d5d cfbe
00000070: baaf babe b585 a0be 8d76 863b da61 923e
00000080: c51c 903e d507 95be 76f5 93bd bdb0 e6be
00000090: 46c1 ca3e 05da 083f a34c 0e3f cda8 7f3e
000000a0: e675 0abe ce8d 0cbd 5377 243e 8906 e1be
000000b0: dc89 39bb 0b1e d4be 41f4 04bf 0aca 19bc
000000c0: 937d 55be c9c6 c1be d291 cf3d 6b4c 433d
000000d0: 80eb c53d b3ee a9be fc0f 01bf c5f3 89bb
000000e0: 1c51 7abe 862f 22be 845a db3e f296 e33d
000000f0: f574 8b3e ad67 00be 7757 cfbe 1f9e a43d
00000100: 8d60 aabe 243d 223d 97de e4be c439 cf3e
00000110: 60c0 b0be abce 003f 2d51 cf3e 8035 d13e
00000120: 4ead ad3e f47a d43d 0c6d e1ba 13dc fbbc
00000130: 932c 74be 9081 f8be 3cd6 053f 2185 4b3d
00000140: 2adc 8e3e 7789 593d 427b 3a3e fc03 bcbe
00000150: be1d cabe a3e7 c63e 6faf 403e 518b 843e
00000160: 70d7 03bf d1f4 853d 781e fbbe 8782 1fbd
00000170: 8159 673b df7f d5be e1b8 02bf 6d41 e9bc
00000180: 7745 ef3e 545b f33e 1a1b 9bbe 7307 8abd

BRD_net.encoder.2.bias f4 [10]
-0.2702699 -0.1930541 0.009156364 0.27628648 -0.16486259 -0.17068984 -0.17532234 -0.11855229
-0.082200594 -0.04574048
00000000: d160 8abe f9af 45be 9304 163c 6c75 8d3e
00000010: bdd1 28be 51c9 2ebe b387 33be 8bcb f2bd
00000020: c958 a8bd 5f5a 3bbd

BRD_net.decoder.weight f4 [1, 10]
-0.5935195 -0.6072578 -0.2257316 0.7463658 -0.16640276 0.08325627 0.6611758 0.15924147
0.56404036 0.46109915
00000000: e5f0 17bf 3f75 1bbf 2f26 67be d411 3f3f
00000010: 7c65 2abe 4382 aa3d d142 293f 3210 233e
00000020: f364 103f 3015 ec3e
