example/Embryogenesis/Output/ckpt_itr2500.pth (torch, 8074 bytes, 15 tensors)

GRN_net.encoder.0.weight f4 [10, 6]
-0.12458127 -0.20432824 0.03426832 0.11279322 0.31745577 0.17069295 0.28146794 0.25855395
0.21036603 0.041028306 -0.04874326 0.47840062 0.13250804 0.48224905 0.64156574 -0.18380195
0.5667755 -0.061857305 0.49253005 0.7027893 -0.46238288 0.059965506 -0.44759265 -0.4120457
-0.21000782 -0.24869716 -0.17135078 -0.58955884 -0.34035483 -0.029131418 -0.07660669 0.28898832
0.36872178 0.2983768 0.4731797 -0.5423375 0.5493274 -0.7566128 -0.089287974 0.2533433
0.3094545 -0.40239295 -0.28009567 -0.49842462 -0.27289027 -0.17260861 0.8792715 -0.11767629
-0.064822696 -0.50059503 0.83267885 -0.26285943 -0.6320994 0.44943643 -0.11411595 0.680787
-0.5957193 -0.48679256 -0.33091134 0.2922396
00000000: 7724 ffbd 6c3b 51be f05c 0c3d 2200 e73d
00000010: 9089 a23e 22ca 2e3e 911c 903e 2f61 843e
00000020: 316a 573e 4c0d 283d 03a7 47bd edf0 f43e
00000030: 30b0 073e 59e9 f63e a73d 243f 9436 3cbe
00000040: 3318 113f 165e 7dbd e62c fc3e 00ea 333f
00000050: 73bd ecbe 649e 753d dd2a e5be a7f7 d2be
00000060: 4a0c 57be 78aa 7ebe 9476 2fbe 54ed 16bf
00000070: fd42 aebe 03a5 eebc f8e3 9cbd 47f6 933e
00000080: 1ac9 bc3e d8c4 983e 9c44 f23e a1d6 0abf
00000090: b8a0 0c3f 60b1 41bf 9ddc b6bd 37b6 813e
000000a0: d270 9e3e 7306 cebe b368 8fbe 8331 ffbe
000000b0: 46b8 8bbe 50c0 30be f017 613f 4400 f1bd
000000c0: c3c1 84bd ff26 00bf 712a 553f 8395 86be
000000d0: 44d1 21bf 881c e63e a0b5 e9bd 0f48 2e3f
000000e0: 0f81 18bf e03c f9be 366d a9be 6ea0 953e

GRN_net.encoder.0.bias f4 [10]
-0.31502068 0.338803 0.3358864 0.28456274 -0.28194666 -0.16118385 -0.020616865 0.09508835
-0.28322238 -0.28912985
00000000: 644a a1be 9677 ad3e 4df9 ab3e 35b2 913e
00000010: 505b 90be 610d 25be b3e4 a8bc aebd c23d
00000020: 8602 91be d408 94be

GRN_net.encoder.2.weight f4 [10, 10]
-0.09572564 -0.417324 0.20630383 -0.016015708 0.17684531 -0.2805386 -0.49788272 0.2878083
-0.38105902 0.41876522 0.436195 -0.44832823 -0.49168622 0.089376 -0.31064144 0.054573305
-0.2665244 -0.19038239 -0.5183296 0.3791975 -0.4240118 -0.3744475 -0.04870756 -0.39319652
-0.4690283 0.35493767 -0.18263587 0.23835655 0.3550887 -0.37968233 -0.46247542 -0.15462916
0.3459612 -0.007508526 -0.22066979 0.3735461 0.5403231 0.37510827 -0.45004418 -0.111596555
-0.27505165 0.42165956 -0.27623296 -0.20380391 0.008948334 -0.026685974 0.3975007 0.056245457
-0.44976646 0.4317251 0.39847785 0.07417003 -0.4678799 0.2443887 0.39730325 0.18411471
-0.19196518 0.085251525 -0.3523094 0.55064267 0.5038316 -0.12933311 -0.46473187 0.31144416
0.34069508 0.26885372 -0.3530427 0.2085027 -0.18282709 -0.4919123 -0.29901266 0.21111707
0.26999778 -0.5395073 0.2833573 0.25926143 0.5020687 0.47723845 -0.18076299 0.28191912
0.49549347 0.17456798 -0.3963412 -0.1526026 0.49328402 0.33202514 0.48185343 -0.11293266
-0.013265329 -0.44173554 -0.2440486 0.34278688 -0.5202314 -0.28020734 0.113453224 -0.2749959
0.04819391 0.040288635 0.2815399 -0.39383078
00000000: ce0b c4bd 7eab d5be 5041 533e 6033 83bc
00000010: f016 353e c1a2 8fbe 7cea febe 9c5b 933e
00000020: 2b1a c3be 6568 d63e f354 df3e 478b e5be
00000030: 4cbe fbbe c40a b73d 650c 9fbe 4288 5f3d
00000040: e375 88be 9af3 42be 40b1 04bf 2d26 c23e
00000050: 1318 d9be 95b7 bfbe 9481 47bd 0e51 c9be
00000060: 7a24 f0be 64ba b53e e604 3bbe bd13 743e
00000070: 30ce b53e b965 c2be 94c9 ecbe 1b57 1ebe
00000080: d421 b13e 150a f6bb 43f7 61be 6f41 bf3e
00000090: 9d52 0a3f 310e c03e 316c e6be bc8c e4bd
000000a0: 92d3 8cbe c3e3 d73e 686e 8dbe f9b1 50be
000000b0: 089c 123c 8b9c dabc 3685 cb3e a361 663d
000000c0: ca47 e6be 130b dd3e 4a05 cc3e 75e6 973d
000000d0: f48d efbe 0841 7a3e 556b cb3e 9188 3c3e
000000e0: 8592 44be 5a98 ae3d e661 b4be ebf6 0c3f
000000f0: 1cfb 003f e66f 04be 56f1 edbe 9c75 9f3e
00000100: 966f ae3e 32a7 893e 03c2 b4be bb81 553e
00000110: 0637 3bbe eedb fbbe 3018 99be 132f 583e
00000120: 263d 8a3e 271d 0abf 3514 913e eabd 843e
00000130: 9387 003f 9958 f43e ef19 39be b457 903e
00000140: 52b1 fd3e f3c1 323e 3ced cabe db43 1cbe
00000150: b98f fc3e 33ff a93e 7eb5 f63e 3d49 e7bd
00000160: d356 59bc 292b e2be e0e7 79be c381 af3e
00000170: e32d 05bf 5677 8fbe 2a5a e83d 43cc 8cbe
00000180: fa66 453d b205 253d ff25 903e 30a4 c9be

GRN_net.encoder.2.bias f4 [10]
-0.08574058 0.04358359 0.07627232 0.10115736 0.3262934 0.24265985 0.15481098 0.013264925
-0.25404483 0.25387105
00000000: c298 afbd b584 323d a934 9c3d 972b cf3d
00000010: ee0f a73e d37b 783e c586 1e3e 2155 593c
00000020: 2a12 82be 63fb 813e

GRN_net.encoder.4.weight f4 [10, 10]
0.016850244 -0.49412364 0.3014241 0.5109493 -0.15329677 0.059618548 -0.26937008 -0.4707917
-0.29706857 -0.21424212 0.14440171 0.034546476 0.038125366 -0.39791387 -0.3569155 -0.41125694
-0.3659144 0.46521184 0.20941128 -0.55118936 -0.10418844 0.038361363 0.3785307 0.5324121
-0.118307725 0.36091053 -0.13342664 0.06865683 -0.2748601 0.07058876 0.46951833 0.37489155
0.36093825 -0.23756398 -0.058008667 0.13250305 0.36934242 -0.52127033 -0.25740522 0.026694462
-0.27535856 0.16082717 -0.028811289 -0.15309721 0.18161586 0.37992457 0.50076777 0.30393064
0.0027761054 0.43132615 0.48423892 -0.53495914 0.27706414 0.0033655523 -0.32954714 -0.101188876
-0.11893858 -0.23512349 -0.17457958 0.105153136 0.18097354 0.055083282 -0.5473524 0.30276448
-0.06639169 0.42546394 -0.5009224 -0.12913984 0.42179215 0.23899576 -0.27146477 -0.49109
0.053297866 0.16774522 -0.5714222 -0.47052243 -0.010143805 -0.11091944 0.374152 -0.5280516
-0.1627074 -0.4090755 -0.029707367 -0.21844134 0.1649172 -0.5341992 -0.43376443 -0.34160694
-0.5241197 0.46925852 -0.11989029 -0.36398163 0.18797576 -0.09647117 0.23354685 -0.18616317
-0.53632295 0.27527463 0.44814572 -0.5711591
00000000: 8609 8a3c c6fd fcbe 4254 9a3e 93cd 023f
00000010: d4f9 1cbe 9432 743d e0ea 89be 9c0b f1be
00000020: 5f19 98be 4962 5bbe 0bde 133e 9b80 0d3d
00000030: 5829 1c3d 5ebb cbbe a1bd b6be 4590 d2be
00000040: 2259 bbbe 3f30 ee3e e96f 563e bf1a 0dbf
00000050: c060 d5bd ce20 1d3d c7ce c13e 294c 083f
00000060: 524b f2bd 44c9 b83e fea0 08be f49b 8c3d
00000070: 77ba 8cbe d790 903d b564 f03e c9f1 bf3e
00000080: e6cc b83e f943 73be 7f9a 6dbd e1ae 073e
00000090: 731a bd3e f971 05bf 9eca 83be 58ae da3c
000000a0: ccfb 8cbe e1af 243e a705 ecbc 84c5 1cbe
000000b0: 82f9 393e 7985 c23e 5132 003f cc9c 9b3e
000000c0: 52ef 353b c8d6 dc3e 2aee f73e 15f3 08bf
000000d0: 5adb 8d3e 9990 5c3b 67ba a8be 1d3c cfbd
000000e0: 1296 f3bd 36c4 70be fdc4 32be 875a d73d
000000f0: 2151 393e 029f 613d 491f 0cbf f203 9b3e
00000100: 5ef8 87bd 69d6 d93e 733c 00bf 3c3d 04be
00000110: 24f5 d73e 4ebb 743e 6efd 8abe 2670 fbbe
00000120: dd4e 5a3d 67c5 2b3e ba48 12bf 51e8 f0be
00000130: 3432 26bc bb29 e3bd da90 bf3e 642e 07bf
00000140: c59c 26be 5872 d1be dd5c f3bc 16af 5fbe
00000150: 0ee0 283e 47c1 08bf 5f16 debe 1be7 aebe
00000160: b52c 06bf a742 f03e 0a89 f5bd cd5b babe
00000170: b87c 403e ad92 c5bd e826 6f3e 8fa1 3ebe
00000180: 764c 09bf ccf0 8c3e 5b73 e53e 7c37 12bf

GRN_net.encoder.4.bias f4 [10]
-0.010512231 0.03651445 0.28416392 0.08735961 -0.16885498 -0.18782333 -0.26068136 0.26365018
0.039809372 0.0875107
00000000: 7e3b 2cbc 2d90 153d ef7d 913e 98e9 b23d
00000010: 52e8 2cbe c254 40be 0778 85be 28fd 863e
00000020: 270f 233d cf38 b33d

GRN_net.encoder.6.weight f4 [10, 10]
0.07592102 0.042649657 0.020681618 -0.053383984 -0.1450174 -0.41259226 0.13692783 -0.4633751
-0.4587402 -0.1718188 -0.35865018 0.117242515 0.3677903 0.43581927 -0.2871696 0.3217884
0.40751487 -0.03248879 0.24828601 0.28268644 0.49332178 0.18505386 0.29329738 -0.10572767
-0.24897166 -0.22099002 0.37928367 -0.06312018 0.12956466 -0.6040666 0.05660904 -0.23377235
-0.23739064 0.44099474 -0.46041614 -0.19950885 -0.05707487 -0.4814857 0.29593703 -0.24833158
0.27306634 0.45280662 0.3582885 -0.13627395 0.31169224 0.57416785 0.16308895 -0.08488479
-0.20099631 0.15311372 0.11118852 -0.40776336 0.3419745 0.09596076 -0.49822485 0.21560675
0.3363197 0.15938102 0.41800705 0.1497557 -0.45053005 -0.0628983 0.40115988 -0.21325523
0.17584664 0.17024127 -0.09940891 -0.014117543 0.22006476 -0.4025525 0.33480012 0.3347683
0.12006407 0.48007658 0.032748684 -0.5254954 0.055452593 -0.1364148 0.17286052 0.45039976
-0.24421327 0.10656138 0.57814795 -0.4220309 -0.08641061 0.38369682 0.5112654 0.23091175
-0.29628807 0.04419383 -0.5036598 -0.28931636 -0.5565912 0.53836876 0.36860582 0.2716096
-0.19076155 0.50003046 -0.15701124 0.38798094
00000000: 7b7c 9b3d 68b1 2e3d 7f6c a93c 2aa9 5abd
00000010: 717f 14be 4b3f d3be cf36 0c3e 803f edbe
00000020: ffdf eabe 44f1 2fbe ffa0 b7be d81c f03d
00000030: 034f bc3e b423 df3e e507 93be 73c1 a43e
00000040: caa5 d03e f712 05bd b03e 7e3e 47bc 903e
00000050: ac94 fc3e c27e 3d3e 132b 963e c087 d8bd
00000060: 6df2 7ebe 354b 62be 7831 c23e 2745 81bd
00000070: 99ac 043e 1ca4 1abf e1de 673d 0562 6fbe
00000080: 8816 73be 10ca e13e aabb ebbe 0c4c 4cbe
00000090: 57c7 69bd 4b85 f6be 0f85 973e a24a 7ebe
000000a0: 5acf 8b3e 45d6 e73e 9771 b73e 668b 0bbe
000000b0: 2096 9f3e aafc 123f ca00 273e 14d8 adbd
000000c0: fad1 4dbe d8c9 1c3e cfb6 e33d 5cc6 d0be
000000d0: 4817 af3e 1387 c43d 5417 ffbe 04c8 5c3e
000000e0: 1932 ac3e c734 233e 0505 d63e 8f59 193e
000000f0: e0ab e6be d3d0 80bd d464 cd3e 945f 5abe
00000100: 2411 343e ba53 2e3e e696 cbbd 444d 67bc
00000110: a858 613e 5c1b cebe ec6a ab3e c066 ab3e
00000120: 27e4 f53d 99cc f53e 7c23 063d de86 06bf
00000130: 4222 633d 52b0 0bbe 5902 313e cc9a e63e
00000140: 0b13 7abe da3c da3d 8101 143f 6f14 d8be
00000150: 0cf8 b0bd e973 c43e 4ae2 023f 2174 6c3e
00000160: 12b3 97be 9704 353d d9ef 00bf 4621 94be
00000170: c37c 0ebf 89d2 093f e7b9 bc3e 6a10 8b3e
00000180: ff56 43be ff01 003f 8ec7 20be 70a5 c63e

GRN_net.encoder.6.bias f4 [10]
0.005006569 0.21552217 0.10911219 -0.09035921 0.25221437 0.013809891 0.22912593 0.09025153
0.21871823 0.20155518
00000000: 250e a43b d8b1 5c3e 3676 df3d 400e b9bd
00000010: 3e22 813e e242 623c fd9f 6a3e cbd5 b83d
00000020: acf7 5f3e 7b64 4e3e

GRN_net.decoder.0.weight f4 [6, 10]
0.009154985 -0.37622306 -0.19495547 -0.24174179 -0.5833714 0.098073676 -0.16677485 0.2104596
0.43945476 -0.06595759 0.24521387 0.20524812 0.2358709 -0.26584622 -0.19826074 0.19948731
0.5329522 -0.6062005 -0.41976678 0.1012935 0.5383298 0.25519994 -0.62920547 -0.48288292
0.58693606 -0.036396954 -0.5819446 -0.2604218 0.25414285 -0.12047199 -0.45403165 -0.34007996
-0.31169125 0.038294245 0.19914669 0.22124846 -0.29173058 -0.22179425 -0.49352077 0.45583946
0.7641157 0.5946785 0.21947911 -0.061425988 -0.1686181 0.31344345 -0.47384173 -0.00087632297
-0.4844418 -0.54289496 0.07332586 -0.03855253 -0.45877177 0.18358417 0.18503794 0.050587453
-0.3926952 -0.47886077 0.05569771 -0.20652479
00000000: cafe 153c 4fa0 c0be 68a2 47be 298b 77be
00000010: d457 15bf dada c83d 07c7 2abe b982 573e
00000020: 3700 e13e c614 87bd 5819 7b3e 902c 523e
00000030: 2488 713e ff1c 88be dd04 4bbe 6746 4c3e
00000040: 8e6f 083f f52f 1bbf aceb d6be f772 cf3d
00000050: fbcf 093f 91a9 823e 9c13 21bf 6e3c f7be
00000060: 7141 163f f914 15bd 52fa 14bf 0256 85be
00000070: 031f 823e 05ba f6bd d676 e8be f61e aebe
00000080: ff95 9fbe 6dda 1c3d 1ced 4b3e f58e 623e
00000090: b65d 95be 081e 63be c1ae fcbe ca63 e93e
000000a0: 169d 433f da3c 183f 22bf 603e d199 7bbd
000000b0: 39aa 2cbe a97b a03e 629b f2be 0ab9 65ba
000000c0: c108 f8be 2afb 0abf de2b 963d 42e9 1dbd
000000d0: 22e4 eabe 7dfd 3b3e 967a 3d3e ca34 4f3d
000000e0: 580f c9be 3d2d f5be 4823 643d 3c7b 53be

GRN_net.decoder.0.bias f4 [6]
0.13545659 -0.3016238 0.17935978 0.094810806 -0.047315452 0.10377768
00000000: 22b5 0a3e 6f6e 9abe 17aa 373e 2b2c c23d
00000010: d9cd 41bd 6489 d43d

BRD_net.encoder.0.weight f4 [8, 7]
-0.20530094 0.3885335 0.15025614 0.5541077 0.06051855 -0.4977733 0.15212432 -0.4469758
0.85273176 -0.5444068 0.2675994 -0.6394158 0.57934034 0.58365154 0.40023237 0.34488964
0.20941481 -0.41461405 -0.38784763 0.012611183 -0.5878099 0.56797403 -0.33183065 0.4688556
0.15407832 0.4079251 -0.33583117 -0.64888585 0.39489064 -0.18135063 0.44247043 -0.5059231
0.21914199 -0.5987837 -0.22705409 -0.001488364 -0.20038033 -0.72099864 -0.27788 0.2297416
0.74632066 -0.26783136 0.0056987084 -0.82128227 -0.3669463 -0.32204106 -1.1562523 0.10229692
0.016703866 0.7207713 -0.41708735 0.80007577 0.72253394 0.88416153 0.23773979 -0.38837996
00000000: 693a 52be dded c63e bfdc 193e 01da 0d3f
00000010: 4de2 773d 24dc febe 7ac6 1b3e 03da e4be
00000020: a14c 5a3f 3e5e 0bbf ca02 893e c1b0 23bf
00000030: a64f 143f 306a 153f 42eb cc3e 6095 b03e
00000040: d670 563e 4b48 d4be f793 c6be 239f 4e3c
00000050: b67a 16bf bf66 113f b5e5 a9be d70d f03e
00000060: b5c6 1d3e 8fdb d03e 10f2 abbe 621d 26bf
00000070: 1b2f ca3e fbb3 39be 7c8b e23e 2d84 01bf
00000080: c266 603e e349 19bf de80 68be 3515 c3ba
00000090: 8030 4dbe 5e93 38bf 4a46 8ebe 6241 6b3e
000000a0: df0e 3f3f 3121 89be 3bbc ba3b 8e3f 52bf
000000b0: 63e0 bbbe 91e2 a4be 1300 94bf 0c81 d13d
000000c0: 8cd6 883c 7884 383f 798c d5be c4d1 4c3f
000000d0: fcf7 383f 6958 623f 0f72 733e bdd9 c6be

BRD_net.encoder.0.bias f4 [8]
0.33852747 -0.21725942 -0.28206494 -0.3323597 0.22537786 -0.053833175 -0.05529344 0.0012700893
00000000: 7953 ad3e 4179 5ebe d16a 90be 0d2b aabe
00000010: 74c9 663e 2d80 5cbd 607b 62bd 2079 a63a

BRD_net.encoder.2.weight f4 [8, 8]
-0.3937361 -0.3997185 0.2618101 0.24161378 0.20978017 -0.4061482 -0.40571964 0.46376917
-0.29138893 -0.49865687 0.06872391 -0.14351027 -0.06700964 0.30698574 0.24538535 -0.5638744
-0.20996924 -0.21830009 0.566854 0.33826298 0.28124875 0.64348185 0.30889666 -0.6932072
0.44561106 -0.17921892 -0.2534625 -0.31768656 0.3130928 -0.16773076 -0.40082034 -0.38562235
-0.12686403 0.5436288 0.5789931 0.47690967 0.12355634 -0.08773881 -0.10696588 -0.42561725
0.25937665 -0.50582397 0.16922659 0.36954087 0.56599575 -0.5565103 0.49794772 -0.34543264
-0.322713 0.66673565 0.47097266 -0.19764236 0.28067368 -0.51568156 0.50416005 0.48716944
-0.27028555 0.19346173 0.1519716 -0.33034825 -0.33506468 -0.049616776 -0.4629135 -0.5838913
00000000: c797 c9be e7a7 ccbe f90b 863e 9a69 773e
00000010: 9dd0 563e a8f2 cfbe 7cba cfbe 2773 ed3e
00000020: ee30 95be f44f ffbe 1fbf 8c3d 5bf4 12be
00000030: 5a3c 89bd 3c2d 9d3e 4c46 7b3e 135a 10bf
00000040: 2d02 57be 0f8a 5fbe 581d 113f ce30 ad3e
00000050: d6ff 8f3e 3abb 243f b427 9e3e 0776 31bf
00000060: 2227 e43e 2a85 37be d6c5 81be d0a7 a2be
00000070: b34d a03e 9dc1 2bbe 5338 cdbe 4b70 c5be
00000080: a5e8 01be 422b 0b3f e438 143f 812d f43e
00000090: 1b0b fd3d 68b0 b3bd ed10 dbbd 81ea d9be
000000a0: 04cd 843e ae7d 01bf bc49 2d3e 7634 bd3e
000000b0: 19e5 103f 7677 0ebf 01f3 fe3e 8cdc b0be
000000c0: a33a a5be 30af 2a3f 5423 f13e c262 4abe
000000d0: 76b4 8f3e b503 04bf a210 013f 466e f93e
000000e0: de62 8abe d51a 463e 719e 1b3e 6823 a9be
000000f0: 998d abbe f63a 4bbd 0003 edbe e679 15bf

BRD_net.encoder.2.bias f4 [8]
0.010845808 0.23702653 -0.027282253 -0.14753641 -0.10367586 0.42754576 0.13134326 -0.15562929
00000000: 9eb2 313c 15b7 723e 087f dfbc c913 17be
00000010: 0254 d4bd 47e7 da3e d97e 063e 495d 1fbe

BRD_net.decoder.weight f4 [1, 8]
0.16580018 -0.4270484 -0.5234035 -0.13241327 -0.6063452 0.8592085 -0.19543122 -0.58113664
00000000: 86c7 293e 16a6 dabe c6fd 05bf 5897 07be
00000010: 7039 1bbf 17f5 5b3f 1f1f 48be 5fc5 14bf
