example/Embryogenesis/Output/ckpt_itr1700.pth (torch, 8074 bytes, 15 tensors)

GRN_net.encoder.0.weight f4 [10, 6]
000000 1c 80 07 be f2 1e 59 be de f3 0c 3d 2e e2 e2 3d
       -0.13232464 -0.21203211 0.034412257 0.110782966
000010 f3 cf a0 3e ec 24 39 3e 35 eb 8f 3e 97 1e 86 3e
       0.31408653 0.18080491 0.28109136 0.26195213
000020 50 e8 54 3e 08 d5 28 3d 0b 71 ba bd 3b 7a f8 3e
       0.20791745 0.041218787 -0.091035925 0.48530754
000030 51 c2 08 3e 7a 53 fa 3e 89 47 25 3f 66 ba 41 be
       0.13355376 0.48891813 0.6456228 -0.18918762
000040 69 0c 10 3f fb b2 90 bd 43 72 fd 3e 7a fe 32 3f
       0.56268936 -0.07065388 0.49501237 0.6991955
000050 99 d4 ec be 56 ae 95 3d 1f 84 e2 be 60 c3 ba be
       -0.4625595 0.073086426 -0.44241425 -0.36477184
000060 c1 8b 47 be cb 2a 73 be 8f 16 30 be 7b ef 18 bf
       -0.19486906 -0.23746793 -0.17196105 -0.5974042
000070 77 d8 b6 be 9a 34 cc bc 64 f9 a1 bd 76 dc 95 3e
       -0.35712025 -0.024927426 -0.079088956 0.2926976
000080 f9 97 c5 3e 80 06 96 3e 5c 74 e5 3e 0e 3e 0a bf
       0.38592508 0.29301834 0.44815338 -0.5400094
000090 88 c9 0c 3f de 02 41 bf b2 53 ad bd a8 66 14 3e
       0.5499501 -0.75395 -0.08463229 0.14492285
0000a0 49 32 9b 3e 4c 98 d4 be a2 68 91 be b4 d7 f0 be
       0.30311802 -0.41522443 -0.2840014 -0.47039568
0000b0 2c 63 90 be 81 65 8b be a9 2d 55 3f 44 61 db bd
       -0.28200662 -0.2722588 0.83272797 -0.10711911
0000c0 28 6f 7a bd 77 d6 06 bf 38 3b 55 3f 6d 10 84 be
       -0.061141163 -0.52671 0.83293486 -0.25793782
0000d0 d3 e9 21 bf a1 ad e7 3e e0 3d f6 bd 6e 69 3f 3f
       -0.6324741 0.45249656 -0.120235205 0.7477025
0000e0 d2 d3 13 bf e0 8f fb be 42 d9 a9 be 3f b4 94 3e
       -0.5774509 -0.49133205 -0.33173567 0.29043767

GRN_net.encoder.0.bias f4 [10]
000000 09 5c a0 be 09 64 ad 3e 36 e6 a2 3e 7f bb 93 3e
       -0.31320217 0.33865383 0.31816262 0.28853986
000010 76 a8 8c be 47 13 32 be 6e eb d6 bc 07 c3 ac 3d
       -0.27472275 -0.17390166 -0.026235308 0.08435636
000020 e8 dc 88 be e0 cd 96 be
       -0.26731038 -0.29453945

GRN_net.encoder.2.weight f4 [10, 10]
000000 ec 79 f7 bd 42 fe d6 be 67 fa 54 3e 40 1f 68 3b
       -0.120838016 -0.41990858 0.20798646 0.0035419017
000010 a1 35 37 3e b8 ce 8e be db ce fc be c1 a9 92 3e
       0.17891552 -0.2789209 -0.49376568 0.28645137
000020 4f 4e c7 be b1 fb d8 3e 5e 78 e4 3e c4 49 e8 be
       -0.38926932 0.42379525 0.44623083 -0.4536878
000030 7b cb df be 4c b6 9c 3d 5a 16 b2 be 29 57 82 3d
       -0.4370993 0.07651958 -0.34782678 0.06364281
000040 f4 8e 86 be 17 e5 36 be a8 c6 05 bf 9b 84 bc 3e
       -0.2628094 -0.17860828 -0.5225625 0.3681992
000050 7e 7f da be 62 75 bf be 47 1c 51 bd de c5 bf be
       -0.42675394 -0.37394243 -0.051052358 -0.37455648
000060 69 94 e7 be 1b 11 a8 3e 02 10 3f be 12 9b 70 3e
       -0.45230415 0.3282555 -0.1865845 0.23496655
000070 ec c3 b6 3e 20 c4 b9 be 6e d7 ef be 8f 52 26 be
       0.35696352 -0.36282444 -0.46844047 -0.16242431
000080 26 a1 af 3e 3d 65 d9 3a 25 eb 5e be 61 59 c1 3e
       0.34302634 0.0016585957 -0.21769388 0.37763503
000090 13 ee 09 3f 70 c3 b8 3e 3e 12 ee be 8d 99 dc bd
       0.538789 0.36086607 -0.46498293 -0.10771475
0000a0 6d 9e 6e be 9b 5a d9 3e 18 01 8b be b1 ce 6a be
       -0.23302622 0.4245194 -0.27149272 -0.22930409
0000b0 9e 5d c9 3b b3 67 d0 bc 55 0d c6 3e 8c 90 7b 3d
       0.0061451932 -0.025440073 0.38682047 0.061417148
0000c0 98 64 e2 be f9 50 db 3e 22 65 cb 3e 95 cb 8e 3d
       -0.44217372 0.42835215 0.39725596 0.06972424
0000d0 d4 4c f1 be 8b ad 7d 3e c5 ae ce 3e 9d 91 3f 3e
       -0.47128928 0.24773233 0.40367714 0.18707891
0000e0 80 fc 46 be a1 ef ac 3d b7 1c b8 be 19 be 11 3f
       -0.19432259 0.08444143 -0.35959408 0.5693069
0000f0 16 52 01 3f 06 18 ee bd 70 3a f1 be 21 a5 96 3e
       0.5051588 -0.11625676 -0.47114897 0.29422858
000100 c1 b1 b2 3e d1 a9 84 3e f4 59 b8 be 65 20 4f 3e
       0.3490124 0.2591081 -0.3600613 0.20227201
000110 57 24 30 be 47 29 fa be 9d 48 9e be f2 ac 50 3e
       -0.17201363 -0.48859617 -0.30914775 0.20378473
000120 71 24 7f 3e dc b0 08 bf 14 d7 97 3e 75 93 82 3e
       0.24916245 -0.53394866 0.2965628 0.25503126
000130 cb 4c fe 3e ed d3 ef 3e 31 bc af bd e4 ea 9a 3e
       0.49667963 0.46841374 -0.085808165 0.30257332
000140 25 d6 da 3e d7 a2 19 3e af 57 cc be 82 b9 1d be
       0.42741504 0.15003525 -0.39910647 -0.15402797
000150 0c 06 00 3f 55 0b a9 3e 11 9f f1 3e a9 ff 08 be
       0.50009227 0.33016458 0.4719167 -0.13378777
000160 be 4b 86 bb 3d ef de be 6f 2d 78 be 32 7b b5 3e
       -0.0040983846 -0.435419 -0.24236082 0.35445553
000170 a8 7a 07 bf b4 bf 7a be dc 36 e0 3d 02 3c 97 be
       -0.52921534 -0.24487191 0.109479636 -0.2953797
000180 5f d9 42 3d 60 06 41 3d 6c 39 8c 3e 46 ab c6 be
       0.047570582 0.04712522 0.2738756 -0.38802546

GRN_net.encoder.2.bias f4 [10]
000000 4c 0f b6 bd 65 d0 39 3d fc e5 8f 3d 3e 93 c5 3d
       -0.088896364 0.045364756 0.07026288 0.09647225
000010 c7 d4 a8 3e 13 c7 74 3e 0b 0e 21 3e 61 ce 02 bb
       0.32974836 0.23904066 0.15728013 -0.0019959437
000020 15 57 86 be b4 ae 85 3e
       -0.26238313 0.2610985

GRN_net.encoder.4.weight f4 [10, 10]
000000 db 7a 71 3c c8 e2 00 bf c2 9f a0 3e aa a5 04 3f
       0.014738764 -0.5034604 0.31371886 0.51815283
000010 a7 b1 20 be 03 e0 62 3d 4c 49 86 be ac 89 e8 be
       -0.15692769 0.055389415 -0.26227796 -0.45417535
000020 57 df 8e be ab 55 6c be 41 f6 14 3e 2a d5 41 3d
       -0.2790477 -0.23079555 0.14547063 0.04732243
000030 4a 6d 0a 3d f2 c2 c9 be ed 5f ad be 37 96 cb be
       0.033795632 -0.39406544 -0.33862248 -0.39763042
000040 1d 12 ba be 68 02 f0 3e 1d b8 5e 3e ff cc 0e bf
       -0.36341944 0.46876836 0.21749921 -0.5578155
000050 87 9d cb bd a6 f4 50 3d 1d c5 bd 3e b3 e9 08 3f
       -0.09942155 0.051014565 0.37064448 0.53481597
000060 e9 2b d3 bc ac 21 bb 3e ef 07 f4 bd ea 44 90 3d
       -0.025777774 0.36549127 -0.11915576 0.07044394
000070 ef 50 8b be 6c 31 60 3d a9 41 f1 3e ce 83 c0 3e
       -0.27210185 0.054734632 0.47120407 0.3760056
000080 7b d3 bc 3e dd 6c 76 be 8e cc 75 bd 0c b2 08 3e
       0.36880097 -0.24064966 -0.06000953 0.1334917
000090 cd 71 bf 3e 85 d4 04 bf 71 b4 81 be 2c d5 e9 3c
       0.3739151 -0.5188678 -0.25332978 0.028544031
0000a0 b1 41 84 be 13 06 27 3e 05 90 1a bd bb 8c 21 be
       -0.2583137 0.16310911 -0.037735004 -0.1577634
0000b0 4d 40 39 3e 7e 95 d1 3e d9 c1 fe 3e cc 48 8f 3e
       0.18090935 0.40934366 0.4975727 0.27985227
0000c0 53 f2 40 bb 76 82 e0 3e 3c 94 f8 3e 89 b5 03 bf
       -0.0029441311 0.43849534 0.48550594 -0.51448876
0000d0 a1 f5 82 3e 48 27 b8 3a 08 83 a1 be bc ef c8 bd
       0.25578025 0.0014049793 -0.3154528 -0.09811351
0000e0 cb d3 04 be 06 58 7d be 5a 4e 4e be 5b 7a e0 3d
       -0.12971418 -0.2474061 -0.20147076 0.109608375
0000f0 50 fd 61 3e ef 82 9a 3d 9e ce 0c bf 62 0c 9d 3e
       0.22069287 0.07544505 -0.5500277 0.3067351
000100 ce b2 47 bd 36 b7 df 3e 6e 8a fe be e1 e8 fd bd
       -0.048754506 0.43694466 -0.49714988 -0.12397934
000110 93 e0 d9 3e df df 64 3e c6 fe 8b be fc a8 fc be
       0.4255415 0.22351025 -0.27342814 -0.49347675
000120 a1 98 4c 3d 02 cf 29 3e 2a 94 11 bf bf b7 f1 be
       0.049950246 0.16582873 -0.56866705 -0.472105
000130 06 db 56 bc 09 f6 ec bd b4 39 bd 3e 90 1f 06 bf
       -0.013113743 -0.11570365 0.36958086 -0.5239191
000140 11 ae 2a be 79 dd d3 be 07 85 aa bc 61 d3 42 be
       -0.16667964 -0.41379908 -0.020815386 -0.19025947
000150 83 a1 32 3e e9 08 0a bf cb 49 db be 8e 35 ad be
       0.17444424 -0.53919846 -0.42829737 -0.3382992
000160 1b 9e 05 bf 61 51 f1 3e 26 b6 f2 bd 2d 03 bb be
       -0.52194375 0.471324 -0.11851148 -0.3652586
000170 69 0f 27 3e ed 34 ce bd e0 a1 67 3e b1 3f 3f be
       0.16314472 -0.100686885 0.22620344 -0.1867664
000180 dd f6 09 bf 49 6e 87 3e a0 9a e3 3e 1f b2 11 bf
       -0.5389231 0.26451328 0.44453907 -0.56912416

GRN_net.encoder.4.bias f4 [10]
000000 64 86 23 bc 8b 07 08 3d 75 ff 8d 3e ba 71 ae 3d
       -0.009980772 0.03321032 0.2773396 0.08517785
000010 7a 24 62 be 85 7a 41 be c3 e3 8d be 2b 4a 88 3e
       -0.22084227 -0.18894394 -0.2771283 0.26619086
000020 3f 94 32 3d 1f f6 8c 3d
       0.04359841 0.068828814

GRN_net.encoder.6.weight f4 [10, 10]
000000 7c 0a cf 3d 15 a2 3a 3d 7f b3 d5 3c 51 c1 9b bd
       0.101094216 0.04556473 0.026086567 -0.076052316
000010 b7 8f 1e be 31 74 db be b1 a3 0d 3e 12 e9 e4 be
       -0.1548451 -0.42862085 0.13831975 -0.4470907
000020 2a 66 ec be 01 2f 27 be 65 ea b7 be 69 1c f6 3d
       -0.46171695 -0.16326524 -0.35921016 0.120171376
000030 70 1e bd 3e 4c 02 de 3e 1c 2d 96 be 0f 43 94 3e
       0.36937284 0.43361127 -0.2933129 0.28957412
000040 bd 9b d6 3e 7a a0 3b bd 55 1a 78 3e 89 7e 95 3e
       0.41915694 -0.04580734 0.24228795 0.291981
000050 f4 98 f3 3e 93 c0 3e 3e e2 f4 96 3e b5 46 d7 bd
       0.4757763 0.18628149 0.29483706 -0.10511533
000060 47 5f 33 be 2b 9d 6a be ef 31 c1 3e c3 9a 8c bd
       -0.17516814 -0.22911517 0.3773341 -0.06865456
000070 f8 34 e4 3d ac 68 1a bf 29 00 8b 3d 71 39 6b be
       0.111429155 -0.60315967 0.0678714 -0.22971131
000080 aa 7d 68 be ce 16 df 3e 78 f1 ea be 42 4a 46 be
       -0.22704187 0.43572086 -0.4588735 -0.19364265
000090 f0 24 9d bd 09 f2 ef be c3 41 a2 3e 14 c3 63 be
       -0.07673061 -0.46864346 0.31690797 -0.22242385
0000a0 73 85 91 3e 94 cb e5 3e b5 06 b6 3e 81 d6 46 be
       0.28422126 0.4488188 0.35551992 -0.19417764
0000b0 dd 37 9b 3e 66 8d 12 3f 7c 47 30 3e fa 55 b7 bd
       0.30316058 0.57247007 0.17214769 -0.089519456
0000c0 59 21 48 be 97 35 1c 3e 6c 1c e0 3d d0 17 d2 be
       -0.19543971 0.15254818 0.10942921 -0.41033792
0000d0 f2 b9 ae 3e 7d 6e c7 3d 40 e0 fe be 43 d4 5f 3e
       0.3412624 0.09737871 -0.49780464 0.21858315
0000e0 ef cc ac 3e 69 06 22 3e 6a 5a d6 3e 12 e7 0d 3e
       0.33750102 0.15822758 0.41865855 0.13857678
0000f0 08 d2 fb be 25 05 88 bd 18 d1 cb 3e ad 00 56 be
       -0.4918368 -0.06641606 0.39807963 -0.20898695
000100 b8 0d 7d 3e 13 8c 23 3e c7 14 bc bd e0 9e e3 bc
       0.24712265 0.15971403 -0.091836505 -0.027785718
000110 09 4d 55 3e bc 59 d1 be 8b 15 a9 3e e8 fe ae 3e
       0.20830168 -0.40888774 0.33024248 0.34178853
000120 cb 21 bb 3d 0c 8a f6 3e b5 ae 15 3d 2b fc 00 bf
       0.09137305 0.48152196 0.036543567 -0.5038478
000130 0b 89 56 3d 30 f3 0a be d7 8e 2e 3e 14 e3 e7 3e
       0.052376788 -0.13569331 0.17046677 0.45290434
000140 a9 5c 70 be 6a 93 df 3d 22 bc 13 3f 7b 31 d8 be
       -0.23472847 0.10916789 0.5770894 -0.4222525
000150 a5 9d b9 bd e0 70 e1 3e 1d 48 e8 3e 19 ef 70 3e
       -0.090632714 0.4403143 0.45367518 0.23528709
000160 ec 2a 95 be 2a 84 3d 3d ae b6 05 bf 0d 58 a5 be
       -0.2913431 0.04626862 -0.5223187 -0.3229374
000170 df ec 10 bf e0 2f 15 3f 2e d7 c1 3e 11 a9 92 3e
       -0.56611437 0.58276176 0.37859482 0.28644612
000180 fa 65 35 be 66 e7 f9 3e 0b db 1e be ab 90 c0 3e
       -0.17714682 0.48809355 -0.15513246 0.37610373

GRN_net.encoder.6.bias f4 [10]
000000 fc ba cd 3b 20 3a 59 3e b4 80 e0 3d ec 77 67 bd
       0.006278394 0.21213579 0.10962048 -0.05651085
000010 be 81 80 3e 30 09 59 3c 22 44 6a 3e 2d 91 b6 3d
       0.25098985 0.013246819 0.22877553 0.08914409
000020 c0 50 62 3e 93 0a 4c 3e
       0.22101116 0.19925909

GRN_net.decoder.0.weight f4 [6, 10]
000000 66 2b a3 39 27 05 c0 be 7c 9f 52 be 7b ee 78 be
       0.00031122117 -0.3750393 -0.20568651 -0.24309723
000010 1b e6 13 bf 5d fe c1 3d 37 b7 28 be ee 63 54 3e
       -0.5777299 0.09472344 -0.16476141 0.20741245
000020 7a bf dd 3e 5e b7 36 bd 56 de 80 3e 25 22 56 3e
       0.43310148 -0.044608466 0.2516963 0.20911463
000030 22 55 a4 3e a3 d2 85 be c4 9c 60 be 4c 07 44 3e
       0.320962 -0.26137266 -0.21934801 0.19143409
000040 d2 bd 08 3f e5 ee 1a bf ce 8e d9 be 96 55 a9 3d
       0.5341464 -0.60520774 -0.42491764 0.08268277
000050 e6 37 0f 3f 11 d9 88 3e 3b 5d 18 bf a7 85 ed be
       0.5594467 0.2672811 -0.5951726 -0.4639103
000060 61 35 0c 3f 49 d9 47 bd ec 53 17 bf 35 97 89 be
       0.5476895 -0.048791204 -0.5911243 -0.26873174
000070 f8 6a 80 3e 19 33 fe bd fb 23 eb be 1d 99 ab be
       0.2508161 -0.1241209 -0.45925888 -0.33515254
000080 29 7e 9c be 53 b3 36 3d 71 4d 42 3e c8 47 6d 3e
       -0.30565003 0.04460461 0.18974854 0.23171914
000090 5f af 92 be c8 fc 6d be 92 65 ff be af 02 f2 3e
       -0.28649423 -0.2324096 -0.4988218 0.47267672
0000a0 0f 93 48 3f 06 86 16 3f 3c 33 4d 3e f6 29 90 bd
       0.78349394 0.58798254 0.20039076 -0.070392534
0000b0 dd 74 11 be d4 01 1d 3e 7e 73 14 bf ee 59 5c 3c
       -0.14204736 0.15332729 -0.5798873 0.013449175
0000c0 97 72 f4 be ab 3d 0b bf da 74 81 3d 2e 24 14 bd
       -0.47743675 -0.5439097 0.06321116 -0.036167316
0000d0 3b 08 e9 be a5 d7 1f 3e 46 b7 52 3e a1 1f 7b 3d
       -0.45514092 0.15609606 0.20577726 0.06130946
0000e0 31 08 c8 be bd 12 f3 be f8 76 00 3e 23 f1 5b be
       -0.3906875 -0.47475234 0.12545383 -0.21478705

GRN_net.decoder.0.bias f4 [6]
000000 5f f4 0a 3e 3d 5e 9b be 1e ca 30 3e f7 7b bd 3d
       0.13569783 -0.30345336 0.17264602 0.0925216
000010 68 26 5c bd 70 6e db 3d
       -0.053747565 0.10714424

BRD_net.encoder.0.weight f4 [8, 7]
000000 53 22 59 be f1 43 c4 3e 37 c0 12 3e b3 78 0d 3f
       -0.212045 0.38333085 0.14331137 0.552623
000010 84 da 88 3d 7b e5 03 bf 27 c2 1b 3e ab 96 de be
       0.066823035 -0.51522034 0.15210782 -0.43474326
000020 cc 51 4b 3f d0 f2 0a bf 5c b1 8a 3e 70 91 26 bf
       0.7942169 -0.5427675 0.2708844 -0.6506567
000030 f2 16 17 3f cc 3f 15 3f de df cf 3e 90 88 b5 3e
       0.59019387 0.5830047 0.40600485 0.3545575
000040 3c 49 5f 3e 58 44 d2 be 5f 98 c8 be 55 ed e1 3c
       0.2180528 -0.41067767 -0.3917875 0.027578989
000050 d1 76 16 bf 53 27 14 3f e5 e2 98 be c6 22 eb 3e
       -0.5877505 0.57872504 -0.29860607 0.45924968
000060 96 45 0f 3e c8 c9 bc 3e aa 1f b2 be 42 54 23 bf
       0.13991389 0.36872697 -0.34789783 -0.6380044
000070 a8 18 c6 3e 69 0a f0 bd ca 84 df 3e c1 a3 03 bf
       0.38690686 -0.117207356 0.43655998 -0.51421744
000080 e1 78 55 3e fd c4 1b bf 68 7f 66 be fa ba e6 3b
       0.20846893 -0.60847455 -0.22509539 0.0070413323
000090 ce 5e 49 be 68 49 35 bf 17 f9 8a be 59 13 64 3e
       -0.19665071 -0.70815134 -0.27143165 0.22273006
0000a0 7e 58 45 3f 89 0a 89 be cc 9b b8 3b 6d ac 4e bf
       0.77088153 -0.2676585 0.005633807 -0.8073185
0000b0 53 5c c0 be ac 63 af be 44 3a 99 bf 48 da a2 3d
       -0.37570438 -0.3425573 -1.1970906 0.0795179
0000c0 90 5d be 3c 44 96 34 3f bb e0 d3 be 42 57 4a 3f
       0.023237973 0.7054179 -0.41382393 0.79039395
0000d0 34 63 39 3f fe 65 67 3f 11 37 55 3e 4a 52 c9 be
       0.72416997 0.9039 0.20821787 -0.39320594

BRD_net.encoder.0.bias f4 [8]
000000 85 8e a9 3e 0d 56 56 be f5 02 8d be 80 0c aa be
       0.33116546 -0.20931263 -0.2754132 -0.33212662
000010 c5 da 5f 3e 6d 9d 34 bd 3e 90 75 bd 96 5f 66 bc
       0.21860798 -0.044095445 -0.059952013 -0.014060875

BRD_net.encoder.2.weight f4 [8, 8]
000000 ce 89 c8 be 0b 58 c2 be 90 86 81 3e 85 f0 59 3e
       -0.39167637 -0.37957796 0.25297976 0.21283157
000010 7e 7d 49 3e 95 fe d0 be 68 8c d0 be b2 6c e7 3e
       0.19676778 -0.4081923 -0.4073212 0.45200115
000020 9b fd 9d be 77 f3 02 bf d1 3e b3 3d f5 5b 05 be
       -0.30857548 -0.5115275 0.08752216 -0.1302336
000030 fa ea 64 bd 2b 4a 9d 3e a9 52 7a 3e 41 49 0d bf
       -0.055888154 0.30720648 0.24445595 -0.551899
000040 15 21 9a be b5 05 69 be 38 17 14 3f 04 7a b1 3e
       -0.30103365 -0.22756083 0.5784793 0.34663403
000050 e8 25 94 3e 31 f0 24 3f 30 80 9e 3e e1 e9 2e bf
       0.2893517 0.64429003 0.30957174 -0.6832562
000060 eb 5c e3 3e ab d1 42 be 29 68 76 be 21 e5 9c be
       0.44406828 -0.19025294 -0.24063171 -0.3064356
000070 2c cb a4 3e a2 20 2d be 1c 83 ce be f1 2d c0 be
       0.32186258 -0.1690698 -0.40334404 -0.3753505
000080 41 b6 2c be 07 95 07 3f 26 77 19 3f ec bc fb 3e
       -0.168664 0.5296177 0.5994743 0.49167573
000090 c1 f7 0b 3e 2f 24 b5 bd ed e0 de bd 21 42 d3 be
       0.1366873 -0.08844792 -0.10882745 -0.4126139
0000a0 6a 64 85 3e 63 fc f9 be cd 8d db 3d 25 08 b3 3e
       0.26053172 -0.48825368 0.10720406 0.3496715
0000b0 40 07 0e 3f 7f fb 0e bf 4f 86 ff 3e 22 31 b7 be
       0.5547981 -0.558525 0.49907157 -0.35779673
0000c0 ce 84 a7 be cf e4 27 3f 18 72 fa 3e 0c 91 3e be
       -0.3271851 0.6558351 0.48915172 -0.18610018
0000d0 08 4f 94 3e 3f 1b 04 bf b6 be 00 3f 8a 4b fe 3e
       0.28966546 -0.51604074 0.50291 0.49667007
0000e0 f3 63 8c be 6c f1 36 3e 48 bc 43 3e 39 fb a0 be
       -0.27420005 0.17865533 0.19114792 -0.31441668
0000f0 ed dd a5 be 37 e6 44 bd 4b 0f ed be 93 67 12 bf
       -0.32395878 -0.048071112 -0.4630073 -0.5718929

BRD_net.encoder.2.bias f4 [8]
000000 8a 64 8f 39 02 09 7f 3e 8a b1 87 bc bf 55 0c be
       0.00027349993 0.2490578 -0.01656415 -0.13704585
000010 94 cd b9 bd c1 0f d5 3e ff 1f 10 3e 51 76 13 be
       -0.09072414 0.41613582 0.14074706 -0.14400603

BRD_net.decoder.weight f4 [1, 8]
000000 b1 8c 1c 3e c4 71 db be ca 3e 07 bf ab 96 66 bd
       0.15288045 -0.42860234 -0.52830184 -0.056296032
000010 51 43 19 bf 56 9a 58 3f 4d ba 5c be d2 37 11 bf
       -0.5986834 0.846105 -0.21555443 -0.567258
