example/Embryogenesis/Output/ckpt_itr4900.pth (torch, 8074 bytes, 15 tensors)

GRN_net.encoder.0.weight f4 [10, 6]
-0.1240637 -0.2105773 0.03660665 0.1213348 0.32434937 0.16079059 0.25115007 0.25725728
0.21303678 0.044827186 -0.12863798 0.47331062 0.12500544 0.49308237 0.6313348 -0.17290796
0.5637866 -0.057349335 0.49460813 0.70225203 -0.46688628 0.032412723 -0.44911802 -0.4744694
-0.2290086 -0.24738482 -0.16666593 -0.5730911 -0.34689942 -0.035768915 -0.063920036 0.28610262
0.37742177 0.30789137 0.49107555 -0.55063933 0.5479783 -0.75311387 -0.08508416 0.3271158
0.30111435 -0.4159205 -0.27006227 -0.5119743 -0.2794567 -0.12809116 0.8911605 -0.13396199
-0.10702979 -0.46147674 0.85961527 -0.2714707 -0.62436396 0.44660318 -0.10720107 0.5896028
-0.6256762 -0.48241666 -0.33463833 0.29850474
00000000: 1c15 febd 93a1 57be dbf0 153d 617e f83d
00000010: 1f11 a63e 4aa6 243e be96 803e 3ab7 833e
00000020: 5026 5a3e b69c 373d adb9 03be c555 f23e
00000030: 6d01 003e 4b75 fc3e 289f 213f c90e 31be
00000040: 5254 103f 23e7 6abd 473d fd3e cac6 333f
00000050: b80b efbe 34c3 043d ccf2 e5be a7ed f2be
00000060: 3b81 6abe 7252 7dbe 79aa 2abe 19b6 12bf
00000070: cd9c b1be 6d82 12bd 82e8 82bd 0b7c 923e
00000080: 6d3d c13e f0a3 9d3e 416e fb3e b3f6 0cbf
00000090: 4e48 0c3f 12cc 40bf 9b40 aebd b97b a73e
000000a0: a92b 9a3e 88f3 d4be 9a45 8abe bf10 03bf
000000b0: f314 8fbe 542a 03be 1823 643f 552d 09be
000000c0: 6f32 dbbd ae46 ecbe bf0f 5c3f 35fe 8abe
000000d0: 51d6 1fbf 2ca9 e43e 3c8c dbbd 36f0 163f
000000e0: 512c 20bf 51ff f6be b755 abbe 9dd5 983e

GRN_net.encoder.0.bias f4 [10]
-0.3167896 0.30864832 0.32874143 0.28039908 -0.29439786 -0.15423492 -0.03558067 0.081345946
-0.27979708 -0.28281173
00000000: 3f32 a2be 2707 9e3e cc50 a83e 7890 8f3e
00000010: 51bb 96be c2ef 1dbe 09bd 11bd b498 a63d
00000020: 9041 8fbe b3cc 90be

GRN_net.encoder.2.weight f4 [10, 10]
-0.09697126 -0.4050001 0.21042737 -0.033266023 0.16884269 -0.2890512 -0.48940697 0.29751438
-0.37825054 0.40553802 0.43661666 -0.4509091 -0.5712542 0.076500736 -0.2460478 0.054547302
-0.27320853 -0.1897024 -0.51400083 0.3904152 -0.41798916 -0.37532735 -0.04810968 -0.3454937
-0.4964249 0.38488984 -0.14955406 0.2476686 0.3484822 -0.4213847 -0.5711471 -0.15360245
0.3406332 0.040593557 -0.22027726 0.36911926 0.5447275 0.33906186 -0.4666947 -0.10772767
-0.28691623 0.4243862 -0.2847496 -0.2110024 0.016190812 -0.040904418 0.42353553 0.055155378
-0.4455721 0.43592092 0.39764747 0.078566596 -0.5192663 0.23748286 0.3966447 0.17136109
-0.1924023 0.084066056 -0.33362952 0.55653006 0.49502227 -0.14099582 -0.45730656 0.37176472
0.34630278 0.2729309 -0.34174004 0.21451767 -0.20135503 -0.49552602 -0.29310083 0.19498585
0.26231283 -0.54152584 0.25629354 0.27717888 0.50198835 0.4764168 -0.25329885 0.2606119
0.64537215 0.12889352 -0.39923796 -0.15604696 0.4852308 0.3399513 0.48245785 -0.10855445
-0.018069804 -0.44404313 -0.25584245 0.34788403 -0.5161246 -0.2472586 0.12588607 -0.30841652
0.04950359 0.017746508 0.2900697 -0.39282894
00000000: de98 c6bd 2c5c cfbe 467a 573e f441 08bd
00000010: 19e5 2c3e 85fe 93be 8d93 fabe ce53 983e
00000020: 0eaa c1be aea2 cf3e 388c df3e 8fdd e6be
00000030: b73d 12bf 6bac 9c3d f4f3 7bbe fe6c 5f3d
00000040: fde1 8bbe 5941 42be 8f95 03bf 80e4 c73e
00000050: ad02 d6be e82a c0be a80e 45bd 8de4 b0be
00000060: 682b febe 4810 c53e b324 19be d69c 7d3e
00000070: 426c b23e bcbf d7be b236 12bf f649 1dbe
00000080: 7a67 ae3e 6e45 263d 5d90 61be 33fd bc3e
00000090: 4373 0b3f 8499 ad3e 9cf2 eebe 53a0 dcbd
000000a0: afe6 92be 2649 d93e b3ca 91be 0311 58be
000000b0: 98a2 843c 648b 27bd a6d9 d83e 9bea 613d
000000c0: 0722 e4be 0731 df3e 7398 cb3e 86e7 a03d
000000d0: a3ee 04bf b52e 733e 0415 cb3e 4879 2f3e
000000e0: 1c05 45be d32a ac3d 7dd1 aabe c178 0e3f
000000f0: 8f73 fd3e 3561 10be 1624 eabe f257 be3e
00000100: 994e b13e 99bd 8b3e 8df8 aebe 85aa 5b3e
00000110: 0330 4ebe 96b5 fdbe 5011 96be 5faa 473e
00000120: de4d 863e 70a1 0abf e838 833e 64ea 8d3e
00000130: 4f82 003f e7ec f33e 63b0 81be ec6e 853e
00000140: 1c37 253f aafc 033e eb68 ccbe c6ca 1fbe
00000150: 2c70 f83e 190e ae3e b704 f73e cc51 debd
00000160: 2007 94bc 9f59 e3be c8fd 82be db1d b23e
00000170: be20 04bf 5c31 7dbe 47e8 003e c5e8 9dbe
00000180: 47c4 4a3d 2061 913c 0484 943e e020 c9be

GRN_net.encoder.2.bias f4 [10]
-0.07187078 0.04036195 0.085844696 0.09875578 0.3281229 0.24568653 0.15487081 0.0059050824
-0.26442805 0.26425737
00000000: fd30 93bd 9252 253d 58cf af3d 7840 ca3d
00000010: baff a73e 4095 7b3e 7496 1e3e 6c7f c13b
00000020: 1d63 87be be4c 873e

GRN_net.encoder.4.weight f4 [10, 10]
0.01767705 -0.4867487 0.29125398 0.5136896 -0.14463474 0.06453471 -0.27459192 -0.46839508
-0.30808774 -0.19274972 0.13919479 0.0706626 0.0658607 -0.39635158 -0.3771846 -0.40728942
-0.35533968 0.46758568 0.20757765 -0.5509053 -0.10339556 0.050460503 0.3937133 0.5286671
-0.29236978 0.36253196 -0.10713664 0.062721245 -0.27298307 0.07415792 0.4726983 0.3788901
0.3586812 -0.22908978 -0.054383207 0.13727853 0.3786433 -0.5082056 -0.25060302 0.010911294
-0.29527828 0.16313295 -0.020974927 -0.14871803 0.17549501 0.35582086 0.5063949 0.3048711
0.009376503 0.42222252 0.4821052 -0.58062446 0.28091925 -8.11287e-05 -0.3271048 -0.105832964
-0.11523782 -0.24170937 -0.17832406 0.113236986 0.13876209 0.070731685 -0.5405207 0.29797775
-0.082946494 0.42755038 -0.51108056 -0.13889888 0.41206792 0.2498448 -0.2665874 -0.48301232
0.06357509 0.16995206 -0.5993147 -0.4681206 -0.0039246 -0.108179085 0.3836926 -0.53782207
-0.1645429 -0.42739397 -0.02961813 -0.20112155 0.1635661 -0.54062676 -0.44586954 -0.34158236
-0.5340449 0.46991813 -0.12156145 -0.3609335 0.1717373 -0.09463594 0.23921676 -0.18355785
-0.5347947 0.27586275 0.46450412 -0.57307684
00000000: 76cf 903c 2037 f9be 3e1f 953e 2981 033f
00000010: 211b 14be c62a 843d 5097 8cbe 7bd1 efbe
00000020: adbd 9dbe 2f60 45be 1489 0e3e 8eb7 903d
00000030: fae1 863d 98ee cabe 571e c1be 3d88 d0be
00000040: 15ef b5be 6467 ef3e 3c8f 543e 2108 0dbf
00000050: 0dc1 d3bd acaf 4e3d ca94 c93e ba56 073f
00000060: 7eb1 95be ca9d b93e 746a dbbd ff73 803d
00000070: 70c4 8bbe 1ce0 973d 8305 f23e e2fd c13e
00000080: 10a5 b73e 8396 6abe edc0 5ebd be92 0c3e
00000090: 89dd c13e c319 02bf 0a4f 80be 49c5 323c
000000a0: b72e 97be 530c 273e 9cd3 abbc 8a49 18be
000000b0: f7b4 333e 272e b63e 19a3 013f 1118 9c3e
000000c0: e79f 193c 8d2d d83e 7ed6 f63e cea3 14bf
000000d0: a6d4 8f3e a423 aab8 487a a7be f4be d8bd
000000e0: ce01 ecbd a982 77be 959a 36be cbe8 e73d
000000f0: a617 0e3e c6db 903d 915f 0abf 8a90 983e
00000100: dadf a9bd e2e7 da3e 2dd6 02bf 823b 0ebe
00000110: 91fa d23e 51d7 7f3e 257e 88be 644d f7be
00000120: a833 823d ea07 2e3e b06c 19bf 81ad efbe
00000130: ee99 80bb ff8c ddbd 5b73 c43e b5ae 09bf
00000140: ef7d 28be 62d3 dabe b8a1 f2bc cff2 4dbe
00000150: df7d 273e 8466 0abf 0349 e4be e2e3 aebe
00000160: 2bb7 08bf 1c99 f03e 36f5 f8bd 47cc b8be
00000170: e7db 2f3e 7dd0 c1bd 3df5 743e 97f6 3bbe
00000180: 4ee8 08bf e23d 8d3e 7cd3 ed3e 2ab5 12bf

GRN_net.encoder.4.bias f4 [10]
-0.0073402524 0.040034685 0.2720846 0.0867279 -0.17171548 -0.18523255 -0.25853673 0.25394854
0.041909754 0.094423816
00000000: 8086 f0bb 69fb 233d ac4e 8b3e 669e b13d
00000010: 2fd6 2fbe 9aad 3dbe ed5e 84be 8b05 823e
00000020: 90a9 2b3d 4661 c13d

GRN_net.encoder.6.weight f4 [10, 10]
0.09808451 0.045618463 0.01657753 -0.0590785 -0.15672448 -0.39520922 0.14053114 -0.4860566
-0.45251772 -0.1714402 -0.35244256 0.11784903 0.36930716 0.43404162 -0.28854582 0.33944526
0.39696816 -0.027199734 0.25289723 0.28279403 0.50823176 0.18706153 0.29675782 -0.10730906
-0.26093796 -0.22096346 0.3766644 -0.047825497 0.1323534 -0.6000817 0.007340864 -0.25322574
-0.2482188 0.44295934 -0.42602602 -0.20957148 -0.040470313 -0.50157136 0.2917616 -0.3024335
0.25917113 0.44826424 0.36676952 -0.14741746 0.32668388 0.5686223 0.15495028 -0.08308332
-0.20263697 0.14836653 0.106641576 -0.38680267 0.33418947 0.09340651 -0.54042697 0.22257812
0.34135664 0.16119221 0.41325587 0.1875384 -0.42687476 -0.057472683 0.4065109 -0.21160312
0.16711046 0.178938 -0.11892046 0.005722842 0.21264452 -0.39756745 0.3330922 0.3372257
0.19715601 0.48058957 0.037135623 -0.5824906 0.054364976 -0.13685738 0.17056257 0.45163724
-0.2311175 0.101408236 0.583723 -0.42016855 -0.085706465 0.39534184 0.5131589 0.22837391
-0.28531787 0.03926613 -0.48513594 -0.26538163 -0.54461515 0.4928634 0.36140516 0.24749136
-0.20987265 0.51767945 -0.16044013 0.40169305
00000000: 88e0 c83d 6dda 3a3d 9acd 873c 4cfc 71bd
00000010: 627c 20be dd58 cabe 65e7 0f3e 69dc f8be
00000020: 67b0 e7be 058e 2fbe 5a73 b4be d55a f13d
00000030: d415 bd3e b43a de3e 47bc 93be c5cb ad3e
00000040: 693f cb3e fad1 debc bf7b 813e 61ca 903e
00000050: 7a1b 023f 0f8d 3f3e a4f0 973e dac4 dbbd
00000060: a999 85be 3f44 62be 28da c03e abe4 43bd
00000070: a687 073e f49e 19bf a18b f03b cea6 81be
00000080: 122d 7ebe 91cb e23e 1520 dabe e899 56be
00000090: 33c4 25bd fb66 00bf c761 953e 90d8 9abe
000000a0: 14b2 843e e482 e53e 37c9 bb3e 9af4 16be
000000b0: 1c43 a73e 3b91 113f 49ab 1e3e 9627 aabd
000000c0: 1180 4fbe 65ed 173e e666 da3d 000b c6be
000000d0: e21a ab3e ea4b bf3d 6c59 0abf 85eb 633e
000000e0: 4cc6 ae3e 920f 253e 4696 d33e 110a 403e
000000f0: 548f dabe 7a68 6bbd 3222 d03e 7dae 58be
00000100: 011f 2b3e 863b 373e 928c f3bd ae86 bb3b
00000110: 7cbf 593e f68d cbbe 108b aa3e d9a8 ac3e
00000120: 44e3 493e d60f f63e 861b 183d 1b1e 15bf
00000130: cfad 5e3d 5724 0cbe f4a7 2e3e ff3c e73e
00000140: 11aa 6cbe 1faf cf3d df6e 153f 5520 d7be
00000150: df86 afbd 3f6a ca3e 625e 033f dada 693e
00000160: 2f15 92be 86d5 203d bd63 f8be 1ae0 87be
00000170: e66b 0bbf 9758 fc3e 190a b93e 606e 7d3e
00000180: dbe8 56be a486 043f 6b4a 24be b6aa cd3e

GRN_net.encoder.6.bias f4 [10]
0.00714098 0.22090092 0.10720082 -0.06413302 0.2576501 0.006323272 0.22290254 0.08852661
0.22761011 0.20127998
00000000: e2fe e93b da33 623e 1b8c db3d 2c58 83bd
00000010: b7ea 833e 7333 cf3b 9040 643e 704d b53d
00000020: a012 693e 571c 4e3e

GRN_net.decoder.0.weight f4 [6, 10]
0.010046362 -0.36510524 -0.17823668 -0.23593795 -0.58171433 0.12301134 -0.17794143 0.21498738
0.45069456 -0.097644314 0.23687129 0.22957373 0.18589868 -0.2701974 -0.1773536 0.25917917
0.5142237 -0.60930055 -0.41403463 0.118991114 0.5187954 0.26129675 -0.6213891 -0.49570447
0.6234158 0.0052721817 -0.57872885 -0.20817468 0.25888228 -0.12137162 -0.4419495 -0.34765705
-0.32682848 0.03049224 0.20089273 0.19675049 -0.30145916 -0.21078616 -0.4855684 0.4501478
0.8442256 0.60344625 0.23821405 -0.053254563 -0.16987813 0.3745038 -0.46576002 0.0062710023
-0.4825987 -0.5509484 0.07920874 -0.02818072 -0.45482755 0.26186097 0.15389156 0.048135113
-0.3884101 -0.5045819 -8.337486e-05 -0.20140249
00000000: 7f99 243c 13ef babe ad83 36be b899 71be
00000010: 3beb 14bf 5fed fb3d 4736 36be a725 5c3e
00000020: 70c1 e63e bef9 c7bd 638e 723e 6015 6b3e
00000030: 395c 3e3e 5057 8abe 2f9c 35be 22b3 843e
00000040: 2aa4 033f 1ffb 1bbf 59fc d3be 9db1 f33d
00000050: c6cf 043f b0c8 853e 5b13 1fbf facc fdbe
00000060: 2e98 1f3f 44c2 ac3b 9327 14bf be2b 55be
00000070: 388c 843e af91 f8bd 3447 e2be 1b00 b2be
00000080: 1056 a7be ddca f93c d3b6 4d3e f678 493e
00000090: db58 9abe 54d8 57be 6c9c f8be c679 e63e
000000a0: 2b1f 583f 747b 1a3f 62ee 733e 7521 5abd
000000b0: 88f4 2dbe f6be bf3e 1978 eebe fb7c cd3b
000000c0: 2d17 f7be f40a 0dbf 3138 a23d 41db e6bc
000000d0: 28df e8be a412 863e c095 1d3e 5329 453d
000000e0: b0dd c6be 482c 01bf 8ad9 aeb8 743c 4ebe

GRN_net.decoder.0.bias f4 [6]
0.1297904 -0.3087327 0.18617885 0.09278939 -0.03472035 0.10492409
00000000: c6e7 043e 3612 9ebe aba5 3e3e 5d08 be3d
00000010: ed36 0ebd 71e2 d63d

BRD_net.encoder.0.weight f4 [8, 7]
-0.20330302 0.39064136 0.16364717 0.53381175 0.04020296 -0.46712482 0.15202121 -0.44559404
1.0230898 -0.5530305 0.26549578 -0.59557956 0.5476688 0.58613193 0.4006781 0.33509
0.20614475 -0.39220217 -0.31330928 0.048075747 -0.587446 0.55446374 -0.36382478 0.45463645
0.16286907 0.3883751 -0.29258454 -0.6957564 0.38933942 -0.2862624 0.4499567 -0.49593362
0.22333278 -0.5626001 -0.2295663 -0.005043113 -0.1962619 -0.7448748 -0.26371282 0.24709494
0.6949288 -0.27171063 0.0010103753 -0.83381975 -0.36170498 -0.29810792 -1.6949508 0.2031339
-0.010839698 0.7339315 -0.5247917 0.8438122 0.70891684 0.84675777 0.28846356 -0.36218682
00000000: ab2e 50be 2502 c83e 2093 273e e3a7 083f
00000010: dcab 243d fc2a efbe 73ab 1b3e e724 e4be
00000020: 9bf4 823f 6893 0dbf 10ef 873e e777 18bf
00000030: 0634 0c3f be0c 163f ae25 cd3e eb90 ab3e
00000040: 9c17 533e b9ce c8be 136a a0be 13eb 443d
00000050: dc62 16bf 56f1 0d3f 3e47 babe 1cc6 e83e
00000060: 26c7 263e 1ad9 c63e a4cd 95be 171d 32bf
00000070: 7f57 c73e fc90 92be b960 e63e 03eb fdbe
00000080: 59b1 643e 8f06 10bf 6e13 6bbe b340 a5bb
00000090: e1f8 48be 1db0 3ebf 5e05 87be 7506 7d3e
000000a0: dbe6 313f a81d 8bbe 926e 843a 3675 55bf
000000b0: 6531 b9be 9aa1 98be 26f4 d8bf 5502 503e
000000c0: fd98 31bc efe2 3b3f c058 06bf 1404 583f
000000d0: 937b 353f 1ec5 583f 7fb1 933e 8d70 b9be

BRD_net.encoder.0.bias f4 [8]
0.3424045 -0.22324893 -0.2843375 -0.39391115 0.23397163 -0.06193462 -0.05322434 0.032674205
00000000: a54f af3e 5e9b 64be af94 91be b9ae c9be
00000010: 4296 6f3e 28af 7dbd c401 5abd 63d5 053d

BRD_net.encoder.2.weight f4 [8, 8]
-0.39933944 -0.40347597 0.25466698 0.23223707 0.2074916 -0.3966949 -0.38244063 0.46768373
-0.27334237 -0.4945774 0.057682578 -0.14633262 -0.07061468 0.30735335 0.23408833 -0.56800765
-0.11256587 -0.2121492 0.5597415 0.33681786 0.2755094 0.64971715 0.2946252 -0.6994266
0.46259707 -0.17217754 -0.2668927 -0.32234624 0.30799064 -0.16876537 -0.42921036 -0.39143753
-0.14064941 0.5488844 0.5692106 0.4724806 0.11793867 -0.07483969 -0.1068703 -0.4308954
0.24966753 -0.50329036 0.07594399 0.361101 0.5580504 -0.5387325 0.511326 -0.34188336
-0.31127912 0.6655298 0.45949233 -0.19601664 0.2818144 -0.52107114 0.48935506 0.48803225
-0.261028 0.19369985 0.15373252 -0.32646182 -0.33347458 -0.057496063 -0.47762313 -0.5887092
00000000: 3876 ccbe 6794 cebe b663 823e 8ecf 6d3e
00000010: ae78 543e 981b cbbe 42cf c3be 3e74 ef3e
00000020: 88f3 8bbe 4039 fdbe 9144 6c3d 38d8 15be
00000030: 6e9e 90bd 6b5d 9d3e dab4 6f3e f368 11bf
00000040: ef88 e6bd a43d 59be 384b 0f3f 6473 ac3e
00000050: 910f 8d3e dd53 263f 1dd9 963e 9f0d 33bf
00000060: 86d9 ec3e 4f4f 30be 29a6 88be 910a a5be
00000070: f3b0 9d3e d4d0 2cbe 76c1 dbbe 806a c8be
00000080: 6606 10be b083 0c3f c9b7 113f fae8 f13e
00000090: d489 f13d 8d45 99bd d1de dabd 529e dcbe
000000a0: d8a8 7f3e a3d7 00bf 8688 9b3d 3be2 b83e
000000b0: 64dc 0e3f 60ea 09bf 43e6 023f 560b afbe
000000c0: fa5f 9fbe 2960 2a3f 9442 eb3e 96b8 48be
000000d0: fa49 903e eb64 05bf bf8c fa3e 5ddf f93e
000000e0: 76a5 85be 4159 463e 0f6c 1d3e 0126 a7be
000000f0: 2ebd aabe fe80 6bbd 058b f4be a5b5 16bf

BRD_net.encoder.2.bias f4 [8]
0.019518755 0.22943929 -0.03730899 -0.16058102 -0.111433096 0.43593466 0.12874645 -0.16574915
00000000: cce5 9f3c 22f2 6a3e 50d1 18bd 5a6f 24be
00000010: 0937 e4bd d432 df3e 1cd6 033e 25ba 29be

BRD_net.decoder.weight f4 [1, 8]
0.16755532 -0.4214513 -0.52295357 -0.19472076 -0.611542 0.8635647 -0.17593747 -0.58750874
00000000: 9f93 2b3e 77c8 d7be 49e0 05bf e164 47be
00000010: 048e 1cbf 9412 5d3f f428 34be f966 16bf
