example/Embryogenesis/Output/ckpt_itr1400.pth (torch, 8074 bytes, 15 tensors)

GRN_net.encoder.0.weight f4 [10, 6]
0	0xbdfa4bf3	-0.122215174
1	0xbe722758	-0.23647821
2	0x3d12a09d	0.035797704
3	0x3e00b0d0	0.12567449
4	0x3ea020ee	0.31275123
5	0x3e413e17	0.18871342
6	0x3e8beaa1	0.27327445
7	0x3e8853d1	0.26626447
8	0x3e4cdc2c	0.20005864
9	0x3d19c89a	0.037544824
10	0xbe0aef08	-0.13567746
11	0x3efb42d7	0.49074432
12	0x3e03530a	0.12824646
13	0x3efe45bf	0.49662587
14	0x3f262748	0.6490369
15	0xbe5466c2	-0.20742324
16	0x3f100a8c	0.56266093
17	0xbd9cf4d6	-0.07663886
18	0x3efdec9c	0.4959458
19	0x3f33cee4	0.70237565
20	0xbeef2b97	-0.46712944
21	0x3dfbd14d	0.1229578
22	0xbee4505c	-0.4459256
23	0xbea55b87	-0.32296392
24	0xbe2b3149	-0.1671802
25	0xbe6420b3	-0.22278099
26	0xbe33797e	-0.17526814
27	0xbf1b2989	-0.6061025
28	0xbebea185	-0.37232605
29	0xbc9968ea	-0.018726785
30	0xbd9f9163	-0.07791402
31	0x3e94249e	0.28934187
32	0x3ede63e3	0.43435583
33	0x3e941c17	0.2892768
34	0x3ee4b8fd	0.44672385
35	0xbf09bed6	-0.5380682
36	0x3f04d6ef	0.5189046
37	0xbf417e9d	-0.7558382
38	0xbd9c0cea	-0.07619651
39	0xbf0bf774	-0.5467446
40	0x3e9d6892	0.30743843
41	0xbeda4894	-0.42633498
42	0xbe99b498	-0.30020595
43	0xbed95c2c	-0.42453134
44	0xbe985936	-0.29755563
45	0xbebf2d37	-0.37339184
46	0x3f528f77	0.8225016
47	0xbddf3f69	-0.109007664
48	0x3d5bae78	0.053633183
49	0xbeda3d78	-0.42625022
50	0x3f483558	0.78206396
51	0xbe8e4ec8	-0.2779448
52	0xbf263e27	-0.64938587
53	0x3eeb9fc2	0.46020323
54	0xbe107652	-0.14107636
55	0x3f2b3e1f	0.66891664
56	0xbf094e01	-0.5363465
57	0xbefbe1db	-0.49195752
58	0xbea7d928	-0.32782865
59	0x3e940ba1	0.28915122

GRN_net.encoder.0.bias f4 [10]
0	0xbe9aed56	-0.30259198
1	0x3e9f9cb8	0.31174254
2	0x3e926437	0.28592083
3	0x3e960f61	0.29308608
4	0xbe8d04c9	-0.27542713
5	0xbe37a8af	-0.17935441
6	0xbd3322a3	-0.043734204
7	0x3d502abb	0.050822
8	0xbe94a683	-0.29033288
9	0xbe9a3f57	-0.3012645

GRN_net.encoder.2.weight f4 [10, 10]
0	0xbde3832d	-0.11109004
1	0xbed8f147	-0.4237158
2	0x3e553e3b	0.2082452
3	0x3b0dda94	0.0021645175
4	0x3e3b5fb2	0.18298224
5	0xbe8dbae3	-0.27681646
6	0xbeff81f2	-0.49903828
7	0x3e942907	0.2893755
8	0xbec86549	-0.39139774
9	0x3edbe6d9	0.4294956
10	0x3ee8516c	0.4537462
11	0xbee85b80	-0.4538231
12	0xbe6c6c66	-0.23088226
13	0x3d8eef2e	0.06979214
14	0xbef85197	-0.48499748
15	0x3d98313c	0.07431266
16	0xbe7f7704	-0.24947745
17	0xbe293073	-0.16522388
18	0xbf06ff0c	-0.5273292
19	0x3e9f3106	0.3109209
20	0xbedd3479	-0.43204096
21	0xbebd3ed2	-0.3696199
22	0xbd4aa3a9	-0.049472485
23	0xbebed987	-0.37275335
24	0xbee1eb7c	-0.44124973
25	0x3e9c1702	0.30486304
26	0xbe444d16	-0.19170031
27	0x3e69eccb	0.22844236
28	0x3eb86bc8	0.3601973
29	0xbead8a16	-0.33894414
30	0xbe7ed5cd	-0.24886246
31	0xbe432e31	-0.1906059
32	0x3eac617a	0.3366812
33	0xbce43331	-0.027856441
34	0xbe57f93c	-0.21091169
35	0x3ecc2e89	0.39879254
36	0x3f08e101	0.5346833
37	0x3ed921e2	0.42408663
38	0xbf009133	-0.50221556
39	0xbdd3545d	-0.103188254
40	0xbe44c295	-0.19214852
41	0x3ed7a197	0.4211547
42	0xbe8c2a31	-0.2737594
43	0xbe808f80	-0.25109482
44	0x3b38b28d	0.0028182596
45	0xbcb089e0	-0.021550119
46	0x3ec14171	0.3774524
47	0x3d858c36	0.06520884
48	0xbedf76c5	-0.436453
49	0x3ed8a564	0.42313683
50	0x3ed04587	0.40678045
51	0x3d76f1b0	0.060289085
52	0xbef659d8	-0.4811542
53	0x3e7944e2	0.24342683
54	0x3ed0606f	0.40698573
55	0x3e48f5af	0.19624971
56	0xbe4bac3d	-0.19889922
57	0x3dc02e20	0.09383798
58	0xbebe38e4	-0.3715278
59	0x3f107450	0.5642748
60	0x3ef57289	0.47938946
61	0xbdc6efe1	-0.09713722
62	0xbef4108c	-0.47668874
63	0x3eb70bfe	0.35751337
64	0x3eaefc82	0.34177023
65	0x3e8115f0	0.2521205
66	0xbeba3530	-0.36368704
67	0x3e3ceb67	0.18449174
68	0xbe39dccb	-0.18150632
69	0xbef83b0c	-0.4848255
70	0xbe9fbc5a	-0.31198388
71	0x3e512fa1	0.20428325
72	0x3e8c3883	0.27386865
73	0xbf08d526	-0.5345024
74	0x3e9cdb81	0.30636218
75	0x3e80fa9d	0.25191203
76	0x3f00e483	0.5034868
77	0x3ef05e72	0.46947056
78	0xbcb87d16	-0.022520583
79	0x3ea37917	0.31928322
80	0x3ed80222	0.42189127
81	0x3e4e33b7	0.20136915
82	0xbec82e12	-0.3909765
83	0xbe2ebbe7	-0.17063867
84	0x3f006d4c	0.50166774
85	0x3ea7d0ae	0.32776397
86	0x3ef47a70	0.47749662
87	0xbe07b271	-0.13251664
88	0x3c0d3dbb	0.008620675
89	0xbee0be50	-0.43895197
90	0xbe71af20	-0.23601961
91	0x3ea56c11	0.3230901
92	0xbf0d4da4	-0.55196595
93	0xbe2c4638	-0.16823661
94	0x3de9054b	0.11377963
95	0xbe971b90	-0.29513216
96	0x3d27faad	0.041010547
97	0x3d3d4b4f	0.046214398
98	0x3e86b2ea	0.26308376
99	0xbebc92b6	-0.36830682

GRN_net.encoder.2.bias f4 [10]
0	0xbdbe9ab8	-0.09306854
1	0x3d8013a8	0.06253749
2	0x3d8d8d0f	0.069116704
3	0x3dae9fa9	0.085265465
4	0x3eaaf8fa	0.3339308
5	0x3e70c857	0.23513924
6	0x3e2700e7	0.16308938
7	0xbc8a3017	-0.016868634
8	0xbe830612	-0.2559057
9	0x3e5a7eb3	0.21337394

GRN_net.encoder.4.weight f4 [10, 10]
0	0x3c183ac9	0.009291359
1	0xbf05a9d8	-0.52212286
2	0x3eaa1fbe	0.33227342
3	0x3f078e1a	0.52951205
4	0xbe259361	-0.16169502
5	0x3d3f7425	0.046741623
6	0xbe84af0f	-0.2591481
7	0xbedea18c	-0.43482625
8	0xbe8749e3	-0.2642356
9	0xbe553da1	-0.20824291
10	0x3e002050	0.12512326
11	0xbd2c6481	-0.042088035
12	0x3d446ceb	0.047955435
13	0xbec5f6f0	-0.3866496
14	0xbea1dc6f	-0.3161349
15	0xbf058f02	-0.5217134
16	0xbebf8203	-0.3740388
17	0x3ef4c331	0.4780517
18	0x3e5e8949	0.21732058
19	0xbf0ee7fc	-0.5582273
20	0xbdc25995	-0.09489743
21	0x3d74aed9	0.05973706
22	0x3ebdce32	0.37071377
23	0x3f0a7e90	0.5409937
24	0x3d81ef6e	0.06344496
25	0x3ebc3ea0	0.3676653
26	0xbdc59fa2	-0.09649588
27	0x3da1a18b	0.0789214
28	0xbe891b88	-0.26778817
29	0x3d2dd974	0.042443708
30	0x3eeb4cf6	0.45957154
31	0x3eba753a	0.36417562
32	0x3ec482f9	0.38381174
33	0xbe731515	-0.23738511
34	0xbd6e58d0	-0.058190167
35	0x3df6f8bd	0.12059162
36	0x3ebc6153	0.36793002
37	0xbf05e998	-0.5230956
38	0xbe84f04e	-0.25964588
39	0x3d53d448	0.05171612
40	0xbe85d16f	-0.26136348
41	0x3e24f9dd	0.1611094
42	0xbd5b9709	-0.053610835
43	0xbe25f555	-0.16206868
44	0x3e5a5320	0.21320772
45	0x3ed7e09e	0.42163557
46	0x3efb4052	0.4907251
47	0x3e7da440	0.24769688
48	0xbc659cba	-0.014014417
49	0x3ee27603	0.4423066
50	0x3efd19ec	0.4943384
51	0xbecc06ee	-0.39849037
52	0x3e67dd96	0.22643122
53	0xbc6c995c	-0.014440861
54	0xbe9feff8	-0.3123777
55	0xbdae5309	-0.085119314
56	0xbe0da1f2	-0.13831308
57	0xbe83b2d3	-0.2572237
58	0xbe661b5e	-0.22471377
59	0x3dbac75c	0.09120056
60	0x3e5892b0	0.21149707
61	0x3d992ffe	0.07479857
62	0xbf0604ee	-0.5235127
63	0x3ea0e9c9	0.31428364
64	0xbd79b29b	-0.060961347
65	0x3ed8bdbb	0.42332253
66	0xbef89e38	-0.4855821
67	0xbdda8f13	-0.106718205
68	0x3edfd9ba	0.437208
69	0x3e5dcf32	0.2166107
70	0xbe90151e	-0.2814111
71	0xbf0030ae	-0.5007428
72	0x3d1c37e1	0.038139228
73	0x3e280c7e	0.16411015
74	0xbf0c18d2	-0.5472537
75	0xbef62c81	-0.4808083
76	0xbcb3181a	-0.021862078
77	0xbdfdda36	-0.12395136
78	0x3eb8300d	0.3597416
79	0xbf0510d0	-0.5197878
80	0xbe2db1cc	-0.16962355
81	0xbed3d31e	-0.41372007
82	0xbcb37ee7	-0.021911098
83	0xbe35876d	-0.17727442
84	0x3e38546b	0.18000953
85	0xbf0ad2a2	-0.5422765
86	0xbeda9a0e	-0.4269566
87	0xbeae8d88	-0.34092355
88	0xbf0692de	-0.5256785
89	0x3ef354b9	0.47525576
90	0xbdfcff3a	-0.12353368
91	0xbebdc58c	-0.3706478
92	0x3e75a8b2	0.23990133
93	0xbddd6df0	-0.108119845
94	0x3e62ba07	0.22141276
95	0xbe4514dc	-0.19246238
96	0xbf0bcb2b	-0.54606885
97	0x3e8db8a9	0.27679947
98	0x3edf5268	0.43617558
99	0xbf10470c	-0.5635841

GRN_net.encoder.4.bias f4 [10]
0	0xbb7b182d	-0.003831397
1	0x3d7654ed	0.060139585
2	0x3e8b7ac2	0.27242094
3	0x3dca37bb	0.09873911
4	0xbe3c7b01	-0.18406297
5	0xbe4afc19	-0.1982273
6	0xbe8b0aca	-0.2715667
7	0x3e8bc0d1	0.27295545
8	0x3d3e3c71	0.04644436
9	0x3d9b2aff	0.0757656

GRN_net.encoder.6.weight f4 [10, 10]
0	0x3df02498	0.1172573
1	0x3d5a2dfb	0.053266507
2	0x3d1a451e	0.03766357
3	0xbdcab090	-0.09896958
4	0xbe1d42c6	-0.15357503
5	0xbee0df44	-0.43920338
6	0x3e05f30c	0.13080996
7	0xbed152c1	-0.4088345
8	0xbeeea0c0	-0.46607018
9	0xbe1daa81	-0.15397073
10	0xbeb2f0fd	-0.34949484
11	0x3df28c7e	0.11843203
12	0x3ec20585	0.37894836
13	0x3edc6b31	0.4305053
14	0xbe96ac64	-0.294284
15	0x3e885e3a	0.2663439
16	0x3ed656cf	0.41863105
17	0xbd18ecf4	-0.03733535
18	0x3e737433	0.23774795
19	0x3e97dcbf	0.29660603
20	0x3f01d457	0.5071463
21	0x3e37cc54	0.17949039
22	0x3e9bab9b	0.30404362
23	0xbddcf96c	-0.10789761
24	0xbe5db698	-0.21651685
25	0xbe75e110	-0.24011636
26	0x3ebee88b	0.3728679
27	0xbd5645a5	-0.052312512
28	0x3dfb0eda	0.12258692
29	0xbf1ac26b	-0.6045291
30	0x3ceea506	0.029131424
31	0xbe620469	-0.22071995
32	0xbe83058c	-0.2559017
33	0x3ee62375	0.44948927
34	0xbee1abe1	-0.44076446
35	0xbe3a855c	-0.18214935
36	0xbd9645f5	-0.07337562
37	0xbef42316	-0.47683018
38	0x3e8cbd72	0.27488285
39	0xbe80d120	-0.2515955
40	0x3e8b5ebc	0.27220714
41	0x3ee63cb0	0.44968176
42	0x3eaf5a1f	0.34248444
43	0xbdd63011	-0.10458387
44	0x3e999261	0.2999449
45	0x3f137c4e	0.5761155
46	0x3e3cc264	0.18433529
47	0xbdd56898	-0.1042034
48	0xbe4ff7c9	-0.20309366
49	0x3e174730	0.1477325
50	0x3ddcc71d	0.10780165
51	0xbed4fd9f	-0.41599748
52	0x3eae783d	0.3407611
53	0x3dca76aa	0.098859146
54	0xbefb3c33	-0.49069366
55	0x3e5df793	0.21676473
56	0x3eabeefa	0.33580762
57	0x3e223877	0.15841852
58	0x3ed720ef	0.42017314
59	0x3e02d00f	0.1277468
60	0xbefa2c25	-0.48861805
61	0xbda19011	-0.078888066
62	0x3eccfc54	0.4003626
63	0xbe527a2d	-0.20554419
64	0x3e819f03	0.2531663
65	0x3e161803	0.14657597
66	0xbda33503	-0.079690956
67	0xbd1ac12a	-0.03778187
68	0x3e5944ad	0.21217604
69	0xbed6aa3b	-0.4192675
70	0x3eb0b991	0.34516576
71	0x3eb084bf	0.34476277
72	0x3e8c573a	0.274103
73	0x3ef13556	0.47111005
74	0x3ce2583e	0.027629968
75	0xbf033ada	-0.51261675
76	0x3d2c2d79	0.042035554
77	0xbe02e5f5	-0.12783034
78	0x3e38dc5d	0.18052812
79	0x3ef3ee16	0.47642583
80	0xbe80d165	-0.25159755
81	0x3df39af4	0.11894789
82	0x3f116cab	0.5680644
83	0xbed9743a	-0.42471486
84	0xbdb7652c	-0.08954844
85	0x3f01ee62	0.5075437
86	0x3edcf081	0.4315224
87	0x3e7299e1	0.23691513
88	0xbe956945	-0.29181877
89	0x3d5a6974	0.053323224
90	0xbf03af19	-0.5143905
91	0xbec6c4f9	-0.38822153
92	0xbf12980c	-0.57263255
93	0x3f13ab3d	0.57683164
94	0x3ebcfec0	0.3691311
95	0x3e94978e	0.29021877
96	0xbe2d2a6d	-0.16910715
97	0x3ef808db	0.48444256
98	0xbe1831db	-0.14862768
99	0x3ebd76b4	0.37004626

GRN_net.encoder.6.bias f4 [10]
0	0x3bc88981	0.0061199074
1	0x3e582378	0.2110728
2	0x3debea82	0.11519338
3	0xbe0eb375	-0.13935645
4	0x3e7b0035	0.24511798
5	0x3c80449f	0.015657721
6	0x3e6c90fc	0.23102182
7	0x3dcb0840	0.09913683
8	0x3e546273	0.2074068
9	0x3e52018d	0.20508404

GRN_net.decoder.0.weight f4 [6, 10]
0	0xbc8bc148	-0.017059937
1	0xbec09d22	-0.37619883
2	0xbe660a6d	-0.22464915
3	0xbe82ab28	-0.25521207
4	0xbf115bd1	-0.56780726
5	0x3dd3312b	0.103121124
6	0xbe23e200	-0.16004181
7	0x3e58a045	0.21154888
8	0x3ee44191	0.44581273
9	0xbcfafc79	-0.030637966
10	0x3e85a22c	0.2610029
11	0x3e3777b8	0.17916763
12	0x3ed375f5	0.41300932
13	0xbe82ca4a	-0.2554496
14	0xbe809572	-0.25114018
15	0x3d979dfb	0.07403179
16	0x3f098764	0.53722215
17	0xbf1ea519	-0.6197067
18	0xbedfad80	-0.43687057
19	0x3d9f8bfa	0.0779037
20	0x3f0f2bdb	0.55926293
21	0x3e8f8156	0.28028363
22	0xbf11063b	-0.5665013
23	0xbef0238e	-0.46902126
24	0x3f12b469	0.57306534
25	0xbbf04ed2	-0.007333615
26	0xbf17de5e	-0.5932368
27	0xbe72c4c5	-0.23707874
28	0x3e868a73	0.26277503
29	0xbe07a087	-0.1324483
30	0xbef17ac9	-0.4716399
31	0xbea89ca7	-0.32932016
32	0xbe92cc89	-0.28671673
33	0x3d50be1e	0.05096256
34	0x3e322f40	0.17400837
35	0x3e8abd24	0.27097428
36	0xbe8f9fef	-0.28051707
37	0xbe703b40	-0.23460102
38	0xbf00c075	-0.50293666
39	0x3ef20fe4	0.4727775
40	0x3f20675f	0.6265773
41	0x3f14825c	0.5801141
42	0x3e446410	0.19178796
43	0xbdb0bf41	-0.08630229
44	0xbdcb0f05	-0.09914974
45	0x3e745004	0.23858649
46	0xbf0d0c49	-0.5509687
47	0x3d273bd0	0.040828526
48	0xbeeebd8f	-0.46628997
49	0xbf0c0c56	-0.54706323
50	0x3d9f2b78	0.07771963
51	0xbd31ebd2	-0.043437786
52	0xbef2bb0e	-0.47408336
53	0x3e494574	0.196554
54	0x3e46ec1b	0.19426005
55	0x3d07ea22	0.03318227
56	0xbecc8256	-0.39943188
57	0xbf013ed2	-0.5048648
58	0x3a7fe86b	0.0009762111
59	0xbe3b4f83	-0.1829205

GRN_net.decoder.0.bias f4 [6]
0	0x3e182bf7	0.14860521
1	0xbea4f143	-0.32215318
2	0x3e341165	0.1758476
3	0x3dd3204d	0.10308895
4	0xbc808250	-0.015687138
5	0x3dc118da	0.09428568

BRD_net.encoder.0.weight f4 [8, 7]
0	0xbe629e46	-0.22130689
1	0x3ece79fe	0.40327448
2	0x3db92484	0.09040168
3	0x3f0add6f	0.5424413
4	0x3d6f4779	0.05841777
5	0xbf07e97d	-0.5309065
6	0x3e1623df	0.14662121
7	0xbed82509	-0.42215756
8	0x3eac7313	0.33681545
9	0xbf073294	-0.5281155
10	0x3e8ca5c2	0.27470213
11	0xbf2642bb	-0.6494557
12	0x3f1a4653	0.60263556
13	0x3f162a8a	0.5865866
14	0x3ed65be5	0.41866985
15	0x3e9a590d	0.30146065
16	0x3e847d13	0.25876674
17	0xbecc42f6	-0.39894837
18	0xbeab5895	-0.3346602
19	0x3d2af0c8	0.041733533
20	0xbf14c972	-0.5811988
21	0x3f183247	0.5945172
22	0xbe8a684d	-0.270327
23	0x3ee2d140	0.4430027
24	0x3e07ee5d	0.13274522
25	0x3ebb1297	0.3653762
26	0xbebad275	-0.3648869
27	0xbf23592b	-0.63807935
28	0x3ec43cab	0.38327536
29	0xbc1ee64b	-0.009698461
30	0x3ed73d04	0.4203874
31	0xbf050482	-0.51960003
32	0x3e511b2b	0.2042052
33	0xbf1f65bc	-0.6226461
34	0xbe696be8	-0.22795069
35	0x3c8b495c	0.017002754
36	0xbe65c6bb	-0.22439091
37	0xbf264972	-0.6495582
38	0xbe8504d3	-0.25980243
39	0x3e6c06e1	0.23049499
40	0x3f4a9f5d	0.7914942
41	0xbe860b77	-0.26180622
42	0x3bcc975a	0.0062436284
43	0xbf4c87f0	-0.79894924
44	0xbeca39e1	-0.39497283
45	0xbeb1a693	-0.346974
46	0xbee6afd8	-0.45056033
47	0x3d4ea5b9	0.050451014
48	0x3ca760e6	0.020431947
49	0x3f300335	0.68754894
50	0xbec0b749	-0.37639835
51	0x3f44fe98	0.7695098
52	0x3f390ab2	0.72281945
53	0x3f669678	0.9007335
54	0x3e49d7a3	0.19711165
55	0xbecc9240	-0.3995533

BRD_net.encoder.0.bias f4 [8]
0	0x3ea29444	0.31753743
1	0xbe4a2b2b	-0.1974303
2	0xbe83d119	-0.25745466
3	0xbe9f2607	-0.310837
4	0x3e55cf20	0.20879793
5	0xbcebd42d	-0.028787697
6	0xbd80bc0f	-0.06285869
7	0xbd041a9a	-0.03225193

BRD_net.encoder.2.weight f4 [8, 8]
0	0xbec830d6	-0.3909976
1	0xbeaf4d3d	-0.34238616
2	0x3e82005f	0.25390908
3	0x3e2ff3cb	0.17182843
4	0x3e306b84	0.17228514
5	0xbece87d4	-0.40338004
6	0xbecffbf4	-0.40621912
7	0x3edd6198	0.4323852
8	0xbea375c4	-0.31925786
9	0xbf07e4de	-0.530836
10	0x3dca5033	0.09878578
11	0xbde93f0c	-0.11388978
12	0xbd254134	-0.040345386
13	0x3e9a21a7	0.301038
14	0x3e783098	0.24237287
15	0xbf08f57b	-0.53499573
16	0xbeab6dad	-0.33482113
17	0xbe7a1b9b	-0.24424593
18	0x3f15dbaf	0.58538336
19	0x3eb85381	0.36001208
20	0x3e9b182f	0.30291888
21	0x3f22f278	0.6365123
22	0x3e9d2621	0.30693153
23	0xbf2ab8df	-0.6668834
24	0x3ee340ae	0.44385284
25	0xbe462156	-0.19348654
26	0xbe75142e	-0.23933479
27	0xbe9b8ee6	-0.3038246
28	0x3ea60295	0.32423845
29	0xbe2dfb37	-0.16990362
30	0xbeceea2b	-0.4041303
31	0xbebed447	-0.3727133
32	0xbe4e9102	-0.20172504
33	0x3f02ebd4	0.51141095
34	0x3f1d4448	0.61432314
35	0x3f0222f2	0.5083457
36	0x3e1c2422	0.15248159
37	0xbdbf1cf8	-0.09331697
38	0xbde285b0	-0.11060655
39	0xbecaf474	-0.39639628
40	0x3e86de00	0.26341248
41	0xbeea9763	-0.45818624
42	0x3dbb7c92	0.09154619
43	0x3ea5fccb	0.32419428
44	0x3f08e424	0.53473115
45	0xbf0de53a	-0.55427897
46	0x3f000a09	0.5001531
47	0xbec1294f	-0.37726828
48	0xbea8bb80	-0.3295555
49	0x3f22a0b8	0.6352649
50	0x3eff6d66	0.49888152
51	0xbe2cf6f1	-0.16891076
52	0x3e9c7656	0.30559033
53	0xbf05d36c	-0.5227573
54	0x3f000f8c	0.5002372
55	0x3f037a83	0.51358813
56	0xbe8efb55	-0.27926126
57	0x3e1d175b	0.1534094
58	0x3e6504f7	0.22365175
59	0xbe956eab	-0.29185995
60	0xbe9c4007	-0.305176
61	0xbd55d5f2	-0.052205987
62	0xbeedaab5	-0.46419302
63	0xbf0ded6f	-0.5544042

BRD_net.encoder.2.bias f4 [8]
0	0xbc8af55b	-0.016962698
1	0x3e8821c9	0.26588276
2	0x3a138164	0.00056268857
3	0xbe09b77f	-0.13448904
4	0xbd98950c	-0.074503034
5	0x3ecc0349	0.39846256
6	0x3e20febd	0.15722175
7	0xbe030a40	-0.12796879

BRD_net.decoder.weight f4 [1, 8]
0	0x3e0b0746	0.13576993
1	0xbede35a6	-0.43400306
2	0xbf070c3a	-0.5275303
3	0x3cc26f42	0.023734692
4	0xbf157328	-0.5837884
5	0x3f5412cb	0.82841176
6	0xbe79349d	-0.24336477
7	0xbf0c869b	-0.5489289
