example/Embryogenesis/Output/ckpt_itr2000.pth (torch, 8074 bytes, 15 tensors)

GRN_net.encoder.0.weight f4 [10, 6]
-0.12927072 -0.20412649 0.033472583 0.110321976 0.31429398 0.17616282 0.28062224 0.26029733
0.2087404 0.040562708 -0.067815594 0.48174432 0.13280709 0.48501158 0.64518446 -0.18731508
0.5647995 -0.06695364 0.4932803 0.7012386 -0.46248585 0.068319805 -0.44436324 -0.38212094
-0.19654848 -0.2421542 -0.17240223 -0.5974012 -0.35086694 -0.026779596 -0.07873973 0.2906555
0.37459695 0.2946285 0.4576358 -0.5408366 0.5499816 -0.7557534 -0.086838186 0.17968221
0.30618075 -0.40847284 -0.28272608 -0.4869765 -0.2763335 -0.23494825 0.8545312 -0.11037011
-0.07117728 -0.5202744 0.83672065 -0.2571496 -0.6309376 0.45027775 -0.11607953 0.7182457
-0.5857586 -0.4914424 -0.33176607 0.2908795
00000000: 8b5f 04be 8906 51be 8c1a 093d 7df0 e13d
00000010: 24eb a03e 0764 343e b8ad 8f3e b145 853e
00000020: 0bc0 553e 1525 263d e7e2 8abd 31a7 f63e
00000030: 95fe 073e 7053 f83e cf2a 253f 86cf 3fbe
00000040: b396 103f fd1e 89bd 3c8f fc3e 5f84 333f
00000050: f2ca ecbe 41eb 8b3d 9483 e3be 5ba5 c3be
00000060: 0144 49be 45f7 77be 368a 30be 49ef 18bf
00000070: d5a4 b3be e260 dbbc 4c42 a1bd ccd0 943e
00000080: 2ccb bf3e 8cd9 963e 3d4f ea3e 4474 0abf
00000090: 98cb 0c3f 0e79 41bf 38d8 b1bd 9dfe 373e
000000a0: b9c3 9c3e 5a23 d1be 79c1 90be fc54 f9be
000000b0: 967b 8dbe 4696 70be 8fc2 5a3f b909 e2bd
000000c0: 65c5 91bd b430 05bf 5333 563f 1da9 83be
000000d0: 2085 21bf ce8a e63e 1bbb edbd f3de 373f
000000e0: 47f4 15bf 579e fbbe 3edd a9be 28ee 943e

GRN_net.encoder.0.bias f4 [10]
-0.31463897 0.33808243 0.32648355 0.28623366 -0.27707607 -0.16723774 -0.022616621 0.09147203
-0.27428463 -0.29210046
00000000: 5c18 a1be 2419 ad3e da28 a73e 388d 923e
00000010: eadc 8dbe 5f40 2bbe 7e46 b9bc b055 bb3d
00000020: 096f 8cbe 318e 95be

GRN_net.encoder.2.weight f4 [10, 10]
-0.10977519 -0.41930476 0.20681824 -0.0052763126 0.1790237 -0.27958858 -0.49686888 0.2861038
-0.38417605 0.4232439 0.44065824 -0.4499187 -0.45883697 0.08455709 -0.33636516 0.058680687
-0.26401436 -0.18480648 -0.52094483 0.3731562 -0.42579454 -0.3740408 -0.049489256 -0.38567665
-0.46120322 0.34182817 -0.18407443 0.23626852 0.35637727 -0.37261158 -0.46318844 -0.15715219
0.34510896 -0.0058203926 -0.2196562 0.3746439 0.5400315 0.3689633 -0.45225567 -0.11015098
-0.2521242 0.4227773 -0.27427483 -0.21722268 0.0075102584 -0.025606386 0.38889706 0.058669947
-0.44640523 0.43025485 0.3973705 0.0718687 -0.46941373 0.24638298 0.4022106 0.1848792
-0.19333075 0.08447142 -0.35495287 0.56294864 0.5049768 -0.1217039 -0.46848866 0.29932413
0.34352067 0.2635184 -0.35712856 0.20534499 -0.17769824 -0.4902679 -0.30559886 0.20821539
0.25829962 -0.5361526 0.2936282 0.25445926 0.49912968 0.4723788 -0.08596905 0.2944899
0.4411935 0.15234998 -0.3991826 -0.15173654 0.49872872 0.3301873 0.4750867 -0.12683985
-0.008087669 -0.43654194 -0.24154356 0.350565 -0.52474046 -0.26830748 0.10922119 -0.28283235
0.04805647 0.049337678 0.27709496 -0.39327845
00000000: d1d1 e0bd 1daf d6be 29c8 533e ebe4 acbb
00000010: fd51 373e 3c26 8fbe 9965 febe 337c 923e
00000020: b9b2 c4be 6db3 d83e f59d e13e be5b e6be
00000030: aeec eabe 452c ad3d 0e38 acbe 295b 703d
00000040: e42c 87be e93d 3dbe a45c 05bf 540e bf3e
00000050: be01 dabe 4782 bfbe 3fb5 4abd 6977 c5be
00000060: d422 ecbe 1a04 af3e 027e 3cbe 60f0 713e
00000070: 1577 b63e f2c6 bebe 0927 edbe 81ec 20be
00000080: 1fb2 b03e feb8 bebb 8eed 60be 53d1 bf3e
00000090: 813f 0a3f c2e8 bc3e 0e8e e7be d696 e1bd
000000a0: 6c16 81be 4476 d83e c06d 8cbe 9f6f 5ebe
000000b0: 9d18 f63b 7cc4 d1bc 841d c73e e64f 703d
000000c0: 3a8f e4be 5d4a dc3e 2574 cb3e e62f 933d
000000d0: ff56 f0be d24b 7c3e 8cee cd3e f950 3d3e
000000e0: 7ff8 45be 5aff ac3d 62bc b5be 671d 103f
000000f0: 2946 013f e53f f9bd bfdd efbe 0341 993e
00000100: f1e1 af3e e2eb 863e 8ed9 b6be f545 523e
00000110: 87f6 35be 6504 fbbe 7477 9cbe 6a36 553e
00000120: d93f 843e 4c41 09bf 6f56 963e 7c48 823e
00000130: ed8d ff3e a2db f13e 8b10 b0bd 61c7 963e
00000140: 1de4 e13e a201 1c3e a961 ccbe d360 1bbe
00000150: 5f59 ff3e 4f0e a93e 903e f33e 4ee2 01be
00000160: 2482 04bc 6d82 dfbe 3257 77be 417d b33e
00000170: 6455 06bf 995f 89be 5caf df3d 67cf 90be
00000180: dcd6 443d 4e16 4a3d 64df 8d3e cb5b c9be

GRN_net.encoder.2.bias f4 [10]
-0.08847732 0.04524964 0.07394373 0.099516764 0.3272116 0.24049686 0.15701643 0.007165747
-0.2599206 0.25884596
00000000: 9933 b5bd b057 393d cf6f 973d 72cf cb3d
00000010: 4788 a73e cf44 763e eac8 203e a5ce ea3b
00000020: 5014 85be 7587 843e

GRN_net.encoder.4.weight f4 [10, 10]
0.015366316 -0.500153 0.30831343 0.51496345 -0.15534356 0.056881517 -0.26638827 -0.46231878
-0.28747195 -0.22388649 0.14345343 0.027426548 0.034702417 -0.39601457 -0.346618 -0.41313595
-0.36629412 0.4668653 0.21222721 -0.5540606 -0.10269498 0.042056356 0.3746452 0.53386736
-0.06655636 0.36260626 -0.12847854 0.070257194 -0.27367365 0.0634021 0.47000057 0.3751656
0.3653864 -0.23916739 -0.059038427 0.13253982 0.37100917 -0.5206204 -0.25604954 0.02791956
-0.26552325 0.16174173 -0.0333941 -0.15557471 0.18123285 0.39535937 0.49903437 0.29150388
-0.0006150813 0.4358303 0.4851692 -0.52341646 0.26616627 0.002259657 -0.32376572 -0.09941801
-0.12470458 -0.24121681 -0.18743676 0.107678756 0.19234547 0.057851903 -0.55146885 0.30461857
-0.055309188 0.42996377 -0.50060165 -0.12653743 0.4228256 0.23133923 -0.27244925 -0.49227896
0.051848195 0.16681474 -0.5693225 -0.47121578 -0.011334455 -0.11312931 0.37172946 -0.52562207
-0.16567631 -0.4133615 -0.023265637 -0.19902211 0.17114243 -0.53806484 -0.43065828 -0.3393068
-0.5226431 0.47063544 -0.11850565 -0.36457884 0.14518626 -0.09889398 0.22957465 -0.18614516
-0.53795695 0.26779488 0.44038957 -0.57038116
00000000: 00c3 7b3c 070a 00bf 42db 9d3e a5d4 033f
00000010: 6212 1fbe 98fc 683d 0b64 88be 0cb5 ecbe
00000020: 862f 93be 8042 65be 75e5 123e a4ad e03c
00000030: 1f24 0e3d 6cc2 cabe ea77 b1be 8e86 d3be
00000040: e78a bbbe f808 ef3e 1752 593e ead6 0dbf
00000050: bf51 d2bd 4943 2c3d 7fd1 bf3e 88ab 083f
00000060: b34e 88bd 87a7 b93e e18f 03be 01e3 8f3d
00000070: f41e 8cbe f6d8 813d eaa3 f03e b515 c03e
00000080: ed13 bb3e 4ce8 74be 47d2 71bd 85b8 073e
00000090: eaf4 bd3e 6147 05bf ed18 83be 90b7 e43c
000000a0: aaf2 87be a09f 253e 40c8 08bd fa4e 1fbe
000000b0: 1b95 393e 8b6c ca3e 6f81 ff3e ff3f 953e
000000c0: 683d 21ba 2625 df3e 1968 f83e 9ffe 05bf
000000d0: f246 883e c116 143b 9fc4 a5be ab9b cbbd
000000e0: 1d65 ffbd 8a01 77be 6cef 3fbe ae86 dc3d
000000f0: 36f6 443e 1ef6 6c3d 102d 0dbf f7f6 9b3e
00000100: e38b 62bd 3624 dc3e 6e27 00bf 0793 01be
00000110: 997c d83e 31e4 6c3e 787e 8bbe fd0b fcbe
00000120: c65e 543d 7cd1 2a3e 1fbf 11bf 3243 f1be
00000130: 26b4 39bc 57b0 e7bd 5353 be3e 2b8f 06bf
00000140: 0da7 29be 1ea4 d3be 9497 bebc 74cc 4bbe
00000150: f63f 2f3e 9ebe 09bf 3e7f dcbe 9fb9 adbe
00000160: f0cb 05bf 21f7 f03e 17b3 f2bd 14aa babe
00000170: b5ab 143e ed88 cabd 9e15 6b3e d69c 3ebe
00000180: 8cb7 09bf 691c 893e be7a e13e 8004 12bf

GRN_net.encoder.4.bias f4 [10]
-0.010057894 0.03713301 0.2828272 0.086624384 -0.19039005 -0.18878569 -0.2650341 0.26535323
0.042439062 0.075784534
00000000: ddc9 24bc c818 183d bace 903e 2068 b13d
00000010: 9cf5 42be 0951 41be 8db2 87be 61dc 873e
00000020: 95d4 2d3d ec34 9b3d

GRN_net.encoder.6.weight f4 [10, 10]
0.08760929 0.043131746 0.022587743 -0.067658216 -0.1509099 -0.42180145 0.14038882 -0.46311337
-0.46015844 -0.16764574 -0.35887066 0.11876726 0.36810797 0.43364808 -0.29238558 0.30572346
0.41527852 -0.041102674 0.24545518 0.28823858 0.4857929 0.18558387 0.29487923 -0.10630449
-0.21026953 -0.22534075 0.37724313 -0.063303255 0.12215227 -0.60289836 0.06581383 -0.23012517
-0.23016568 0.4383696 -0.46011868 -0.19540264 -0.07090978 -0.47196546 0.3053413 -0.23083101
0.28080806 0.4511159 0.3561188 -0.16623203 0.30586925 0.57450294 0.16790362 -0.08673635
-0.19712575 0.15328674 0.104700044 -0.40902638 0.34078056 0.097193696 -0.49658993 0.2152706
0.33882603 0.15790626 0.41770187 0.14192083 -0.4724324 -0.0648238 0.4008333 -0.21142419
0.21949808 0.16447766 -0.09815969 -0.020423809 0.2148839 -0.40565264 0.33301997 0.33809814
0.114388295 0.4806158 0.034583736 -0.51261663 0.053251725 -0.13568017 0.17178594 0.45196366
-0.23973331 0.1079658 0.5774716 -0.4220245 -0.08788393 0.41633785 0.47344834 0.23363252
-0.2953142 0.045130525 -0.5141464 -0.30876574 -0.561394 0.56508034 0.37463972 0.2795401
-0.18416919 0.49315196 -0.15587156 0.3810633
00000000: 806c b33d eaaa 303d ee09 b93c 6490 8abd
00000010: 2088 1abe 5cf6 d7be 16c2 0f3e 321d edbe
00000020: e399 ebbe 53ab 2bbe e5bd b7be 403c f33d
00000030: a678 bc3e 1f07 de3e 90b3 95be c987 9c3e
00000040: 639f d43e 475b 28bd 9a58 7b3e 0294 933e
00000050: d9b9 f83e b309 3e3e 69fa 963e 2bb6 d9bd
00000060: e550 57be babf 66be 0326 c13e 23a5 81bd
00000070: f82a fa3d 8c57 1abf 67c9 863d efa5 6bbe
00000080: 8db0 6bbe fb71 e03e ad94 ebbe a117 48be
00000090: 2639 91bd 75a5 f1be b255 9c3e f75e 6cbe
000000a0: 13c6 8f3e aaf8 e63e 3455 b63e bb38 2abe
000000b0: e59a 9c3e a012 133f edee 2b3e d4a2 b1bd
000000c0: 55db 49be 33f7 1c3e fa6c d63d e86b d1be
000000d0: ca7a ae3e 7d0d c73d 0941 febe e56f 5c3e
000000e0: 9b7a ad3e 2eb2 213e 05dd d53e b253 113e
000000f0: a9e2 f1be 57c2 84bd 063a cd3e 957f 58be
00000100: 1bc4 603e d56c 283e f307 c9bd d54f a7bc
00000110: 860a 5c3e b4b1 cfbe 9881 aa3e 331b ad3e
00000120: 6944 ea3d 4613 f63e ada7 0d3d d83a 03bf
00000130: 7b1e 5a3d beef 0abe a7e8 2f3e c867 e73e
00000140: a67c 75be 2c1d dd3d 2ed5 133f 9813 d8be
00000150: 7dfc b3bd 3c2a d53e d267 f23e 5d3d 6f3e
00000160: 6c33 97be c9da 383d 199f 03bf 8b16 9ebe
00000170: 84b7 0fbf 1ba9 103f c7d0 bf3e e11f 8f3e
00000180: d996 3cbe 6a7e fc3e cb9c 1fbe bb1a c33e

GRN_net.encoder.6.bias f4 [10]
0.0055776653 0.21386595 0.11021177 -0.07453578 0.25133345 0.0122797955 0.22994457 0.090133086
0.21864899 0.20053117
00000000: d9c4 b63b adff 5a3e b5b6 e13d 37a6 98bd
00000010: c7ae 803e 3231 493c 9776 6b3e b297 b83d
00000020: 85e5 5f3e 0b58 4d3e

GRN_net.decoder.0.weight f4 [6, 10]
0.007831707 -0.37613893 -0.19982418 -0.24132062 -0.582167 0.09140778 -0.16599905 0.20860179
0.4334959 -0.05425019 0.2494251 0.20958675 0.28389817 -0.2629571 -0.21139427 0.1894939
0.53409797 -0.60559475 -0.42299378 0.08964059 0.5518792 0.26400957 -0.6082673 -0.46965775
0.5618146 -0.044649787 -0.58731645 -0.27199033 0.25185648 -0.122705296 -0.45521823 -0.33682123
-0.30697912 0.042551722 0.19223666 0.22606836 -0.2893684 -0.22687307 -0.49718308 0.4620846
0.7952973 0.59188217 0.21272814 -0.06528347 -0.15724173 0.23630233 -0.54217654 0.0073999823
-0.48033848 -0.5442761 0.067916565 -0.037969697 -0.45721692 0.16546947 0.19596216 0.055884592
-0.3923197 -0.47601935 0.09150112 -0.21056627
00000000: 8f50 003c 4895 c0be b69e 4cbe c11c 77be
00000010: e608 15bf 0134 bb3d a8fb 29be b59b 553e
00000020: 2df3 dd3e 7235 5ebd 4b69 7f3e e99d 563e
00000030: 1a5b 913e 50a2 86be bd77 58be b00a 423e
00000040: a5ba 083f 4208 1bbf a492 d8be 7c95 b73d
00000050: f547 0d3f 432c 873e 68b7 1bbf fb76 f0be
00000060: 15d3 0f3f b2e2 36bd 5f5a 16bf 5142 8bbe
00000070: 55f3 803e ea4c fbbd 5d12 e9be d573 acbe
00000080: 5e2c 9dbe b74a 2e3d b0d9 443e 777e 673e
00000090: 1828 94be 6a51 68be c88e febe 5a96 ec3e
000000a0: 9b98 4b3f 9785 173f 68d5 593e 57b3 85bd
000000b0: fa03 21be 3df9 713e 15cc 0abf 8d7b f23b
000000c0: edee f5be ae55 0bbf d717 8b3d 1d86 1bbd
000000d0: 5618 eabe d470 293e 4eaa 483e 3ee7 643d
000000e0: 21de c8be cfb8 f3be f064 bb3d af9e 57be

GRN_net.decoder.0.bias f4 [6]
0.13402297 -0.3031026 0.17511797 0.0928727 -0.052200224 0.10514018
00000000: 513d 093e 4430 9bbe 2052 333e 0b34 be3d
00000010: e7cf 55bd bc53 d73d

BRD_net.encoder.0.weight f4 [8, 7]
-0.20749174 0.38806248 0.13905284 0.551674 0.06549436 -0.5135276 0.15198827 -0.44255245
0.7646343 -0.54106945 0.27007654 -0.64539385 0.58866656 0.583604 0.4015494 0.34804028
0.21775162 -0.41287777 -0.39808145 0.028431226 -0.587617 0.57253987 -0.31426704 0.46271154
0.14545459 0.3824204 -0.3458562 -0.64116883 0.39131996 -0.13915706 0.43744206 -0.5112721
0.21070577 -0.6071366 -0.22612211 0.0015813753 -0.20126872 -0.70575607 -0.27271357 0.22475667
0.7663042 -0.26743123 0.005965598 -0.81066847 -0.3769401 -0.337171 -1.3315532 0.08254873
0.019963983 0.7144931 -0.4028184 0.7871727 0.722391 0.89870995 0.2108445 -0.3930247
00000000: b778 54be 20b0 c63e de63 0e3e 823a 0d3f
00000010: e821 863d 8b76 03bf d0a2 1b3e 3c96 e2be
00000020: 13bf 433f 8783 0abf 7947 8a3e 8838 25bf
00000030: dab2 163f 1267 153f e297 cd3e 5632 b23e
00000040: 48fa 5e3e b764 d3be 55d1 cbbe 9ae8 e83c
00000050: 116e 16bf f991 123f 9ce7 a0be 87e8 ec3e
00000060: 0cf2 143e 9bcc c33e 1014 b1be a423 24bf
00000070: 175b c83e 307f 0ebe 68f8 df3e bae2 02bf
00000080: 41c3 573e 4e6d 1bbf 8e8c 67be 2646 cf3a
00000090: 6319 4ebe 6eac 34bf 1da1 8bbe 9d26 663e
000000a0: 832c 443f bfec 88be 107b c33b f887 4fbf
000000b0: 4bfe c0be ada1 acbe 5670 aabf 4f0f a93d
000000c0: 828b a33c 05e9 363f 373e cebe 2684 493f
000000d0: 9eee 383f db11 663f 9fe7 573e 893a c9be

BRD_net.encoder.0.bias f4 [8]
0.33527517 -0.21276166 -0.27956218 -0.3455786 0.22052963 -0.049105737 -0.05917375 -0.007902591
00000000: 30a9 ab3e 31de 59be c622 8fbe aeef b0be
00000010: 85d2 613e 1923 49bd 2d60 72bd de79 01bc

BRD_net.encoder.2.weight f4 [8, 8]
-0.39289576 -0.39121607 0.2612872 0.23258035 0.20538905 -0.4078188 -0.40697905 0.45792845
-0.29838252 -0.5036327 0.07471704 -0.13898431 -0.06307017 0.30737984 0.24597736 -0.5586826
-0.2533392 -0.22160213 0.5705949 0.34057075 0.28389397 0.6441849 0.31077915 -0.6891785
0.44630426 -0.18427417 -0.25025815 -0.31319714 0.31658068 -0.16817777 -0.40144175 -0.38026938
-0.14286348 0.5380766 0.5863822 0.4823048 0.12856007 -0.088460565 -0.106913224 -0.4201179
0.25889057 -0.4988792 0.18626438 0.36364248 0.5628816 -0.5582709 0.49829036 -0.35135832
-0.32392856 0.66305 0.47551173 -0.19431485 0.28331062 -0.51537716 0.504554 0.49092087
-0.27117428 0.18815853 0.15227254 -0.32657585 -0.33208606 -0.04813272 -0.46202755 -0.5782308
00000000: a229 c9be 794d c8be 70c7 853e 8b29 6e3e
00000010: 8251 523e a0cd d0be 8f5f d0be 9975 ea3e
00000020: 98c5 98be 13ee 00bf 3f05 993d e751 0ebe
00000030: ef2a 81bd e460 9d3e 7de1 7b3e d305 0fbf
00000040: adb5 81be abeb 62be 8212 123f 4a5f ae3e
00000050: 8d5a 913e 4de9 243f 721e 9f3e 016e 30bf
00000060: fe81 e43e 5eb2 3cbe d621 80be 605b a0be
00000070: dd16 a23e cb36 2cbe c689 cdbe abb2 c2be
00000080: ce4a 12be 63bf 093f 251d 163f a8f0 f63e
00000090: 40a5 033e d02a b5bd 52f5 dabd b219 d7be
000000a0: 4e8d 843e 186d ffbe 17bc 3e3e 592f ba3e
000000b0: 0219 103f d7ea 0ebf ea1f ff3e 3de5 b3be
000000c0: f7d9 a5be a5bd 293f 4676 f33e 79fa 46be
000000d0: 170e 913e c2ef 03bf 732a 013f fb59 fb3e
000000e0: 5bd7 8abe a1ac 403e 55ed 1b3e f334 a7be
000000f0: 2f07 aabe d126 45bd e08e ecbe ef06 14bf

BRD_net.encoder.2.bias f4 [8]
0.005178989 0.24262024 -0.022567913 -0.14165494 -0.097924896 0.421597 0.1354252 -0.14949097
00000000: 82b4 a93b 7171 783e 58e0 b8bc fe0d 11be
00000010: d98c c8bd 90db d73e e7ac 0a3e 2914 19be

BRD_net.decoder.weight f4 [1, 8]
0.16064647 -0.4273788 -0.52277863 -0.098691 -0.6009535 0.8540133 -0.20380169 -0.575029
00000000: 8280 243e 65d1 dabe d2d4 05bf 821e cabd
00000010: 17d8 19bf 9ea0 5a3f 64b1 50be 1a35 13bf
