example/Embryogenesis/Output/ckpt_itr5100.pth (torch, 8074 bytes, 15 tensors)

GRN_net.encoder.0.weight f4 [10, 6]
000000 ad c0 fd bd e1 1f 57 be ba b9 15 3d b9 f0 f7 3d
       -0.123902656 -0.21008255 0.036554076 0.12106461
000010 d2 9c a6 3e ac ba 23 3e 5d 14 7f 3e 76 61 83 3e
       0.3254152 0.15989178 0.24910112 0.25660294
000020 fb 0d 5a 3e fe d7 36 3d 97 e9 09 be 35 25 f2 3e
       0.21294396 0.04463958 -0.13468014 0.47294012
000030 0f 62 fd 3d 47 ce fc 3e dc c9 21 3f a2 49 2f be
       0.12372219 0.49376127 0.6319864 -0.17117932
000040 a7 01 10 3f 99 fa 68 bd d6 64 fd 3e a7 c4 33 3f
       0.5625252 -0.056879614 0.49490994 0.7022194
000050 87 42 ef be 2e d5 ec 3c be 93 e5 be ff 0c f6 be
       -0.46730444 0.028910246 -0.4483928 -0.4805679
000060 0c ad 69 be 49 a0 7e be 96 bc 2a be 1c cd 12 bf
       -0.22819918 -0.24865831 -0.16673502 -0.5734422
000070 da b0 b1 be 8d 5b 15 bd 03 58 81 bd 60 26 92 3e
       -0.3470524 -0.036464263 -0.06315615 0.28544903
000080 de 9f c1 3e 47 06 9e 3e d8 0f fb 3e 32 2f 0d bf
       0.3781728 0.30864164 0.49035525 -0.5515014
000090 c2 dc 0c 3f d2 c9 40 bf 0d c8 ad bd 33 40 ab 3e
       0.5502435 -0.75307953 -0.08485422 0.33447418
0000a0 8a 6c 99 3e f9 8a d6 be eb e0 89 be be bc 03 bf
       0.2996562 -0.41902903 -0.2692941 -0.5145987
0000b0 1e 80 8f be 1d 11 06 be 59 f0 63 3f 3c 02 0a be
       -0.28027433 -0.13092466 0.89038616 -0.13477415
0000c0 07 a6 da bd fd 35 ea be 12 a0 5d 3f bd 3e 8b be
       -0.106761985 -0.45744315 0.8657237 -0.27196303
0000d0 88 ac 1f bf 07 c8 e4 3e 65 e6 da bd 82 79 13 3f
       -0.62372637 0.4468386 -0.106884755 0.5760728
0000e0 a8 c0 20 bf b9 ed f6 be 75 9d ab be b7 1a 99 3e
       -0.6279397 -0.48228243 -0.33518568 0.29903194

GRN_net.encoder.0.bias f4 [10]
000000 31 0e a2 be 80 d5 9c 3e 5c e1 a7 3e 87 15 8f 3e
       -0.31651452 0.30631638 0.32789123 0.27946112
000010 1d 90 96 be 4a 15 1b be e7 73 15 bd a2 79 a3 3d
       -0.29406825 -0.1514484 -0.036487486 0.07982184
000020 e3 a0 8d be f4 98 90 be
       -0.2766181 -0.28241694

GRN_net.encoder.2.weight f4 [10, 10]
000000 4d 0b bb bd 92 e1 ce be 55 76 57 3e 55 d1 18 bd
       -0.09133015 -0.40406471 0.21041234 -0.03730901
000010 c9 9c 2c 3e 02 61 94 be 14 0a fb be 0c d3 98 3e
       0.16856684 -0.2898026 -0.49031126 0.29848516
000020 68 3e c1 be 07 9e cf 3e 7c 2e df 3e d0 07 e7 be
       -0.37742925 0.40550253 0.43590152 -0.45123148
000030 44 6d 12 bf 6e d5 9d 3d 86 2a 7b be 7c 18 61 3d
       -0.57197976 0.07706724 -0.2452794 0.05495499
000040 4c 7f 8b be fa ea 41 be b3 b3 03 bf d9 2f c8 3e
       -0.27245557 -0.18937293 -0.51446074 0.39099005
000050 74 c7 d5 be ac 12 c0 be c3 a9 44 bd 0a c2 ae be
       -0.41753733 -0.37514246 -0.04801346 -0.34132415
000060 39 61 ff be 23 2c c6 3e b9 9a 1a be 77 c0 7d 3e
       -0.49878863 0.3870555 -0.15098085 0.24780451
000070 30 45 b2 3e b4 d7 d8 be 97 1d 14 bf 7e 9a 1d be
       0.3481841 -0.42352068 -0.5785765 -0.15390965
000080 35 cd ad 3e fd 71 38 3d 72 81 61 be 9c d3 bc 3e
       0.33945623 0.045030583 -0.22022036 0.36880195
000090 12 b4 0b 3f f0 8e ab 3e ac ec ef be f8 14 dc bd
       0.5457164 0.3350749 -0.46860254 -0.10746187
0000a0 55 ac 8f be 2f 39 d9 3e dc ba 91 be 8e 73 5d be
       -0.28061166 0.4242644 -0.28462875 -0.21626112
0000b0 15 4e 8b 3c ac 86 29 bd 7c c1 d8 3e 66 30 64 3d
       0.017005006 -0.0413882 0.42335117 0.05571022
0000c0 47 8f e3 be 29 62 df 3e d1 79 cb 3e 7c 47 a1 3d
       -0.4444525 0.43629578 0.39741376 0.07874963
0000d0 d9 04 07 bf 54 ab 72 3e 89 45 cb 3e fc fa 2d 3e
       -0.5274177 0.23698169 0.3970149 0.16990274
0000e0 fd ab 44 be 08 29 ac 3d 34 36 aa be f6 b8 0e 3f
       -0.19206233 0.084062636 -0.3324448 0.5575098
0000f0 4d 8d fd 3e d6 29 11 be 5d b4 e9 be c0 9c c0 3e
       0.49521866 -0.14176115 -0.4564542 0.3761959
000100 d8 c9 b1 3e 48 dd 8b 3e 38 7c ae be 61 15 5d 3e
       0.34724307 0.27317262 -0.34079146 0.21590187
000110 db 4a 50 be 91 d3 fd be 7c 6d 96 be d6 52 43 3e
       -0.20341055 -0.49575475 -0.29380405 0.19074568
000120 bf c6 82 3e 19 63 0a bf b2 ba 82 3e c5 43 8e 3e
       0.25542256 -0.5405746 0.25533062 0.2778608
000130 95 89 00 3f 89 c3 f3 3e 81 52 84 be f4 80 84 3e
       0.50209934 0.4761012 -0.25844195 0.25879633
000140 11 92 26 3f 56 c8 00 3e c6 b4 cc be 5b 30 1f be
       0.6506663 0.12576422 -0.3998167 -0.1554579
000150 67 2b f8 3e cc 44 ae 3e c9 f4 f6 3e ef fb df bd
       0.48470613 0.34036863 0.4823363 -0.109367244
000160 8b 05 97 bc 29 5b e3 be 39 14 83 be 1f fe b1 3e
       -0.01843526 -0.44405487 -0.25601366 0.34764192
000170 5d 21 04 bf 7e 55 7a be 0e b8 01 3e b6 29 9f be
       -0.5161341 -0.24446675 0.12667868 -0.3108651
000180 ab d8 4b 3d 6f f2 ac 3c 1b 8b 94 3e a7 eb c8 be
       0.049767178 0.021111695 0.2901238 -0.39242288

GRN_net.encoder.2.bias f4 [10]
000000 be 2d 92 bd bf 62 27 3d 06 7a b0 3d 93 3e c9 3d
       -0.07137631 0.040865656 0.08617024 0.09826388
000010 3a bb a7 3e 70 ea 7b 3e f2 97 1e 3e 35 77 d7 3b
       0.3276003 0.2460115 0.1548765 0.00657549
000020 90 b1 87 be dd e5 86 3e
       -0.26502657 0.26347247

GRN_net.encoder.4.weight f4 [10, 10]
000000 a4 22 8f 3c a7 1f f9 be 86 f3 94 3e 9b 74 03 3f
       0.017472573 -0.4865696 0.29092044 0.513498
000010 76 ac 13 be bd 6a 84 3d 2f 2a 8d be cc fd ef be
       -0.14421257 0.06465671 -0.27571246 -0.4687332
000020 a4 35 9e be e0 44 44 be 80 6c 0e 3e 52 1b 99 3d
       -0.309003 -0.19166899 0.13908577 0.07475914
000030 2d fc 89 3d 13 e2 ca be 35 9e c1 be e3 0e cf be
       0.06737552 -0.39625606 -0.37816015 -0.40441045
000040 58 44 b5 be 1d 19 ef 3e 1b 4b 53 3e 1f 05 0d bf
       -0.35403705 0.46698847 0.20634119 -0.5508594
000050 7c 00 d3 bd 20 60 57 3d 1b 1a ca 3e 79 43 07 3f
       -0.10302827 0.052581906 0.39473042 0.5283733
000060 9d d0 99 be 3b f5 b9 3e 24 89 cf bd 4e 65 7c 3d
       -0.30041972 0.36319908 -0.101335794 0.06162005
000070 c4 b3 8b be c3 d2 98 3d ca 28 f2 3e 79 19 c2 3e
       -0.27285588 0.074620746 0.47296745 0.3791006
000080 ee be b7 3e 0a 1c 6a be c0 6f 5e bd 77 d0 0c 3e
       0.35887855 -0.22862259 -0.05430579 0.13751398
000090 ec 03 c2 3e c0 cf 01 bf 04 35 80 be c1 88 0e 3c
       0.37893617 -0.50707626 -0.25040448 0.008699597
0000a0 70 5a 97 be 32 5e 27 3e c0 28 ab bc 22 db 17 be
       -0.29561186 0.16344526 -0.020893455 -0.14829686
0000b0 60 a9 33 3e 91 35 b6 3e c9 c9 01 3f 16 70 9b 3e
       0.1754508 0.35587743 0.50698525 0.30358952
0000c0 d0 34 1d 3c a8 f0 d7 3e b7 c6 f6 3e ff e6 15 bf
       0.009595111 0.42175794 0.48198482 -0.585556
0000d0 36 c8 8f 3e 9e c3 46 ba 64 7c a7 be 03 b8 d9 bd
       0.28082436 -0.000758225 -0.3271209 -0.106308006
0000e0 4d 58 ec bd 2e 4e 78 be be cf 35 be 41 d7 eb 3d
       -0.115402795 -0.24248573 -0.17755029 0.11515666
0000f0 ec b3 08 3e 39 f4 93 3d 5f 47 0a bf c4 55 98 3e
       0.13349885 0.07224316 -0.54015154 0.29752934
000100 75 14 a8 bd 56 65 db 3e 27 10 03 bf c5 ba 0f be
       -0.08207027 0.4285075 -0.5119652 -0.1403609
000110 e5 83 d2 3e 6d a2 80 3e f6 57 88 be cd 28 f7 be
       0.41116253 0.2512392 -0.2662961 -0.48273316
000120 18 e7 83 3d 37 ad 2e 3e 09 e1 19 bf e5 bd ef be
       0.06440562 0.17058264 -0.60109 -0.46824566
000130 f9 cd 55 bb 9c da dc bd e2 99 c4 3e ea de 09 bf
       -0.003262399 -0.10783884 0.38398653 -0.53855765
000140 ba c2 28 be 7e ca db be 27 e0 ef bc de 20 4b be
       -0.16480532 -0.42927927 -0.029281689 -0.19836757
000150 a2 9f 27 3e 1d 9c 0a bf cb d8 e4 be d5 d6 ae be
       0.16369489 -0.5414446 -0.4469665 -0.3414828
000160 53 16 09 bf 5c 36 f0 3e 09 e3 f9 bd 8f bf b8 be
       -0.5354969 0.46916473 -0.12201507 -0.36083648
000170 4a ec 2a 3e f4 23 c2 bd 03 1c 75 3e eb f7 3b be
       0.166917 -0.09479514 0.23936467 -0.18356292
000180 88 f4 08 bf 50 42 8c 3e 19 78 ed 3e 0e a8 12 bf
       -0.53498125 0.27394342 0.4638069 -0.5728768

GRN_net.encoder.4.bias f4 [10]
000000 7f 18 e6 bb 04 76 25 3d 90 b9 8a 3e 2b 79 b1 3d
       -0.007021963 0.04039575 0.27094698 0.08665689
000010 d7 d2 32 be 1a 9a 3d be 49 0c 83 be dd c3 81 3e
       -0.17463242 -0.18515816 -0.2559531 0.25344744
000020 40 01 2d 3d 8d 1b c2 3d
       0.04223752 0.09477911

GRN_net.encoder.6.weight f4 [10, 10]
000000 e1 90 cb 3d 58 c0 3b 3d 30 42 84 3c 78 a8 7b bd
       0.09939743 0.04583773 0.016144842 -0.06143996
000010 b3 bd 21 be b0 34 ca be c8 0c 11 3e f2 10 fc be
       -0.15795021 -0.39493322 0.14165032 -0.49231678
000020 1a 73 e7 be da 2c 2f be 09 8c b4 be 60 fc f2 3d
       -0.45205003 -0.17106953 -0.35263088 0.11864543
000030 f2 0b bd 3e a6 16 de 3e 38 0f 94 be 26 37 ae 3e
       0.36923176 0.43376654 -0.2891786 0.3402645
000040 56 33 cb 3e f0 e3 ed bc 07 9c 81 3e e7 3b 91 3e
       0.39687604 -0.029039353 0.25314352 0.28366014
000050 67 a5 02 3f 33 7a 3f 3e a0 45 98 3e 1b fa db bd
       0.51033634 0.18698959 0.2974062 -0.10741063
000060 b6 bb 86 be 81 9c 62 be 8d a9 c0 3e d0 80 41 bd
       -0.26315087 -0.22130014 0.37629357 -0.047241986
000070 10 ec 07 3e 34 8e 19 bf bc 9b 4b 3b 40 de 81 be
       0.13273644 -0.5998261 0.0031068167 -0.25364876
000080 6c f3 7f be 56 f1 e2 3e 06 b1 d8 be 62 b2 56 be
       -0.24995202 0.4432475 -0.42322558 -0.20966485
000090 b8 7e 25 bd e9 73 00 bf 37 df 94 3e 75 f5 9b be
       -0.04040405 -0.50176865 0.2907655 -0.30460706
0000a0 74 2c 84 3e 44 5c e5 3e 5e d9 bb 3e da 0a 18 be
       0.25815165 0.44796956 0.36689276 -0.1484789
0000b0 5b a0 a7 3e af 93 11 3f 76 29 1e 3e 45 32 a9 bd
       0.3273953 0.5686597 0.15445504 -0.08261541
0000c0 97 2b 4f be 36 a1 17 3e 15 0f de 3d 4a f1 c3 be
       -0.20231472 0.14807591 0.108427204 -0.38270026
0000d0 51 f9 aa 3e d6 6c bd 3d 60 6b 0c bf c5 af 64 3e
       0.33393338 0.092492744 -0.5485134 0.22332676
0000e0 65 d1 ae 3e bd 87 25 3e ae 78 d3 3e 78 74 48 3e
       0.3414413 0.16165061 0.4130301 0.1957568
0000f0 b4 44 da be 98 5e 6c bd 77 92 d0 3e fa 12 58 be
       -0.4263054 -0.0577074 0.40736744 -0.21100989
000100 cb 75 2f 3e c3 50 37 3e 60 70 f6 bd 08 5f cd 3b
       0.17134778 0.17901902 -0.120331526 0.006267432
000110 00 66 58 3e 0a c6 cb be b3 c8 aa 3e cf 4c ac 3e
       0.2113266 -0.3979953 0.33356246 0.3365235
000120 f4 77 52 3e bb 2a f6 3e d6 4e 19 3d c0 42 16 bf
       0.20553571 0.48079476 0.0374287 -0.586956
000130 76 5f 5d 3d 82 1f 0c be a8 9d 2e 3e c8 ed e6 3e
       0.054046117 -0.13683894 0.17052329 0.45103288
000140 df c4 6a be e2 55 cc 3d b4 90 15 3f 0c e5 d6 be
       -0.22926663 0.09977318 0.58423924 -0.41971624
000150 8a fb ac bd bb 76 cb 3e c9 03 03 3f 8e 99 69 3e
       -0.08446415 0.39739022 0.5117765 0.22812483
000160 16 93 91 be 2a a1 1b 3d 2e 52 f7 be e8 f0 87 be
       -0.2843253 0.037995495 -0.48304886 -0.26550984
000170 4d 17 0b bf e8 8e fa 3e 0f a3 b8 3e af 95 7b 3e
       -0.5433243 0.48937154 0.36061904 0.24568819
000180 0b 2d 58 be 9f cf 04 3f 2d 6d 24 be d0 03 ce 3e
       -0.21110933 0.51879305 -0.16057272 0.40237284

GRN_net.encoder.6.bias f4 [10]
000000 0a c9 f8 3b a0 b5 62 3e 10 8a db 3d bd 78 82 bd
       0.007592325 0.22139597 0.10719693 -0.06370685
000010 05 1f 84 3e d0 46 cb 3b 1e 94 63 3e 4b 44 b5 3d
       0.25804916 0.00620351 0.22224471 0.088509165
000020 2d 5f 69 3e 2f 13 4e 3e
       0.22790213 0.20124505

GRN_net.decoder.0.weight f4 [6, 10]
000000 38 e2 34 3c 70 ba ba be b0 90 34 be 1f b4 70 be
       0.011040263 -0.36470366 -0.17633319 -0.2350621
000010 3e 04 15 bf 62 ba fe 3d 23 30 37 be e9 4a 5c 3e
       -0.582096 0.124378935 -0.17889456 0.21512951
000020 54 c1 e6 3e f7 ac ce bd 24 79 72 3e 60 24 6e 3e
       0.45069373 -0.10091584 0.23679024 0.23256063
000030 c0 17 3c 3e 87 74 8a be 56 e9 33 be 64 f8 84 3e
       0.18368435 -0.27042028 -0.1756948 0.25970757
000040 de 2b 03 3f 84 e2 1b bf f1 8b d3 be 4e b4 f1 3d
       0.5123881 -0.6089251 -0.41317704 0.118019685
000050 ca bf 04 3f 84 6c 86 3e d4 5b 1e bf ea 63 fd be
       0.51855147 0.26254666 -0.6185887 -0.4949029
000060 7a 96 1f 3f 78 c9 f9 3b 94 1d 14 bf 23 eb 54 be
       0.62338984 0.007622894 -0.5785763 -0.20792823
000070 2f 90 84 3e 90 2b f9 bd 0a 30 e2 be 8f ec b1 be
       0.25891253 -0.12166512 -0.44177276 -0.34750792
000080 21 fd a7 be 9f 77 f0 3c 36 6e 50 3e 2d aa 48 3e
       -0.3281031 0.029353915 0.20354542 0.19596167
000090 7f ea 9a be 13 e8 55 be ec ea f7 be 53 e0 e4 3e
       -0.3025703 -0.2088931 -0.4842142 0.44702396
0000a0 5a 35 5a 3f 6c d8 1a 3f 39 7d 73 3e 75 db 59 bd
       0.8523766 0.60486484 0.23778237 -0.053187806
0000b0 1c 4e 29 be e0 2b c2 3e 84 5b f3 be d8 a7 20 3c
       -0.16533703 0.379241 -0.47530758 0.009805642
0000c0 1f 86 f6 be 27 3b 0d bf 88 62 a2 3d e1 f3 e1 bc
       -0.481492 -0.55168384 0.079289496 -0.02758211
0000d0 c9 43 e9 be 8c 78 87 3e d1 ac 1c 3e f7 71 42 3d
       -0.45559528 0.26459157 0.15300299 0.047471967
0000e0 97 d3 c6 be 0b c6 01 bf 4d 40 b2 ba 05 59 4c be
       -0.38833305 -0.50692815 -0.0013599485 -0.19955833

GRN_net.decoder.0.bias f4 [6]
000000 35 f2 03 3e dc 9d 9e be 56 f4 3e 3e 04 2d be 3d
       0.12885363 -0.30979812 0.18647894 0.0928593
000010 72 ca 02 bd ff fa d6 3d
       -0.03193135 0.104970925

BRD_net.encoder.0.weight f4 [8, 7]
000000 fe fd 4f be 5e 41 c8 3e b8 91 26 3e 2f 3a 08 3f
       -0.20311734 0.3911237 0.16266525 0.5321378
000010 9b 03 23 3d 21 7a ef be 47 8b 1b 3e d3 a4 e3 be
       0.03979836 -0.46772864 0.15189849 -0.44461688
000020 68 ba 81 3f 65 87 0d bf 2e cd 87 3e 32 9c 17 bf
       1.0135012 -0.5528472 0.26523727 -0.5922271
000030 8c d0 0b 3f 41 5b 16 3f da f1 cc 3e 81 ce aa 3e
       0.5461509 0.5873299 0.40028268 0.33360675
000040 73 ae 55 3e 67 c1 c7 be c8 cd 9e be e3 b4 7e 3d
       0.20867328 -0.39014742 -0.31016374 0.062184226
000050 ee 64 16 bf 48 85 0d 3f 77 a7 ba be d4 ba e7 3e
       -0.58747756 0.55281496 -0.3645589 0.45259726
000060 1d 4e 27 3e 4d fa c6 3e 19 44 93 be 1c f0 33 bf
       0.16338392 0.3886284 -0.28762892 -0.7028825
000070 56 4c c6 3e de 17 94 be 10 89 e6 3e 09 62 fd be
       0.38730115 -0.2892446 0.45026445 -0.49488857
000080 b9 25 66 3e 2a 2e 0f bf d0 48 6c be 02 57 ae bb
       0.22475328 -0.55929816 -0.23074651 -0.0053204307
000090 b0 3b 49 be 4d 7a 3e bf c7 e8 86 be 49 73 7c 3e
       -0.19651675 -0.74405366 -0.2634947 0.24653353
0000a0 4e e4 31 3f e7 2a 8b be 81 29 9a 38 32 88 54 bf
       0.6948899 -0.2718117 7.351023e-05 -0.8302032
0000b0 d9 e4 bc be f9 e1 99 be fe 55 ec bf 57 84 55 3e
       -0.36893347 -0.30055216 -1.8463743 0.20851265
0000c0 30 81 a7 bc 5b 40 3c 3f bb f7 08 bf 59 82 58 3f
       -0.020447344 0.735357 -0.53503007 0.84573895
0000d0 dd 32 35 3f 61 f5 57 3f bb 91 92 3e 83 8a b8 be
       0.70780736 0.84358793 0.2862681 -0.36043176

BRD_net.encoder.0.bias f4 [8]
000000 75 61 af 3e 44 23 64 be de c7 91 be 37 a3 d2 be
       0.3425404 -0.22279078 -0.284728 -0.41140148
000010 a6 30 6f 3e 3e 07 7f bd b7 b2 64 bd 1b 70 11 3d
       0.23358402 -0.062262766 -0.0558345 0.035507303

BRD_net.encoder.2.weight f4 [8, 8]
000000 5b 59 cc be 5a 8a ce be 45 4c 82 3e 32 77 6e 3e
       -0.39911923 -0.4033993 0.25448814 0.23287657
000010 0a 11 54 3e 41 11 cb be 06 66 c2 be 06 59 ef 3e
       0.20709625 -0.396616 -0.37968463 0.46747607
000020 6a 9e 8c be 30 f5 fc be f7 ca 68 3d 93 7e 16 be
       -0.2746461 -0.49405813 0.056834187 -0.14696722
000030 33 90 91 bd 67 ed 9d 3e 21 88 6e 3e 98 77 11 bf
       -0.07107582 0.30845186 0.23294117 -0.5682311
000040 a9 c7 f8 bd 66 4d 58 be c2 18 0f 3f a0 27 ac 3e
       -0.12147457 -0.21123275 0.5589715 0.3362398
000050 5f 99 8c 3e 24 df 26 3f db 22 96 3e 7f 36 33 bf
       0.27460763 0.65184236 0.29323468 -0.7000503
000060 f9 05 ec 3e e6 c8 2e be e9 c8 89 be 0f f2 a5 be
       0.46098307 -0.17068824 -0.26911095 -0.3241124
000070 72 07 9d 3e 0a f7 2a be 85 e2 dd be 94 bc c8 be
       0.30669743 -0.166958 -0.43336883 -0.39206374
000080 d0 82 17 be 4e a7 0c 3f 32 96 11 3f a3 a0 f1 3e
       -0.14795995 0.54942787 0.56869805 0.4719287
000090 b9 70 f0 3d db b6 94 bd d8 2d da bd 7a c4 dc be
       0.1174025 -0.072614394 -0.10653275 -0.4311865
0000a0 9b ba 7e 3e 3c 90 00 bf cf d9 9e 3d 2e 02 b9 3e
       0.24875872 -0.50220084 0.077563874 0.36134475
0000b0 ab 84 0e 3f a0 74 09 bf 58 55 03 3f bf 49 af be
       0.55671185 -0.5369358 0.513021 -0.3423595
0000c0 6f 3e 9f be fa 65 2a 3f d7 5a ea 3e c5 35 49 be
       -0.3110232 0.66561854 0.4577243 -0.19649418
0000d0 2c 3a 90 3e 22 64 05 bf 00 a4 f9 3e be fa f9 3e
       0.28169382 -0.52105916 0.48757935 0.48824114
0000e0 97 49 85 be fd 11 46 3e 99 63 1a 3e 30 67 a7 be
       -0.26032707 0.193428 0.15077056 -0.32695913
0000f0 3b 95 aa be d9 2b 6e bd 3c 87 f5 be 41 ae 16 bf
       -0.3331698 -0.058147285 -0.47954738 -0.5885964

BRD_net.encoder.2.bias f4 [8]
000000 72 c9 a1 3c d9 6f 6a 3e ed cb 1c bd 73 bf 25 be
       0.019749377 0.22894229 -0.038280416 -0.16186313
000010 f4 43 e5 bd a4 21 df 3e a5 c9 03 3e 47 07 2a be
       -0.11194602 0.43580353 0.1286989 -0.16604339

BRD_net.decoder.weight f4 [1, 8]
000000 10 9f 2b 3e 02 b6 d7 be 9f e0 05 bf 57 26 4b be
       0.16759896 -0.42131048 -0.5229587 -0.19838844
000010 b4 9b 1c bf 49 30 5d 3f 04 dd 32 be 5d 87 16 bf
       -0.61175084 0.864018 -0.17467123 -0.588003
