example/Embryogenesis/Output/ckpt_itr3900.pth (torch, 8074 bytes, 15 tensors)

GRN_net.encoder.0.weight f4 [10, 6]
00000000: cfeb fcbd 198e 57be 6860 133d 4fed f63d
00000010: 824e a43e aaff 263e f442 883e fcc6 843e
00000020: 4398 593e 09f4 323d e461 adbd 04b4 f23e
00000030: 0b50 073e c79a fa3e 7697 213f eab6 38be
00000040: b267 113f 001c 68bd c186 fc3e d59d 333f
00000050: d7a5 edbe 35f7 423d 3413 e7be 10b5 ebbe
00000060: 9b3b 66be aefd 79be 6cdf 2bbe a957 13bf
00000070: 2994 afbe f6e4 0abd 0868 8ebd 20fc 933e
00000080: 29ab be3e 33a0 9b3e 6d78 fb3e d4ce 0bbf
00000090: cab6 0a3f 16de 40bf b422 b4bd 70b6 993e
000000a0: c3a6 9d3e 002a cdbe 3137 8dbe 7fa3 00bf
000000b0: 73b7 8cbe a752 00be 8eca 643f 0b9c 04be
000000c0: bca5 aebd 5025 f5be 1058 553f 27fb 8abe
000000d0: d918 21bf 2e5c e43e b954 dfbd 1b56 253f
000000e0: 06e4 1cbf 04fb f6be a1cf a9be dfb8 973e
-0.123496644 -0.210503 0.035980612 0.12056982 0.32091147 0.16308466 0.2661358 0.25933063
0.2124949 0.04368976 -0.08465937 0.47402966 0.13214128 0.4894621 0.63121736 -0.18038526
0.5679885 -0.056667328 0.4932156 0.7016271 -0.46415588 0.047599036 -0.45131838 -0.46036577
-0.22483675 -0.24413177 -0.16784447 -0.57555634 -0.34292725 -0.03390976 -0.06953436 0.28903294
0.3723996 0.3039566 0.49115315 -0.5461247 0.54185164 -0.75338876 -0.087956816 0.30022
0.30791292 -0.40071106 -0.2758117 -0.50249475 -0.2748371 -0.1253153 0.89371574 -0.1295015
-0.08527705 -0.4788003 0.833375 -0.2714474 -0.6292854 0.44601578 -0.109048314 0.6458451
-0.61285436 -0.48238385 -0.3316622 0.29633233

GRN_net.encoder.0.bias f4 [10]
00000000: ca95 a2be 3e74 a33e 8342 ab3e 46d4 913e
00000010: 7e64 97be 5de3 29be 8c1e f7bc 9936 b43d
00000020: fc22 94be cdce 91be
-0.31754905 0.31924623 0.33449182 0.28482264 -0.29568857 -0.16590638 -0.030165933 0.08799476
-0.2893294 -0.2847809

GRN_net.encoder.2.weight f4 [10, 10]
00000000: 9440 dbbd adc5 d1be f8db 563e 536d b3bc
00000010: 957b 2e3e 03f7 91be 395b fabe 01e0 953e
00000020: baea c2be 6dc2 d03e 218c e03e be51 e6be
00000030: 6fc9 0fbf f4e5 9c3d 3ad8 84be a4e9 5a3d
00000040: 1e00 8dbe 0588 43be 0e5b 03bf 3354 c53e
00000050: e73e d7be 9053 c0be 28e9 46bd ef84 bdbe
00000060: 0a3d f7be ca65 be3e cdd3 1fbe 0402 7b3e
00000070: df95 b33e d4b7 cebe 9b6c 06bf 2860 1abe
00000080: 5730 b13e 2d64 583c 9f82 62be b07e bd3e
00000090: d948 0a3f ca71 b83e c7d2 e7be d87e e1bd
000000a0: 7930 9abe c766 d83e d6b8 90be 9efb 45be
000000b0: 318b 463c a09e 0fbd 6075 d73e 34dd 5f3d
000000c0: 0f5c e7be bd27 de3e c279 cc3e 451c 9f3d
000000d0: 1dd4 f7be f9b3 743e 94c8 c93e 9dfb 363e
000000e0: 5e85 46be 33fa ac3d b522 aebe e1b2 0c3f
000000f0: 9188 fc3e 7c2b 10be 05e9 ebbe 22f5 b43e
00000100: 3375 af3e 28c9 8b3e f8d9 b0be bfba 573e
00000110: 2555 46be 6a57 fdbe 097a 95be a054 5b3e
00000120: df21 923e 5d17 0bbf 4c7a 873e 4298 8a3e
00000130: 71a5 003f c751 f43e 14fe 6cbe 4698 8b3e
00000140: ed5f 1e3f a669 1d3e b62a cbbe a7c7 20be
00000150: 80c0 f93e 1b9b ac3e 6da1 f73e 7b1d d8bd
00000160: 25cf 8cbc 9be3 e2be 5fe9 81be c624 ae3e
00000170: b22f 04bf 1089 86be 60bb f83d 9126 93be
00000180: e4cb 473d 6ed4 823c 88ce 933e 29ab cbbe
-0.10705677 -0.40971127 0.20982349 -0.021902716 0.1703933 -0.28508767 -0.48897722 0.29272464
-0.38069707 0.40773335 0.4385691 -0.4498424 -0.5616674 0.076610476 -0.25946218 0.053445473
-0.27539152 -0.19094856 -0.51310813 0.385408 -0.42040178 -0.37563753 -0.0485622 -0.37015483
-0.48288757 0.37187034 -0.1560814 0.24512488 0.3507528 -0.40374625 -0.5250947 -0.15075743
0.34607193 0.0132074775 -0.2212014 0.37010717 0.54017407 0.36024314 -0.45277998 -0.11010522
-0.30115107 0.42265913 -0.2826602 -0.19334266 0.012118147 -0.035063386 0.42081738 0.054654315
-0.45187423 0.43389693 0.39936644 0.07769064 -0.48404017 0.23896779 0.3941084 0.1786942
-0.19386813 0.08446159 -0.34010854 0.5496045 0.49322942 -0.14079088 -0.46076217 0.35343271
0.34269103 0.27301908 -0.34541297 0.21067332 -0.19368418 -0.49480754 -0.29194668 0.21419
0.28541467 -0.54332525 0.26460493 0.27069288 0.50252444 0.4771864 -0.23143798 0.27264613
0.6186512 0.15372333 -0.39681023 -0.15701161 0.48779678 0.33712086 0.48365346 -0.10552498
-0.017188618 -0.44314274 -0.2537336 0.3401243 -0.5163528 -0.26276445 0.12145114 -0.2874036
0.04877843 0.015970435 0.28868508 -0.39779022

GRN_net.encoder.2.bias f4 [10]
00000000: fd77 9bbd 7fd0 213d 9728 a93d b5ab d03d
00000010: 0b69 a83e 1649 7a3e e7c2 1e3e 73bf 2b3b
00000020: e2cc 85be 58d6 873e
-0.07591245 0.039505478 0.08259695 0.101890005 0.3289264 0.24441943 0.15504037 0.0026206642
-0.26132876 0.2653072

GRN_net.encoder.4.weight f4 [10, 10]
00000000: 6ffe 943c d070 fabe 334d 963e 5f1e 033f
00000010: 99d9 16be 0750 813d 9f48 8bbe 1357 f0be
00000020: b311 9dbe ef75 47be f3f8 0f3e 17c0 473d
00000030: 003c 593d fb9d cbbe 965b bdbe bd49 d6be
00000040: d7bb babe 9797 ef3e 275e 563e 5ada 0cbf
00000050: e2a9 d7bd d93e 223d 0480 c63e 7a9e 073f
00000060: 31b2 73be 8419 b83e b7ca 0cbe bfb3 873d
00000070: b706 8dbe 8ff5 983d 2749 f13e cf42 c13e
00000080: 4188 b73e 20d3 6dbe 2e8c 62bd 95d9 0a3e
00000090: 6c75 c03e 99a5 03bf 6958 81be 7fd5 a83c
000000a0: 11a0 94be 8ff7 253e bd24 bdbc a6c9 19be
000000b0: b21f 363e 3251 b93e b2f4 003f b992 9e3e
000000c0: a040 053c 562d d93e 7126 f73e 74f9 0dbf
000000d0: 81d9 8f3e 729b 4c3b 0e81 a7be 8421 d4bd
000000e0: e711 ecbd a4f0 72be 4ef9 34be f4ea d53d
000000f0: 5852 1f3e ee42 733d 4d1a 0bbf ac72 993e
00000100: 4fac a5bd 6b74 d73e 5c3a 02bf c96e 08be
00000110: a1c3 d43e d86a 7b3e bf46 89be 2a87 f8be
00000120: da13 6f3d 7818 2c3e 0487 16bf b970 efbe
00000130: 7435 e5bb d502 e1bd 8703 c33e 9db0 08bf
00000140: 1210 27be a904 d6be 9991 00bd 466c 5cbe
00000150: 2263 263e 2a61 09bf 2295 e1be fd52 afbe
00000160: 1c3d 07bf 50f3 f13e ec21 f5bd bb28 b9be
00000170: 50b0 1e3e ee0d c1bd 14ac 743e 3921 3cbe
00000180: f6e5 08bf fc76 903e bf70 ec3e c3da 12bf
0.01818773 -0.48914194 0.29355773 0.5121822 -0.14731444 0.06314092 -0.27203843 -0.46941432
-0.30677566 -0.19478582 0.1405981 0.048767176 0.053035736 -0.39768967 -0.36983937 -0.41853133
-0.36471435 0.4679534 0.20934354 -0.5502068 -0.105304495 0.039610717 0.38769543 0.5297619
-0.23798443 0.35956967 -0.13749205 0.06626081 -0.27544186 0.074687116 0.47126123 0.37746283
0.3584614 -0.23225069 -0.055309467 0.13559563 0.37589586 -0.51424557 -0.25262764 0.020609615
-0.2902837 0.16207717 -0.023088807 -0.15018329 0.17785528 0.3619476 0.50373375 0.30971316
0.008133084 0.424174 0.48271516 -0.5545876 0.2809563 0.0031220582 -0.32715648 -0.10357955
-0.11526852 -0.2372461 -0.17673227 0.104452044 0.15558755 0.05939 -0.54337007 0.299703
-0.08089506 0.42081007 -0.508703 -0.13323511 0.41555503 0.24552476 -0.26811787 -0.48540622
0.05836854 0.16806209 -0.5879977 -0.46765688 -0.0069948975 -0.10986868 0.3808863 -0.5339449
-0.16314724 -0.4180043 -0.031388853 -0.21525678 0.16248754 -0.53663886 -0.44059092 -0.34243003
-0.5282762 0.47255945 -0.11969361 -0.36163887 0.15496945 -0.09426485 0.23893768 -0.18372048
-0.5347589 0.28215778 0.46179768 -0.57365054

GRN_net.encoder.4.bias f4 [10]
00000000: 95a8 0abc 9459 1c3d 8919 8f3e bc8e b23d
00000010: 417d 2ebe 6572 3ebe 94bb 86be eca2 833e
00000020: 051d 253d 7efd bb3d
-0.008463045 0.038171366 0.2794917 0.08718631 -0.17039968 -0.18598326 -0.26314986 0.25710237
0.04031088 0.09179209

GRN_net.encoder.6.weight f4 [10, 10]
00000000: 951a aa3d de32 373d a2ce 8e3c 16ce 35bd
00000010: 4f57 18be 20ab cbbe 2fc0 0b3e 9ebd efbe
00000020: 95ef e8be 845e 32be bcb9 b5be 2caf ec3d
00000030: 66a5 bc3e 768c df3e 63c1 91be 027f ac3e
00000040: 683a cc3e fbed c7bc 04f5 803e af72 8e3e
00000050: d358 003f e204 3f3e c08e 963e 9167 d9bd
00000060: 3fdf 84be ea90 5fbe 53ae c13e 7e24 56bd
00000070: 0a3d 093e 1839 1abf 9746 f53c 28f1 7cbe
00000080: 3ebe 75be f40f e23e 8861 e2be 54e5 55be
00000090: 0557 33bd 9f35 febe 173d 953e e363 90be
000000a0: cdb9 863e c8a9 e63e 705a ba3e 8070 17be
000000b0: d47f a43e 5aa0 113f db5b 223e 0a87 aebd
000000c0: e329 51be 7edc 1a3e beef d23d 84b0 cebe
000000d0: 0d9d ac3e c6f3 c53d 314f 01bf 4ae2 603e
000000e0: 3856 ad3e c060 233e 01a8 d43e d96b 1e3e
000000f0: 71dc dabe abfd 6dbd 5a93 ce3e 32f1 5abe
00000100: f088 173e 02f4 363e cf44 e3bd 6f0e 903a
00000110: 0141 613e 426f cbbe ee74 aa3e e608 ad3e
00000120: 074f 1d3e 09aa f53e 31cc 0d3d 0e5c 0ebf
00000130: c5f0 643d a830 0cbe 59e3 2f3e 95c1 e73e
00000140: 7214 73be e323 db3d e2d0 143f 8a20 d8be
00000150: ef8d b9bd 3b76 c33e 893d 073f e8fc 6a3e
00000160: e86b 94be fcfe 343d 6b82 fcbe 99d4 89be
00000170: 52d4 0cbf fcf3 013f 0d7f ba3e 7907 833e
00000180: 5f96 4ebe e1f1 023f 5eac 23be d69a cb3e
0.08305851 0.044726245 0.017432515 -0.044385992 -0.14877056 -0.39778996 0.13647531 -0.46824354
-0.45495287 -0.17418867 -0.35493267 0.11556849 0.3684494 0.4366185 -0.28467855 0.3369065
0.3988831 -0.02440547 0.25186932 0.27821872 0.50135535 0.18654206 0.29405785 -0.10615457
-0.25951573 -0.21832624 0.3782831 -0.052280895 0.13402191 -0.6024337 0.029940886 -0.24701369
-0.23998353 0.44152796 -0.44215035 -0.20888263 -0.04378416 -0.49650285 0.2914817 -0.28201208
0.2631363 0.45051408 0.36397123 -0.14789009 0.32128775 0.568853 0.15855353 -0.085218504
-0.20426135 0.15123174 0.102996334 -0.40369046 0.3371357 0.09665637 -0.5051146 0.21961322
0.33854842 0.15954876 0.41534427 0.15470828 -0.42746308 -0.058103245 0.40346795 -0.21381071
0.14798331 0.17866519 -0.110971086 0.001099063 0.21997453 -0.3973332 0.33292335 0.3379585
0.15362178 0.4798129 0.03461856 -0.55609214 0.05589368 -0.13690436 0.1717657 0.4526488
-0.23738268 0.10700204 0.5813123 -0.42212325 -0.09060275 0.3817614 0.5282827 0.22948039
-0.28988576 0.044188485 -0.4931825 -0.26920012 -0.55011475 0.50762916 0.36425057 0.2559164
-0.2017455 0.5115033 -0.15983722 0.39766568

GRN_net.encoder.6.bias f4 [10]
00000000: 0845 a13b ee9f 5f3e 907a dc3d c1b1 94bd
00000010: 36b4 823e 1284 1b3c 7f81 673e e66e b63d
00000020: 6bd5 653e 2222 4e3e
0.0049215592 0.21838352 0.107655644 -0.07260466 0.25528115 0.009491937 0.22607993 0.08907871
0.22444694 0.20130208

GRN_net.decoder.0.weight f4 [6, 10]
00000000: 54dc ec3b 7106 bdbe 5b20 3fbe 8950 75be
00000010: e4ca 14bf 5fac e83d 08b9 30be 646e 5a3e
00000020: 8d2f e53e fa22 a9bd 4536 743e da63 5b3e
00000030: 8c9a 463e b598 89be 525e 3dbe c522 783e
00000040: 031c 063f bb7a 1cbf 1f20 d6be 3f5f f83d
00000050: 610d 063f f825 833e dd41 22bf 2958 fdbe
00000060: 1269 1d3f 7b03 43bc 8473 14bf 0207 64be
00000070: f5d7 833e e7f7 f5bd 9d10 e3be 700d b2be
00000080: 7b90 a4be bd71 0f3d 7294 453e a138 4e3e
00000090: c9e5 97be dea3 5fbe f13f fbbe f874 ec3e
000000a0: c606 4b3f 0c2b 193f 7b73 6e3e cc45 5ebd
000000b0: 8d30 3dbe 3b44 b23e 21d6 d4be 2656 06bc
000000c0: d227 fabe 5295 0bbf 52b0 a03d c862 09bd
000000d0: ebc0 e8be 059f 6f3e 3327 273e 2300 4a3d
000000e0: 0191 c7be bd88 fbbe 14f4 803c 38cc 53be
0.0072284136 -0.36918977 -0.18664686 -0.23956503 -0.58122087 0.11361002 -0.17258084 0.21331173
0.4476284 -0.082586244 0.23848827 0.21424809 0.19394892 -0.2687432 -0.18493012 0.24232014
0.5238649 -0.6112477 -0.4182138 0.12127542 0.52364165 0.25614905 -0.6338175 -0.49481323
0.6148845 -0.011902685 -0.5798876 -0.22268298 0.257507 -0.12010174 -0.44348612 -0.34775877
-0.3214148 0.03502058 0.19294909 0.2013879 -0.296675 -0.21839854 -0.4907222 0.4618299
0.7930721 0.5983131 0.2328624 -0.054265782 -0.18475552 0.3481768 -0.41569617 -0.00819925
-0.48858505 -0.5452472 0.078461304 -0.03354147 -0.45459685 0.23400505 0.16323547 0.049316537
-0.38977817 -0.4912776 0.015741386 -0.20683372

GRN_net.decoder.0.bias f4 [6]
00000000: e3c9 083e 9fe9 9bbe f04a 3c3e f166 be3d
00000010: 1c03 34bd c4e2 d53d
0.13358264 -0.30451676 0.18387961 0.09296978 -0.043948278 0.10443643

BRD_net.encoder.0.weight f4 [8, 7]
00000000: 839c 50be a531 c83e 2455 253e 61c2 0a3f
00000010: e69a 363d b98d f0be 0804 1c3e 3b70 e6be
00000020: bb98 823f 0c5b 0dbf 67f9 873e 9afb 1dbf
00000030: 8f88 0e3f 3c0b 153f 4e90 cd3e 494c aa3e
00000040: 82f9 4e3e 32ba cdbe 940e a9be c866 ccba
00000050: 2962 16bf 58a7 0f3f 38b3 b8be 3c90 ee3e
00000060: 91ab 253e 8d74 d43e 3d85 9fbe 5e03 2abf
00000070: 4983 cb3e 63a3 87be f7bf e53e e0a4 ffbe
00000080: 1a35 673e dbbb 13bf fe13 67be 1871 90bb
00000090: 4940 4dbe 205a 3dbf 2428 89be 5f78 7b3e
000000a0: c7d5 333f 409d 8abe fc18 a93b 333b 57bf
000000b0: d813 b3be 2964 98be 4c0b 89bf 267e 273e
000000c0: 1791 8f3c b988 3a3f 36b3 efbe 07a8 543f
000000d0: 403e 373f 1695 5c3f 9c75 933e e9e4 bebe
-0.20372204 0.39100376 0.1614576 0.5420285 0.044581316 -0.46983126 0.15235913 -0.450075
1.020286 -0.5521705 0.26557466 -0.6171204 0.5567712 0.5822027 0.40149158 0.33261326
0.20212367 -0.40181118 -0.33018935 -0.0015594596 -0.5874353 0.5611472 -0.36074233 0.46594417
0.16178729 0.4149517 -0.3115634 -0.6641139 0.397486 -0.26491842 0.4487302 -0.49930477
0.2257885 -0.5770852 -0.2256622 -0.004408013 -0.20044054 -0.73965645 -0.26788437 0.24557637
0.70248073 -0.27073097 0.005160449 -0.84074706 -0.34976077 -0.29763916 -1.0706573 0.16356716
0.017525239 0.7286487 -0.46816415 0.8306889 0.7157936 0.8616499 0.28800666 -0.3728402

BRD_net.encoder.0.bias f4 [8]
00000000: 9ef1 ae3e 81d8 65be ebcc 90be 0541 a3be
00000010: 5e2c 703e 6b39 76bd 396c 3bbd d6d2 a03c
0.34168714 -0.22445871 -0.2828134 -0.31885543 0.23454425 -0.06011335 -0.045757506 0.019631784

BRD_net.encoder.2.weight f4 [8, 8]
00000000: 7ba9 cbbe 4906 cfbe 3eee 823e 3aaf 6d3e
00000010: 42c1 563e f15e ccbe 9d92 cabe 2a1e f03e
00000020: b971 8bbe af0f febe aa25 773d b5e9 13be
00000030: 12bb 8dbd 1075 9b3e 6a2c 753e e64a 11bf
00000040: 75fa c7bd 3415 5dbe 01c8 0f3f 1465 ad3e
00000050: 90d6 8e3e b932 243f 572e 9a3e 0a6a 32bf
00000060: ca40 ec3e 1466 35be 8e9d 85be ad26 a2be
00000070: 39bb 9f3e 5426 32be 1262 d3be 3b9d c7be
00000080: cb5c e5bd 160d 0c3f e3f9 113f 2eba f23e
00000090: 9037 f53d 7515 adbd 80a4 dcbd 3826 dcbe
000000a0: c425 823e 1412 02bf 9f54 cd3d 6d02 ba3e
000000b0: 345f 103f 2ad0 0bbf cb1e 013f 7d0f aebe
000000c0: 91cc a0be 9778 2a3f 9bc5 ed3e a51a 48be
000000d0: 0f24 903e e743 05bf 2771 fe3e 8d24 f93e
000000e0: 325f 87be db1c 483e 936d 203e 864a a7be
000000f0: 90a4 abbe 3862 62bd cda9 f0be 99d6 16bf
-0.3977774 -0.40434483 0.2557239 0.23211375 0.2097216 -0.39916185 -0.39564982 0.46898013
-0.272352 -0.4962134 0.060338654 -0.14444621 -0.069204465 0.3036275 0.23942724 -0.5675491
-0.09764568 -0.2159012 0.56164557 0.3386618 0.27898073 0.64139897 0.3011348 -0.6969305
0.4614318 -0.17714721 -0.26096767 -0.31670132 0.31197527 -0.17397434 -0.4128576 -0.38987145
-0.111993395 0.5470747 0.5702192 0.4740767 0.11973488 -0.08451358 -0.107735634 -0.4299791
0.25419438 -0.50808835 0.10025906 0.36329976 0.5639527 -0.5461451 0.5043761 -0.33996192
-0.31406072 0.66590255 0.46439824 -0.19541414 0.2815251 -0.52056736 0.49695703 0.486607
-0.26439816 0.19542257 0.15666799 -0.32674044 -0.3352399 -0.05526945 -0.47004548 -0.589212

BRD_net.encoder.2.bias f4 [8]
00000000: 9e14 963c adf1 6c3e 189f 07bd 2d5f 1fbe
00000010: eef5 dfbd e90b df3e 47e1 033e 3dca 27be
0.018320378 0.23139067 -0.033110708 -0.1556365 -0.10935579 0.43563774 0.12878905 -0.16385742

BRD_net.decoder.weight f4 [1, 8]
00000000: b5e1 2b3e 28a1 d8be cbc8 05bf ec54 38be
00000010: 9b3d 1cbf 0fb2 5c3f a02b 39be e8f8 15bf
0.16785319 -0.42310452 -0.5225951 -0.18001145 -0.610315 0.86209196 -0.18083048 -0.58582926
