example/Embryogenesis/Output/ckpt_itr1800.pth (torch, 8074 bytes, 15 tensors)

GRN_net.encoder.0.weight f4 [10, 6]
-0.13153014 -0.20751345 0.03379635 0.11011937 0.31399372 0.17881027 0.2802922 0.26140437
0.2081927 0.04093831 -0.08236375 0.4838699 0.13287012 0.4869726 0.6456912 -0.18837878
0.56332713 -0.069087155 0.4943603 0.69999504 -0.4625021 0.071085855 -0.44307742 -0.37186247
-0.1964098 -0.23859948 -0.17224106 -0.5977489 -0.35475397 -0.025776519 -0.07929839 0.29197842
0.38075933 0.29350623 0.4511996 -0.5402031 0.54966974 -0.7546149 -0.08541831 0.15986383
0.30404094 -0.41222027 -0.2835038 -0.47812447 -0.2792888 -0.2579708 0.84066224 -0.107648425
-0.06449287 -0.52668357 0.83477247 -0.25739646 -0.6316926 0.4513048 -0.118249215 0.7395888
-0.58043313 -0.49146593 -0.3317231 0.2906314
00000000: d6af 06be 687e 54be 0b6e 0a3d 4486 e13d
00000010: c9c3 a03e 0a1a 373e 7682 8f3e cbd6 853e
00000020: 7830 553e eeae 273d 53ae a8bd ccbd f73e
00000030: 1b0f 083e 7954 f93e 054c 253f 5ee6 40be
00000040: 3536 103f 917d 8dbd cb1c fd3e e032 333f
00000050: 13cd ecbe 7695 913d 0bdb e2be c264 bebe
00000060: a71f 49be 6c53 74be f65f 30be 1206 19bf
00000070: 50a2 b5be 4729 d3bc 3267 a2bd 327e 953e
00000080: e3f2 c23e 7346 963e a203 e73e c04a 0abf
00000090: 28b7 0c3f 712e 41bf cbef aebd 58b3 233e
000000a0: 41ab 9b3e 890e d3be 6927 91be bbcc f4be
000000b0: f1fe 8ebe c014 84be a435 573f c776 dcbd
000000c0: d614 84bd bcd4 06bf a6b3 553f 78c9 83be
000000d0: 9bb6 21bf 6c11 e73e a52c f2bd b155 3d3f
000000e0: 4497 14bf 6ca1 fbbe 9cd7 a9be a4cd 943e

GRN_net.encoder.0.bias f4 [10]
-0.31417444 0.33778274 0.3214679 0.28763676 -0.27628022 -0.17216364 -0.02495625 0.08797209
-0.2689731 -0.29352522
00000000: 79db a0be dcf1 ac3e 7197 a43e 2045 933e
00000010: 9a74 8dbe aa4b 30be 0d71 ccbc b62a b43d
00000020: d8b6 89be f048 96be

GRN_net.encoder.2.weight f4 [10, 10]
-0.11804129 -0.4195099 0.20797232 0.0007062956 0.17876151 -0.27919406 -0.49456528 0.2862265
-0.38744858 0.42340428 0.4439081 -0.45193598 -0.44058493 0.08002254 -0.3458355 0.061710928
-0.26310724 -0.18109937 -0.5221478 0.37024796 -0.4263922 -0.37401575 -0.050495997 -0.37922585
-0.45573655 0.33326727 -0.18479505 0.23554686 0.3567489 -0.36723623 -0.4686684 -0.15959518
0.34409103 -0.0018452618 -0.21867062 0.3759522 0.5393062 0.36279914 -0.45718998 -0.10888874
-0.24059607 0.4237386 -0.2726512 -0.22429949 0.0067489585 -0.025526548 0.38715485 0.060307886
-0.44400144 0.42920986 0.3972486 0.07071973 -0.46993086 0.24715418 0.40295297 0.18616344
-0.19400497 0.08436697 -0.35768056 0.5669472 0.5051506 -0.11863282 -0.4702035 0.295674
0.347294 0.26074684 -0.3590038 0.20353666 -0.17400825 -0.48920277 -0.3075368 0.2043977
0.25106788 -0.53503525 0.29594198 0.2546962 0.4971316 0.46989876 -0.073684 0.29994747
0.4357533 0.14498258 -0.3998886 -0.15300114 0.5000655 0.3301405 0.4723971 -0.13153812
-0.0056229564 -0.43513036 -0.24231593 0.3548641 -0.5267274 -0.25388962 0.108549185 -0.2903699
0.04800306 0.04841623 0.2750664 -0.3914962
00000000: a2bf f1bd 00ca d6be b2f6 543e b226 393a
00000010: 420d 373e 86f2 8ebe a937 fdbe 488c 923e
00000020: a95f c6be 72c8 d83e ec47 e33e 2764 e7be
00000030: 5994 e1be dce2 a33d 5a11 b1be 99c4 7c3d
00000040: feb5 86be 1d72 39be 7aab 05bf 2491 bd3e
00000050: 1450 dabe fe7e bfbe e4d4 4ebd e429 c2be
00000060: 4d56 e9be 02a2 aa3e ea3a 3dbe 3233 713e
00000070: cba7 b63e 6306 bcbe 4ef5 efbe eb6c 23be
00000080: b32c b03e b6dc f1ba 31eb 5fbe cf7c c03e
00000090: f90f 0a3f cfc0 b93e ce14 eabe 0f01 dfbd
000000a0: d15e 76be 44f4 d83e f098 8bbe c4ae 65be
000000b0: 5e26 dd3b 0d1d d1bc 2939 c63e 6705 773d
000000c0: 2854 e3be 65c1 db3e 2b64 cb3e 81d5 903d
000000d0: c79a f0be fc15 7d3e da4f ce3e a1a1 3e3e
000000e0: 3da9 46be 97c8 ac3d e821 b7be 7423 113f
000000f0: 8d51 013f c4f5 f2bd 83be f0be 9562 973e
00000100: 85d0 b13e 9c80 853e 59cf b7be ea6b 503e
00000110: 382f 32be c978 fabe 7775 9dbe a14d 513e
00000120: f88b 803e 12f8 08bf b585 973e 8a67 823e
00000130: 0888 fe3e 9296 f03e a3e7 96bd b792 993e
00000140: 0e1b df3e 5076 143e 33be ccbe 55ac 1cbe
00000150: 4b04 003f 2d08 a93e 08de f13e eeb1 06be
00000160: c740 b8bb 68c9 debe ab21 78be bfb0 b53e
00000170: 9bd7 06bf d2fd 81be 094f de3d 5dab 94be
00000180: db9e 443d 1950 463d 81d5 8c3e 3172 c8be

GRN_net.encoder.2.bias f4 [10]
-0.088545114 0.045521487 0.07189718 0.0980022 0.3285804 0.23966952 0.15704723 0.00052255025
-0.26270512 0.2635361
00000000: 2457 b5bd bd74 3a3d d43e 933d 61b5 c83d
00000010: b13b a83e ed6b 753e fdd0 203e c1fb 083a
00000020: 4981 86be 34ee 863e

GRN_net.encoder.4.weight f4 [10, 10]
0.014979078 -0.5021194 0.31146497 0.51685727 -0.1561736 0.055989265 -0.2639488 -0.45745364
-0.2823684 -0.22853054 0.14456555 0.039394002 0.03410433 -0.3948578 -0.3411222 -0.4040756
-0.36452752 0.46801746 0.21546939 -0.5564159 -0.10118256 0.04682847 0.37266308 0.5344222
-0.041089717 0.36404857 -0.123667605 0.0704082 -0.2728504 0.05836929 0.47094744 0.37602875
0.36698502 -0.2400878 -0.05957634 0.13340521 0.37299573 -0.5195384 -0.25427863 0.027749684
-0.25997898 0.1628247 -0.035960972 -0.15695181 0.17997396 0.4052441 0.49825418 0.28462955
-0.0018442175 0.43746614 0.48524025 -0.5215565 0.26007184 0.00203071 -0.31872013 -0.0988332
-0.1278782 -0.24489619 -0.19594294 0.10941913 0.20513596 0.068036474 -0.55074006 0.30587217
-0.05049163 0.43360183 -0.498767 -0.12504572 0.42422196 0.22636172 -0.2726962 -0.4927092
0.050770592 0.16610353 -0.5696386 -0.47124296 -0.012225409 -0.11465406 0.37066314 -0.5246177
-0.16650718 -0.41405496 -0.021419827 -0.1921972 0.17359751 -0.53906345 -0.42919457 -0.3385613
-0.5222537 0.4711001 -0.11801018 -0.36480266 0.14695725 -0.10012742 0.22732608 -0.1861574
-0.53843665 0.26539314 0.4449833 -0.5698211
00000000: cf6a 753c e68a 00bf 5678 9f3e c250 043f
00000010: f9eb 1fbe 0055 653d 4c24 87be 5d37 eabe
00000020: 9792 90be e903 6abe fe08 143e 9b5b 213d
00000030: fbb0 0b3d cd2a cabe 92a7 aebe ffe2 cebe
00000040: 5aa3 babe fc9f ef3e 02a4 5c3e 4671 0ebf
00000050: cd38 cfbd 36cf 3f3d b2cd be3e e5cf 083f
00000060: b14d 28bd 9364 ba3e 7145 fdbd 2d32 903d
00000070: 0cb3 8bbe a314 6f3d 0620 f13e d786 c03e
00000080: 76e5 bb3e 94d9 75be 5206 74bd 609b 083e
00000090: 4cf9 be3e 7800 05bf cf30 82be 4e53 e33c
000000a0: f71b 85be 85bb 263e d04b 13bd fab7 20be
000000b0: 184b 383e 287c cf3e 2c1b ff3e f7ba 913e
000000c0: acb9 f1ba 90fb df3e 6971 f83e ba84 05bf
000000d0: 2328 853e a915 053b 492f a3be 1069 cabd
000000e0: 81f2 02be 11c6 7abe 44a5 48be 2317 e03d
000000f0: 290f 523e b556 8b3d 4dfd 0cbf 479b 9c3e
00000100: 50d0 4ebd 0f01 de3e 635e ffbe fc0b 00be
00000110: 9f33 d93e 5ecb 673e d69e 8bbe 6144 fcbe
00000120: d3f4 4f3d 0b17 2a3e d6d3 11bf c246 f1be
00000130: 154d 48bc bfcf eabd 8fc7 bd3e 584d 06bf
00000140: dc80 2abe 03ff d3be a278 afbc 58cf 44be
00000150: 8cc3 313e 1000 0abf 64bf dbbe e857 adbe
00000160: 6bb2 05bf 0834 f13e 52af f1bd 6ac7 babe
00000170: f67b 163e 9b0f cdbd 2bc8 683e 0ca0 3ebe
00000180: fcd6 09bf 9ce1 873e dad4 e33e ccdf 11bf

GRN_net.encoder.4.bias f4 [10]
-0.010015718 0.034893695 0.28037885 0.08553669 -0.21449664 -0.18875882 -0.27101734 0.26556185
0.043352935 0.06924726
00000000: f718 24bc b1ec 0e3d d18d 8f3e dc2d af3d
00000010: 02a5 5bbe fe49 41be c9c2 8abe b9f7 873e
00000020: d992 313d 82d1 8d3d

GRN_net.encoder.6.weight f4 [10, 10]
0.09595931 0.04467499 0.024559736 -0.07262844 -0.15357375 -0.42597207 0.13926588 -0.45362318
-0.46111616 -0.16491729 -0.3587744 0.11960487 0.36889687 0.4333481 -0.29361996 0.29565942
0.41735506 -0.043309096 0.24361226 0.291141 0.47956932 0.18608162 0.2949259 -0.1056482
-0.18863836 -0.22775325 0.37707567 -0.066257566 0.1156039 -0.6029107 0.0696232 -0.23034017
-0.22643813 0.43601695 -0.46029273 -0.1945612 -0.07522008 -0.46918097 0.3153565 -0.22377692
0.28352365 0.44964325 0.35601324 -0.18852638 0.30403513 0.5732446 0.17038484 -0.08812965
-0.19573604 0.15314431 0.10616397 -0.40972188 0.34078896 0.09750956 -0.4966426 0.21743327
0.33841312 0.15792933 0.41804725 0.13910972 -0.4839917 -0.06570105 0.39949375 -0.21005347
0.23655392 0.16149773 -0.09512122 -0.024606064 0.21104723 -0.40743867 0.33088478 0.34052885
0.09631947 0.48139656 0.036043566 -0.50787467 0.05281872 -0.13582546 0.17073156 0.4521823
-0.23605022 0.108692065 0.57740617 -0.42220098 -0.089776024 0.43162665 0.45958757 0.23479876
-0.2926383 0.045867044 -0.5203129 -0.3166004 -0.5645526 0.5781749 0.377783 0.28378418
-0.17930765 0.4896042 -0.15562648 0.37770563
00000000: 5186 c43d 1ffd 363d 8031 c93c 38be 94bd
00000010: 7042 1dbe 0319 dabe b79b 0e3e 4c41 e8be
00000020: 6b17 ecbe 14e0 28be 47b1 b7be 66f3 f43d
00000030: 0de0 bc3e cddf dd3e 5b55 96be ac60 973e
00000040: 90af d53e e164 31bd 7e75 793e 6f10 953e
00000050: 1c8a f53e 2e8c 3e3e 8700 973e 155e d8bd
00000060: 6a2a 41be 2638 69be 1010 c13e 0cb2 87bd
00000070: bdc1 ec3d 5b58 1abf 9c96 8e3d 4bde 6bbe
00000080: 66df 67be 9d3d df3e 7dab ebbe 0d3b 47be
00000090: fc0c 9abd 7d38 f0be 6876 a13e c725 65be
000000a0: 032a 913e a437 e63e 5e47 b63e 0f0d 41be
000000b0: 7eaa 9b3e 28c0 123f 5d79 2e3e 517d b4bd
000000c0: 076f 48be ddd1 1c3e 7f6c d93d 11c7 d1be
000000d0: e47b ae3e 18b3 c73d f047 febe d4a6 5e3e
000000e0: 7c44 ad3e 3ab8 213e 4a0a d63e c772 0e3e
000000f0: c3cd f7be 468e 86bd 728a cc3e 4218 57be
00000100: 313b 723e a95f 253e eace c2bd a892 c9bc
00000110: c41c 583e cd9b d0be bb69 a93e cc59 ae3e
00000120: 2443 c53d 9c79 f63e 6ba2 133d 1304 02bf
00000130: 7158 583d d415 0bbe 41d4 2e3e 7084 e73e
00000140: 26b7 71be f299 de3d e4d0 133f ba2a d8be
00000150: 7edc b7bd 2bfe dc3e 104f eb3e 166f 703e
00000160: b0d4 95be 15df 3b3d 3a33 05bf 7319 a2be
00000170: 8586 10bf 4503 143f c66c c13e 294c 913e
00000180: 6d9c 37be 67ad fa3e 8c5c 1fbe a262 c13e

GRN_net.encoder.6.bias f4 [10]
0.0060074665 0.21308073 0.10996981 -0.058249816 0.2512306 0.012419835 0.22949448 0.089343116
0.22046196 0.19939807
00000000: 48da c43b d631 5a3e da37 e13d 5c97 6ebd
00000010: 4ca1 803e 907c 4b3c 9a00 6b3e 86f9 b63d
00000020: c8c0 613e 022f 4c3e

GRN_net.decoder.0.weight f4 [6, 10]
0.004037703 -0.37547395 -0.20350721 -0.24199694 -0.57981473 0.09126422 -0.1655813 0.20755911
0.4320616 -0.047383696 0.25077322 0.2097131 0.30580902 -0.26197517 -0.21613221 0.19141473
0.534148 -0.60539025 -0.42418262 0.085548244 0.5573189 0.26573175 -0.6017932 -0.46565405
0.55176866 -0.050529674 -0.5900664 -0.2719877 0.25070506 -0.12329424 -0.45669445 -0.3359093
-0.30668575 0.04405459 0.18987444 0.22722135 -0.2878832 -0.23071691 -0.4985654 0.47083265
0.79413223 0.5895618 0.2054328 -0.06813143 -0.14904808 0.18100202 -0.56862783 0.0110692065
-0.47877422 -0.54397404 0.064372 -0.03647111 -0.45531178 0.15846069 0.20321488 0.060208872
-0.39102402 -0.47485718 0.11864369 -0.21422108
00000000: b54e 843b 1f3e c0be 3264 50be 0cce 77be
00000010: bd6e 14bf bce8 ba3d 258e 29be 608a 543e
00000020: 2e37 dd3e 6815 42bd 5965 803e 08bf 563e
00000030: 0093 9c3e 9c21 86be c351 5dbe 3902 443e
00000040: ecbd 083f dbfa 1abf 772e d9be eb33 af3d
00000050: 74ac 0e3f fe0d 883e 1f0f 1abf 356a eebe
00000060: b640 0d3f 34f8 4ebd 970e 17bf f941 8bbe
00000070: 6a5c 803e b181 fcbd dbd3 e9be 4efc abbe
00000080: ea05 9dbe 9672 343d 726e 423e b7ac 683e
00000090: 6d65 93be 0e41 6cbe f743 ffbe fa10 f13e
000000a0: 404c 4b3f 86ed 163f fa5c 523e 7e88 8bbd
000000b0: 0fa0 18be 9858 393e 9891 11bf 9e5b 353c
000000c0: e521 f5be e241 0bbf 78d5 833d bb62 15bd
000000d0: a01e e9be 8543 223e 9017 503e 949d 763d
000000e0: 4d34 c8be 7b20 f3be 77fb f23d c55c 5bbe

GRN_net.decoder.0.bias f4 [6]
0.13391761 -0.3031851 0.17310862 0.091743916 -0.05394657 0.10671952
00000000: b321 093e 143b 9bbe 6343 313e 3ce4 bb3d
00000010: 14f7 5cbd c48f da3d

BRD_net.encoder.0.weight f4 [8, 7]
-0.2100639 0.3846359 0.14188834 0.5519795 0.06614487 -0.51508397 0.15212452 -0.43801507
0.7844514 -0.5421188 0.27074614 -0.6481893 0.5897687 0.5831241 0.40395254 0.35395592
0.21742877 -0.41166925 -0.39434078 0.028717997 -0.5877441 0.57602984 -0.3041975 0.4604442
0.1417118 0.37098145 -0.34726873 -0.6387415 0.38849625 -0.1253835 0.43683103 -0.51330906
0.20821351 -0.60808086 -0.22533545 0.0047412612 -0.19772439 -0.70739913 -0.2715733 0.22380805
0.76964015 -0.26764828 0.005808959 -0.8078678 -0.3769202 -0.34134918 -1.2971394 0.08045042
0.02247182 0.7092443 -0.4104109 0.78921825 0.723322 0.9019516 0.20872828 -0.39310613
00000000: fe1a 57be ffee c43e 2d4b 113e 874e 0d3f
00000010: f676 873d 8bdc 03bf 88c6 1b3e 8343 e0be
00000020: cfd1 483f 4cc8 0abf 3d9f 8a3e bcef 25bf
00000030: 15fb 163f 9f47 153f ded2 ce3e b639 b53e
00000040: a6a5 5e3e 50c6 d2be 09e7 c9be 0142 eb3c
00000050: 6676 16bf b176 133f c6bf 9bbe 58bf eb3e
00000060: e61c 113e 48f1 bd3e 35cd b1be 9084 23bf
00000070: fbe8 c63e 8864 00be 51a8 df3e 3968 03bf
00000080: ec35 553e 30ab 1bbf 56be 66be 955c 9b3b
00000090: 4378 4abe 1c18 35bf a80b 8bbe f02d 653e
000000a0: 2307 453f 3209 89be 1459 be3b 6dd0 4ebf
000000b0: affb c0be 52c5 aebe aa08 a6bf 31c3 a43d
000000c0: d216 b83c 0991 353f 6121 d2be 350a 4a3f
000000d0: a12b 393f 4de6 663f debc 553e 3545 c9be

BRD_net.encoder.0.bias f4 [8]
0.33298555 -0.21071123 -0.27738455 -0.34012935 0.2192275 -0.046217736 -0.059821527 -0.01149362
00000000: 157d aa3e afc4 57be 5905 8ebe 6f25 aebe
00000010: 2c7d 603e cf4e 3dbd 6b07 75bd bd4f 3cbc

BRD_net.encoder.2.weight f4 [8, 8]
-0.392286 -0.38476065 0.25652316 0.22145885 0.20069161 -0.4082339 -0.4070473 0.45452946
-0.30400616 -0.5081034 0.08225373 -0.13398294 -0.059001714 0.30741394 0.24487722 -0.55477816
-0.28136447 -0.22491802 0.57531315 0.3439691 0.28694984 0.6444762 0.30993813 -0.6858165
0.44517812 -0.18804607 -0.24400732 -0.30888188 0.3199017 -0.16866021 -0.4028969 -0.37711754
-0.15715477 0.53321975 0.5940744 0.48770195 0.13323417 -0.08844379 -0.108269684 -0.4157664
0.25947934 -0.4927825 0.14380433 0.35561353 0.55836654 -0.5585145 0.49910682 -0.35512894
-0.32558098 0.65906334 0.483478 -0.18970175 0.2868264 -0.51561683 0.5034052 0.49415526
-0.27259853 0.18274096 0.1741148 -0.31962672 -0.3275185 -0.048001494 -0.4628539 -0.57452345
00000000: b6d9 c8be 59ff c4be 0157 833e 1cc6 623e
00000010: 1a82 4d3e 0904 d1be 8168 d0be 16b8 e83e
00000020: b2a6 9bbe 1013 02bf a574 a83d d332 09be
00000030: c8ab 71bd 5c65 9d3e 18c1 7a3e f105 0ebf
00000040: 010f 90be e950 66be b947 133f b81c b03e
00000050: 17eb 923e 64fc 243f 36b0 9e3e ac91 2fbf
00000060: 63ee e33e 268f 40be 0edd 79be c425 9ebe
00000070: 28ca a33e 43b5 2cbe 8148 cebe 8d15 c1be
00000080: 2eed 20be 1781 083f 4315 183f 12b4 f93e
00000090: 8a6e 083e 0522 b5bd 7fbc ddbd 55df d4be
000000a0: 7ada 843e fd4d fcbe 7141 133e fa12 b63e
000000b0: 1cf1 0e3f cefa 0ebf ee8a ff3e 76d3 b5be
000000c0: 8db2 a6be 60b8 283f 6e8a f73e 2d41 42be
000000d0: e9da 923e 77ff 03bf 2adf 003f eb01 fd3e
000000e0: 0992 8bbe 7220 3b3e 264b 323e 1da6 a3be
000000f0: 81b0 a7be 379d 44bd 30fb ecbe f813 13bf

BRD_net.encoder.2.bias f4 [8]
0.0023601856 0.24632622 -0.019152075 -0.1387017 -0.09375216 0.41840205 0.13842049 -0.14627555
00000000: 58ad 1a3b f13c 7c3e d0e4 9cbc d207 0ebe
00000010: 2201 c0bd cb38 d63e 1abe 0d3e 42c9 15be

BRD_net.decoder.weight f4 [1, 8]
0.15617219 -0.42778072 -0.525772 -0.07451354 -0.59957916 0.84950066 -0.21022238 -0.5705461
00000000: 9aeb 1f3e 1306 dbbe fe98 06bf 8e9a 98bd
00000010: 057e 19bf e078 593f 8944 57be 4f0f 12bf
