example/Embryogenesis/Output/ckpt_itr2200.pth (torch, 8074 bytes, 15 tensors)

GRN_net.encoder.0.weight f4 [10, 6]
00000000: e797 01be c081 4fbe 58c6 093d c1aa e23d
00000010: cf79 a13e 9ca9 313e f355 903e 9cd2 843e
00000020: 0c88 563e a557 263d 6406 68bd fdc9 f53e
00000030: 7a58 073e 562a f73e e0e5 243f 4f93 3dbe
00000040: 9ddf 103f 0262 84bd 543d fc3e e4cc 333f
00000050: 32be ecbe c426 7f3d 6835 e4be cd4a c9be
00000060: db7b 4dbe aca5 7bbe 4b45 30be 782c 18bf
00000070: fd2e b1be f6eb e4bc fd64 9fbd 862b 943e
00000080: 697c be3e 21b9 973e c1c2 ed3e d6a5 0abf
00000090: b8ee 0c3f 56aa 41bf 05f9 b3bd c133 693e
000000a0: 42a3 9d3e e86e cfbe d263 90be e613 fdbe
000000b0: f555 8cbe 8493 51be c8f1 5d3f 81d0 e8bd
000000c0: e2f5 96bd 72c6 03bf 495f 563f 8840 84be
000000d0: f783 21bf 3c50 e63e 44be eabd e806 343f
000000e0: e795 17bf a4bc fabe 4db9 a9be 1424 953e
-0.12655602 -0.2026434 0.03363642 0.11067725 0.31538245 0.17349857 0.28190574 0.25941932
0.20950335 0.040610928 -0.05664672 0.48005667 0.13217345 0.48274487 0.6441326 -0.18513225
0.56591207 -0.06464006 0.4926554 0.70234513 -0.46238858 0.06229283 -0.44571996 -0.3931488
-0.20066778 -0.24574918 -0.17213933 -0.59442854 -0.34606162 -0.027944546 -0.07782934 0.28939456
0.37204292 0.2963343 0.46437648 -0.54159296 0.55051756 -0.75650537 -0.08787731 0.22773649
0.30788618 -0.40514302 -0.28201157 -0.49429244 -0.2740933 -0.20466429 0.86697054 -0.11367894
-0.07371117 -0.5147468 0.83739144 -0.25830483 -0.6309199 0.4498309 -0.114620715 0.7032304
-0.5921311 -0.48972046 -0.33149186 0.29129088

GRN_net.encoder.0.bias f4 [10]
00000000: 5127 a1be 45f6 ad3e 20cd a93e 5be8 913e
00000010: 9d65 8ebe 0eeb 25be f3cf a6bc 9a06 c13d
00000020: e7c1 8ebe d7d6 94be
-0.3147531 0.3397695 0.3316431 0.28497586 -0.278119 -0.16202947 -0.02036283 0.09425087
-0.2788231 -0.2907016

GRN_net.encoder.2.weight f4 [10, 10]
00000000: 2eff cabd a091 d6be 5171 523e 378c 3bbc
00000010: 78ea 363e fd3f 8fbe f539 ffbe f3da 923e
00000020: 11b8 c3be fa23 d83e 530a e03e e6ac e5be
00000030: a902 f1be d9d9 b63d a35b a6be cc58 663d
00000040: 078a 87be 54ab 40be 161f 05bf 3bfc c03e
00000050: f078 d9be 1ea9 bfbe 76da 48bd 13f2 cbbe
00000060: 8613 eebe 6b92 b23e 1c58 3cbe 28fc 723e
00000070: 4e44 b63e 50f2 c0be c50b ecbe a537 1fbe
00000080: 0301 b13e f87a 03bc d89c 61be ad5f bf3e
00000090: a254 0a3f 13d9 be3e 662e e6be 5a66 e3bd
000000a0: ae85 87be f77a d83e 9ca0 8cbe 5921 57be
000000b0: 6e61 043c bd5e d5bc fce3 c83e d47f 6a3d
000000c0: e480 e5be 18ad dc3e 8177 cb3e 18a2 953d
000000d0: f8aa efbe 0e00 7c3e 35cd cc3e 54cb 3c3e
000000e0: a2ee 44be c542 ad3d af64 b5be 11cd 0e3f
000000f0: c529 013f 7e9e ffbd 2ee4 eebe 2415 9b3e
00000100: 20f0 ae3e 8835 883e 62e4 b5be 3d16 543e
00000110: e92a 38be 1377 fbbe 7546 9bbe 4eab 573e
00000120: 812c 873e 3b84 09bf 0bfe 933e 1c1e 833e
00000130: 254a 003f 350b f33e 4010 0bbe d651 933e
00000140: de2b e83e 2a4d 293e 9cae cbbe fb95 1abe
00000150: 1e0d fe3e 655e a93e 8809 f53e e169 f8bd
00000160: 2352 30bc 47dd e0be a1ba 77be e543 b13e
00000170: e7ca 05bf 964a 8ebe 86cc e33d 5f52 8ebe
00000180: 1582 443d f1da 403d cced 8e3e 0713 c9be
-0.09911953 -0.41907978 0.2055104 -0.011447004 0.1786288 -0.27978507 -0.49848905 0.2868267
-0.3822637 0.42214948 0.43757877 -0.44858474 -0.47072342 0.0892827 -0.32491788 0.056237027
-0.26472494 -0.18815356 -0.5200056 0.37692437 -0.4247508 -0.37433714 -0.049036466 -0.39833125
-0.4649927 0.34877333 -0.18392986 0.23729002 0.35598987 -0.3768487 -0.4610273 -0.1554857
0.34571084 -0.0080249235 -0.22032487 0.37377682 0.5403539 0.3727499 -0.44957274 -0.111035064
-0.26469177 0.42281315 -0.27466285 -0.21008815 0.00807987 -0.026046151 0.39236438 0.057250813
-0.44824898 0.4310081 0.39739612 0.073063076 -0.46810126 0.24609396 0.4000031 0.18436939
-0.19231656 0.08460001 -0.35428378 0.55781657 0.5045436 -0.12481402 -0.46658462 0.30289567
0.34167576 0.2660334 -0.35525805 0.20711608 -0.17985119 -0.49114284 -0.30327192 0.21061441
0.2640114 -0.5371739 0.28904757 0.2560891 0.50113136 0.47469488 -0.13580418 0.28773373
0.45345968 0.16533342 -0.39781654 -0.15096276 0.49619383 0.3307983 0.47858834 -0.1212957
-0.01076177 -0.4391882 -0.24192287 0.34622112 -0.5226273 -0.2779128 0.11122994 -0.2779722
0.04797562 0.0470838 0.279158 -0.3927233

GRN_net.encoder.2.bias f4 [10]
00000000: ce70 b4bd 14bf 363d c5b5 993d b3ed cd3d
00000010: 2a48 a73e b059 773e 5746 203e 471d 563c
00000020: 961c 83be 8ff8 813e
-0.08810578 0.04461582 0.07505373 0.10055103 0.32672244 0.24155307 0.15651833 0.013068504
-0.25607747 0.25384948

GRN_net.encoder.4.weight f4 [10, 10]
00000000: bbc1 823c 2ac2 febe 5f3c 9c3e ff4e 033f
00000010: 2e2e 1ebe bc9c 6d3d 863d 89be d9fc eebe
00000020: 9086 95be c9b3 60be 8ea4 133e 908c f93c
00000030: e35b 113d a151 cbbe 1d13 b4be bd57 d2be
00000040: c058 bbbe 6673 ee3e 53e5 573e 0874 0dbf
00000050: 777b d3bd aae1 243d a27d c03e 427d 083f
00000060: 0923 b7bd 5b50 b93e fed5 05be 1559 8e3d
00000070: 316a 8cbe 8ef2 883d 126b f03e 6bd6 bf3e
00000080: 2105 ba3e 2d4c 74be 4209 70bd 7360 073e
00000090: 263c bd3e 666e 05bf c2a0 83be 5d35 e43c
000000a0: abe3 8abe 6a98 243e 3057 fdbc aff0 1dbe
000000b0: b47b 3a3e 269b c53e 02ec ff3e 2c9d 983e
000000c0: e776 683a 624f de3e 2942 f83e aea6 06bf
000000d0: e77b 8b3e be8f 333b 86fa a7be 901f cdbd
000000e0: c499 f8bd 5462 73be 5d42 37be 3e3a da3d
000000f0: 08dd 423e a8df 683d 9117 0dbf a969 9b3e
00000100: ca62 75bd 1dd9 db3e 943b 00bf bb58 03be
00000110: cd1e d83e e793 703e 936c 8bbe 81fe fbbe
00000120: 67d6 573d ad6b 2b3e 87d1 11bf a05c f1be
00000130: 244b 30bc c52a e5bd 53d2 be3e 8bc9 06bf
00000140: ba22 28be 148e d2be a653 d7bc 5a07 56be
00000150: 930f 2c3e bd40 09bf 1f3f ddbe 4c39 aebe
00000160: a9ed 05bf f988 f03e decc f4bd 749b babe
00000170: e642 2d3e 51ba c7bd 703b 6d3e 06ef 3ebe
00000180: 3687 09bf 1ea9 8a3e 4f3b e23e 100e 12bf
0.015961519 -0.4975751 0.3051481 0.51292413 -0.15447304 0.0580108 -0.2680475 -0.46677282
-0.29204226 -0.21943583 0.14418241 0.030462533 0.03548802 -0.39710715 -0.35170832 -0.41082564
-0.36591148 0.46572417 0.21083574 -0.55255175 -0.103262834 0.040254273 0.3759585 0.5331613
-0.08942229 0.3619412 -0.13069913 0.06950585 -0.27424768 0.06686889 0.46956688 0.37468275
0.36332038 -0.23857184 -0.05860258 0.13220386 0.36959952 -0.5212158 -0.25708586 0.027857477
-0.27126822 0.16073766 -0.030925363 -0.15423845 0.18211251 0.3859493 0.49984747 0.29807413
0.00088678155 0.4341994 0.48487976 -0.52598083 0.27242967 0.002739891 -0.32808322 -0.10015786
-0.121387035 -0.23767978 -0.1789641 0.1065564 0.19029629 0.05685392 -0.55114084 0.3035405
-0.059908666 0.42939082 -0.5009091 -0.12826817 0.42211 0.2349392 -0.27231273 -0.4921761
0.052694704 0.16740294 -0.5696034 -0.4714098 -0.010760102 -0.11189798 0.3726984 -0.5265128
-0.16419497 -0.41124022 -0.026285004 -0.20901242 0.16802816 -0.5361441 -0.4321222 -0.3402809
-0.52315766 0.46979502 -0.11953138 -0.36446726 0.16920051 -0.09752334 0.23167205 -0.18645868
-0.5372194 0.2708215 0.44185874 -0.5705271

GRN_net.encoder.4.bias f4 [10]
00000000: 546b 28bc fc25 163d bd1b 913e 6f77 b23d
00000010: 39b7 2ebe 071b 41be 8124 87be efb0 873e
00000020: 854e 283d d866 aa3d
-0.010279495 0.03665732 0.28341475 0.087141864 -0.17062081 -0.18857966 -0.26395038 0.26502177
0.041090507 0.08320397

GRN_net.encoder.6.weight f4 [10, 10]
00000000: e3c0 a63d 5e6e 2d3d ff41 af3c 835c 7bbd
00000010: cdf3 17be bb1a d6be 971e 0f3e 78f0 eebe
00000020: 183d ebbe f8ff 2dbe 7a0f b8be 2b79 f23d
00000030: d82d bc3e 8f9c de3e 298a 94be 618f a03e
00000040: 5546 d33e cf48 1fbd f3ae 7c3e ca0f 923e
00000050: 9cb1 fa3e b7ca 3d3e d99b 963e bfb2 d9bd
00000060: fc39 6cbe 8f7b 64be 97a8 c13e 5a46 81bd
00000070: bd79 013e 8771 1abf 5380 753d e225 6cbe
00000080: 9230 70be 7d75 e13e b83e ebbe 6770 49be
00000090: 2b27 85bd 79c4 f3be e3e7 973e 99ac 74be
000000a0: af5a 8d3e d393 e73e e796 b63e aa5f 12be
000000b0: 0942 9e3e f728 133f af6b 293e 06a8 afbd
000000c0: 2246 4cbe 65bc 1c3e 9453 df3d 9c0b d1be
000000d0: 19d7 ae3e 9365 c53d 049b ffbe 985a 5c3e
000000e0: 3d00 ad3e cf5c 223e bf18 d63e 7ce4 153e
000000f0: 43f3 ecbe f4bd 82bd 3956 cd3e 2b7f 59be
00000100: efef 4c3e 8047 2b3e 031a cabd e17a 90bc
00000110: 19b3 5e3e 9df0 cebe 742e ab3e 86f9 ab3e
00000120: 73ea f53d 71dd f53e 871f 093d 07c1 04bf
00000130: 4f0c 5e3d 962d 0bbe 34ac 303e a5ff e63e
00000140: b2f4 78be 712a db3d 2bd2 133f 5ff1 d7be
00000150: 73c2 b0bd 4e2e cc3e aba2 fb3e 85bf 6d3e
00000160: 1b31 98be 975e 353d 0617 02bf 37e0 99be
00000170: f8fd 0ebf 06e4 0c3f c23f be3e cf6d 8d3e
00000180: 94c2 40be 1957 fe3e bad8 1fbe d3e2 c43e
0.08142259 0.042341582 0.021393774 -0.061367523 -0.14839096 -0.4181727 0.13976513 -0.46667838
-0.45945048 -0.16992176 -0.35949308 0.11839517 0.36753726 0.4347882 -0.29011658 0.3135939
0.41264597 -0.038887795 0.24676113 0.2852767 0.4896363 0.18534361 0.29415777 -0.10629796
-0.23068994 -0.22312759 0.37823936 -0.063122466 0.12644096 -0.6032948 0.059936833 -0.23061326
-0.23456028 0.4403495 -0.45946288 -0.19671784 -0.06501611 -0.47610834 0.29669103 -0.23893966
0.2760825 0.45229968 0.35662004 -0.14294305 0.30909756 0.5748438 0.16544984 -0.0857697
-0.19948629 0.15306242 0.10904613 -0.4082917 0.3414848 0.09638514 -0.49922955 0.21518934
0.33789244 0.15855716 0.41815755 0.14637941 -0.46279344 -0.06383887 0.40104845 -0.21239917
0.20013402 0.16726494 -0.098682426 -0.017636718 0.21748008 -0.40417948 0.33433878 0.3358881
0.12007608 0.4802051 0.033477332 -0.51857036 0.054210957 -0.13591608 0.1725319 0.45116916
-0.24312094 0.107014544 0.57742566 -0.4217634 -0.08630838 0.39879078 0.49147543 0.2321759
-0.29724964 0.04427966 -0.5081638 -0.30053875 -0.55856276 0.55035436 0.37158018 0.2762284
-0.18824226 0.49675825 -0.15610018 0.38454303

GRN_net.encoder.6.bias f4 [10]
00000000: d541 ad3b 3378 5b3e 23fd e03d 14f9 b5bd
00000010: 61b8 803e 6147 593c 4e31 6b3e 5747 b93d
00000020: bc78 5e3e 1e53 4e3e
0.005287389 0.21432571 0.10985782 -0.088853985 0.2514067 0.013261647 0.22968027 0.0904681
0.21725744 0.20148894

GRN_net.decoder.0.weight f4 [6, 10]
00000000: 5181 103c 0998 c0be 486e 48be 82fc 76be
00000010: 4154 15bf a978 c53d 5d07 2abe fdb3 563e
00000020: ef77 df3e 624b 7dbd 2b92 7d3e c306 573e
00000030: 7430 873e 0548 87be 8108 52be 84e5 473e
00000040: eda5 083f 2bfa 1abf 4b99 d7be 392a bf3d
00000050: b7bb 0b3f af2e 853e d3d8 1dbf b633 f3be
00000060: 1467 123f c47d 24bd f2a3 15bf 876f 89be
00000070: 8b69 813e 0561 f9bd d881 e9be 87f5 acbe
00000080: 6199 9dbe 9fb4 243d 61c9 493e 46ac 683e
00000090: 3d7c 94be 2429 65be 5270 fdbe df82 e83e
000000a0: 79c9 473f 7900 183f 298b 5f3e 0791 81bd
000000b0: 22c7 26be 316a 953e 3a19 03bf c198 8b3b
000000c0: acaf f6be 0d5b 0bbf b132 913d 41da 1fbd
000000d0: 8fe4 eabe 79ef 303e 7426 433e 429c 563d
000000e0: 9039 c9be 6660 f4be a522 903d 74a7 54be
0.008819894 -0.37615994 -0.19573319 -0.24119762 -0.58331686 0.09642155 -0.16604371 0.20967098
0.4364619 -0.06183947 0.2476279 0.20998673 0.26404154 -0.26422134 -0.20511056 0.19521147
0.5337818 -0.60537976 -0.4210914 0.09334225 0.54583305 0.2601218 -0.6165897 -0.4750039
0.57188535 -0.040159002 -0.58453286 -0.268429 0.25275835 -0.12176708 -0.45606875 -0.33781072
-0.3078108 0.040211316 0.19705726 0.22721967 -0.29001036 -0.22378975 -0.49499756 0.45412347
0.780418 0.5937572 0.21830429 -0.0632649 -0.162869 0.2918258 -0.5121037 0.004260153
-0.48180902 -0.5443581 0.07089747 -0.039026503 -0.458775 0.17278852 0.19057637 0.052395113
-0.3930173 -0.47729796 0.07037858 -0.20767003

GRN_net.decoder.0.bias f4 [6]
00000000: ebd0 0a3e 52b8 9abe eb6e 353e 2225 c23d
00000010: 86ff 46bd c516 d53d
0.13556258 -0.3021875 0.17718093 0.09479739 -0.04858353 0.104047336

BRD_net.encoder.0.weight f4 [8, 7]
00000000: 41e3 52be 94cf c63e 242a 133e 9bc2 0d3f
00000010: 3b97 853d 0820 02bf 82b3 1b3e eeff e3be
00000020: 34a6 4b3f 8fcd 0abf 739b 893e e1df 24bf
00000030: d5df 153f 1379 153f 3dd3 cc3e 2cd0 b13e
00000040: d92c 5b3e 6947 d4be b380 cdbe e48e c33c
00000050: 2b7a 16bf f6ec 113f 7b1b a6be 6feb ee3e
00000060: 2057 193e 36f9 cb3e e5e3 aebe 19e6 24bf
00000070: 7257 c93e 2b57 22be ff25 e13e 243a 02bf
00000080: f67a 5c3e aaa5 1abf 283d 68be 1637 f5b9
00000090: 6783 4dbe 295e 36bf f967 8dbe d035 663e
000000a0: 2360 423f ecf7 88be 0878 bd3b 0ca7 50bf
000000b0: 48ea bebe 8f71 a9be 1a73 a0bf 93d0 b63d
000000c0: 4b1a 913c 21e1 373f c48f cfbe 9d63 4a3f
000000d0: 4a04 393f 8f32 653f e0b8 5f3e 4baa c8be
-0.20594503 0.38830245 0.14371544 0.5537507 0.065229855 -0.50830126 0.15205196 -0.44531196
0.7955048 -0.5421991 0.2687641 -0.6440411 0.58544666 0.5838787 0.40004912 0.34729135
0.21403827 -0.41460732 -0.40137252 0.023871846 -0.58780164 0.570022 -0.3244284 0.46663997
0.14974642 0.3983857 -0.34158245 -0.644136 0.39324528 -0.15853564 0.439743 -0.50869966
0.21531281 -0.60409033 -0.2267958 -0.00046771084 -0.20069657 -0.71237427 -0.27618387 0.22481465
0.75927943 -0.2675165 0.005782131 -0.81504893 -0.37288117 -0.3309445 -1.2535126 0.08926501
0.017712733 0.71827894 -0.40539372 0.7905825 0.7227217 0.8953027 0.21847868 -0.39192423

BRD_net.encoder.0.bias f4 [8]
00000000: f1a9 ac3e d115 5cbe ac23 90be 7fbd adbe
00000010: e0f9 633e c136 54bd e03d 6dbd c3a5 7abb
0.33723405 -0.21492697 -0.28152215 -0.33933637 0.22263288 -0.05181003 -0.057920337 -0.0038245774

BRD_net.encoder.2.weight f4 [8, 8]
00000000: 3f26 c9be 4743 cbbe 9b2a 863e 3de1 753e
00000010: 1bd4 553e 8daa d0be f689 d0be ec36 ec3e
00000020: e7af 97be d306 00bf 5ab0 913d 7dbf 11be
00000030: 8004 87bd e19b 9d3e a9b9 7c3e c6dd 0fbf
00000040: 4154 74be 0d3a 60be a873 113f a53d ad3e
00000050: 2a3c 903e defd 243f 2f4a 9f3e 3d25 31bf
00000060: e5d7 e33e f5bd 38be 5d7a 81be 803a a2be
00000070: 4597 a03e d21f 2bbe 4db2 ccbe e77a c4be
00000080: 4278 0bbe b2ae 0a3f 9c02 153f 6116 f53e
00000090: 1c4c 003e 49a9 b3bd 7928 d9bd ccd5 d8be
000000a0: 6cde 843e f5ff 00bf 2403 3f3e 19cf bc3e
000000b0: acd7 103f 73e5 0ebf 0292 fe3e 2b16 b2be
000000c0: 46ea a5be f987 2a3f 8bdf f13e dc04 4abe
000000d0: 77d7 8f3e 52cd 03bf 4065 013f 1ef8 f93e
000000e0: fad6 8abe e1d7 443e b6ff 163e 3734 a9be
000000f0: a76f abbe ed53 45bd a839 ecbe 87e2 14bf
-0.39286992 -0.39699766 0.2620438 0.24011703 0.20881693 -0.4075512 -0.40730256 0.46135652
-0.2962639 -0.5001041 0.071137145 -0.14233203 -0.06592655 0.3078299 0.24680199 -0.56197774
-0.23860265 -0.21897145 0.568171 0.33836094 0.28170902 0.6444987 0.31111285 -0.69197446
0.44500652 -0.18041213 -0.25288668 -0.31685257 0.3136541 -0.16711357 -0.39979783 -0.38375017
-0.13620093 0.54172814 0.58207107 0.47868636 0.12529033 -0.08772523 -0.10603423 -0.42350614
0.25950944 -0.5039056 0.18653542 0.36876753 0.5657909 -0.5581886 0.4972077 -0.34782538
-0.324053 0.6661373 0.47240862 -0.19728416 0.28094074 -0.5148517 0.5054512 0.4882211
-0.2711714 0.19222976 0.14745983 -0.3304765 -0.3348362 -0.04817574 -0.46137738 -0.58158153

BRD_net.encoder.2.bias f4 [8]
00000000: aa94 063c b214 753e e641 d1bc 4693 14be
00000010: bb6f cfbd ca7d d93e 20f8 073e 7a56 1cbe
0.008214155 0.23933676 -0.025544118 -0.14509305 -0.10128733 0.42478782 0.13278246 -0.15267363

BRD_net.decoder.weight f4 [1, 8]
00000000: 3d17 283e fdff dabe 87f0 05bf f20d edbd
00000010: 59a4 1abf ca83 5b3f 14ad 4cbe 682c 14bf
0.16415115 -0.4277343 -0.5232014 -0.115749255 -0.60407025 0.8574797 -0.19987899 -0.5788026
