example/Embryogenesis/Output/ckpt_itr800.pth (torch, 8054 bytes, 15 tensors)

GRN_net.encoder.0.weight f4 [10, 6]
000000 ef f8 a8 bd 30 3b 89 be 0d f2 81 3d c2 b4 25 3e
       -0.08250605 -0.2680297 0.06344996 0.16182235
000010 d8 27 b5 3e 7b af 21 3e 98 5e 71 3e cc 20 98 3e
       0.3538196 0.15789597 0.23571241 0.29712522
000020 47 2d 69 3e f9 78 b5 3c 4c 17 31 be 2d 34 f1 3e
       0.22771178 0.02215241 -0.17294043 0.4711012
000030 e7 9b b3 3d 56 b4 06 3f 92 d9 1d 3f 33 73 29 be
       0.087699704 0.5261892 0.6166011 -0.16547851
000040 a6 4d 04 3f b8 f7 3c bd 08 9f 05 3f 4f 3c 2b 3f
       0.5168098 -0.04613468 0.5219579 0.668889
000050 e9 81 dd be a5 d9 89 3d c7 1d cd be 45 68 aa be
       -0.43263176 0.067309655 -0.4006178 -0.33282676
000060 9c f9 15 be e0 ba 23 be db d5 24 be 59 43 11 bf
       -0.14646 -0.15989256 -0.16097204 -0.5674339
000070 d7 24 b1 be 01 52 34 bd 8b cb f9 bd d2 dc a3 3e
       -0.3459842 -0.044023518 -0.12197026 0.3200441
000080 a0 cd c2 3e 57 d4 a1 3e 2d 54 f4 3e 28 4d 0f bf
       0.38047504 0.31607315 0.4772047 -0.55977106
000090 56 d1 eb 3e 40 bd 37 bf 3f bc be bd 75 78 01 bf
       0.46058148 -0.7177315 -0.09313249 -0.5057443
0000a0 1c 55 86 3e 75 b2 d0 be b9 64 b4 be 3b 25 b6 be
       0.26236808 -0.40761152 -0.35233095 -0.3557528
0000b0 8d 5a b1 be 29 3a a8 be 99 c5 3f 3f 76 f5 fb bd
       -0.34639397 -0.32856873 0.74910885 -0.12302677
0000c0 32 69 2f 3e 6d f9 e9 be bb b8 4d 3f 36 8c 7b be
       0.17129973 -0.4569811 0.8036 -0.24565205
0000d0 57 95 1c bf 78 34 d8 3e c2 3f e7 bd 53 3c 30 3f
       -0.61165375 0.4222753 -0.11291458 0.6884205
0000e0 ff eb 08 bf 4d 79 e7 be 8a 11 ba be 3c 24 9e 3e
       -0.534851 -0.45209733 -0.36341506 0.3088702

GRN_net.encoder.0.bias f4 [10]
000000 e5 8f 8b be 3a 6b 86 3e e1 0c 82 3e 0f 37 a4 3e
       -0.2725822 0.26253682 0.2540045 0.32073256
000010 48 03 84 be 56 48 0d be f4 9a a1 bd 65 e5 86 3b
       -0.25783753 -0.13797125 -0.07890883 0.0041167014
000020 af 03 9e be d9 e7 8a be
       -0.30862185 -0.2713001

GRN_net.encoder.2.weight f4 [10, 10]
000000 f3 5c eb bd 4c c7 ce be 66 b1 1a 3e 1a 93 00 3d
       -0.11492338 -0.40386426 0.15106735 0.031390287
000010 e1 d1 24 3e 24 da 98 be 52 74 f1 be bf db 7e 3e
       0.16095687 -0.29853928 -0.47159058 0.24888514
000020 69 ce ad be 13 5b cf 3e 36 3c dc 3e 4a 3e d5 be
       -0.3394654 0.40499172 0.43014687 -0.41649085
000030 39 74 a0 be 01 49 cc 3d 37 50 03 bf 0f 80 82 3d
       -0.3133867 0.09974862 -0.51294273 0.063720815
000040 eb f3 50 be ef 8b 42 be 14 e8 00 bf cc c3 83 3e
       -0.20405547 -0.18998693 -0.50354123 0.2573532
000050 ac 59 cf be f1 f6 cf be 51 9a b9 bd 1c b0 6e be
       -0.40498102 -0.4061809 -0.09062637 -0.23309368
000060 07 7a fc be b5 6f a6 3e 18 60 44 be 5f 87 88 3e
       -0.4931185 0.325071 -0.19177282 0.2666578
000070 9b ac ad 3e b8 4b 9f be 83 30 87 be 76 7f 5b be
       0.3392075 -0.31112456 -0.264042 -0.21435341
000080 e6 3d 9e 3e a5 08 a5 bd e7 fd 3e be 54 65 b9 3e
       0.309066 -0.080582894 -0.18651544 0.3621012
000090 ff c9 fb 3e 4b f5 ee 3e 6f 39 e3 be 87 72 95 bd
       0.49177548 0.4667152 -0.44379756 -0.07297235
0000a0 50 f9 1c be 27 76 c7 3e 03 58 a3 be 7a 4b 97 be
       -0.1532948 0.3895733 -0.31903085 -0.29549772
0000b0 99 25 16 3d 4d a4 95 bd 2b 88 a5 3e 56 e2 b4 3d
       0.03665695 -0.073067285 0.3233045 0.08832233
0000c0 6a 10 d7 be ef f2 e6 3e 73 45 c0 3e 79 61 c0 3d
       -0.4200471 0.4510722 0.37552986 0.093935914
0000d0 d7 6b 05 bf b8 35 8f 3e 7c 29 bd 3e 46 5e 26 3e
       -0.52117676 0.27970672 0.36945713 0.162469
0000e0 28 f9 65 be 69 71 75 3d 25 b1 ac be 7b 4a 08 3f
       -0.22458327 0.05992261 -0.337289 0.5323865
0000f0 ae b8 01 3f 52 08 05 be c0 9d e4 be 8f a6 b2 3e
       0.50672424 -0.12991455 -0.44651604 0.348927
000100 85 57 9e 3e 99 1a 90 3e eb eb a8 be 18 81 5d 3e
       0.30926147 0.28145292 -0.3299249 0.21631277
000110 c8 4a 72 be bc cc 02 bf 43 77 b0 be 90 18 6b 3e
       -0.2366134 -0.5109365 -0.3446599 0.22958589
000120 3c b2 64 3e f6 f0 fe be e0 75 89 3e 7c fa 91 3e
       0.22333616 -0.49793214 0.26847744 0.28511417
000130 24 60 ea 3e 71 3f da 3e 14 13 01 3d c2 15 92 3e
       0.45776474 0.42626527 0.031512335 0.28532225
000140 ae 9a ec 3e 6c f9 73 3e 7f d9 b8 be b7 3a 1b be
       0.4621176 0.23825616 -0.36103436 -0.15159117
000150 d2 0e ef 3e 6f 69 b6 3e 71 17 db 3e 69 ca 1e be
       0.46690995 0.35627314 0.42791322 -0.15506901
000160 1e 09 c7 bc 10 06 f4 be 75 16 87 be 06 24 af 3e
       -0.02429634 -0.47660875 -0.2638432 0.3420717
000170 5e 50 03 bf f8 2d 5c be 57 9d 1d 3e 6c 2e a5 be
       -0.51294506 -0.2150191 0.15392052 -0.3226198
000180 2a cd a0 3d 98 b3 7b 3c 2a a8 8f 3e c9 58 ce be
       0.07851632 0.015362643 0.28057986 -0.40302113

GRN_net.encoder.2.bias f4 [10]
000000 5e b8 93 bd c2 4e d7 3d 7c f4 2e 3d a4 12 7e 3d
       -0.072128996 0.10513069 0.042713627 0.062029496
000010 b2 54 9a 3e a1 11 8b 3e 38 da 47 3e 3c f4 3e 3c
       0.30142742 0.27161887 0.19516838 0.01165491
000020 5d de 5d be d1 b0 5f 3e
       -0.21666856 0.21844794

GRN_net.encoder.4.weight f4 [10, 10]
000000 2d d8 1c 3d df bb 00 bf d4 50 9c 3e e1 23 fa 3e
       0.0382921 -0.5028667 0.30530417 0.48855498
000010 4e bc 09 be 3e 1a 9a 3d f9 40 97 be 4f bc ca be
       -0.13450739 0.075245366 -0.29541758 -0.39596793
000020 5d 61 99 be 45 45 61 be b9 4e a3 3d 00 a0 a9 bd
       -0.29957095 -0.2199908 0.079739995 -0.08282471
000030 1a 31 ba 3c 80 05 d4 be 33 05 bb be b2 e5 fa be
       0.022728492 -0.41410446 -0.36527404 -0.4900337
000040 7c 5e d0 be c7 14 e7 3e b2 d1 40 3e 4b e5 06 bf
       -0.40697086 0.4513304 0.18829992 -0.52693623
000050 94 55 91 bd 85 46 ac 3d f8 c9 a8 3e 52 18 03 3f
       -0.07096401 0.08411888 0.3296659 0.51208985
000060 eb f0 fb 3d 01 ae c8 3e b3 4a 14 be f6 8a 41 3d
       0.12301811 0.39195254 -0.1448162 0.047251664
000070 a8 ad 9d be 6f 00 b0 3d d4 be f9 3e 04 0a c2 3e
       -0.30796552 0.08593833 0.48778403 0.37898266
000080 08 51 b5 3e 87 c8 51 be 62 d7 e5 bc 5b 92 18 3e
       0.35413384 -0.20486651 -0.028056804 0.1489958
000090 db 76 c8 3e 16 de f9 be 85 2d 6f be 58 ea 0a 3d
       0.3915318 -0.4880225 -0.23357208 0.033914894
0000a0 ea 84 97 be 33 1c 48 3e e7 c0 e2 bc 2e 62 00 be
       -0.29593593 0.19542007 -0.027679874 -0.12537453
0000b0 21 7e 4e 3e 75 d0 c8 3e f9 13 05 3f dc 70 8b 3e
       0.20165302 0.3922154 0.519836 0.27234542
0000c0 7d 67 64 3c 31 44 d2 3e a8 3d ef 3e ca 37 91 be
       0.013940689 0.4106765 0.46726727 -0.28362876
0000d0 04 2f 82 3e 14 49 c9 3c 15 dc b2 be 17 8e e0 bd
       0.25426495 0.02457098 -0.34933534 -0.109646015
0000e0 29 be cf bd a3 af 95 be e8 a7 33 be ec 67 e6 3d
       -0.10143692 -0.29235563 -0.1754452 0.1125029
0000f0 cb f6 c6 3e 6e f1 3a 3d ef 02 0c bf 93 36 91 3e
       0.38860163 0.0456404 -0.54691976 0.2836195
000100 a8 03 08 be 0a 06 ef 3e ed 0a 04 bf 3d 09 0d be
       -0.13282645 0.46684295 -0.5157917 -0.13773055
000110 e2 0b d0 3e 3b ec 7f 3e aa 7a 80 be 6a ee ef be
       0.40634066 0.24992459 -0.25093585 -0.46861583
000120 41 0d 80 3d 5d ea 4f 3e 7a bf 0c bf da 75 e7 be
       0.06252528 0.20304246 -0.5497967 -0.452071
000130 7f a3 e0 3b db 2a b1 bd 27 13 c6 3e 48 1f 0d bf
       0.0068554278 -0.08650752 0.38686487 -0.55125856
000140 be 73 0e be 70 38 e9 be 1e b8 75 bd f6 f2 23 be
       -0.1391134 -0.4555087 -0.05999004 -0.16010651
000150 bf 7a 5b 3e c3 9e 02 bf f7 e4 ee be 37 1d 9d be
       0.21433543 -0.510235 -0.4665906 -0.30686352
000160 25 db ff be e2 40 e5 3e 91 26 a9 bd 7c 3b b0 be
       -0.49971882 0.44776064 -0.08259309 -0.34420383
000170 c6 61 83 3e 66 70 a6 bd f1 b6 80 3e 16 5a 1a be
       0.25660533 -0.08126907 0.25139573 -0.15073428
000180 2b 53 04 bf a8 a7 6d 3e 87 45 bd 3e e9 0e 17 bf
       -0.51689404 0.23208487 0.36967108 -0.59007126

GRN_net.encoder.4.bias f4 [10]
000000 ce 33 07 bd 48 54 d2 3d b8 88 80 3e 01 d2 91 3d
       -0.03300839 0.102699816 0.25104308 0.07120133
000010 d0 f9 07 be 81 f6 2e be c3 55 87 be 25 07 7b 3e
       -0.1327889 -0.17086221 -0.26432618 0.24514444
000020 86 6a 5d 3c 7a 5c 49 3d
       0.013514167 0.04916046

GRN_net.encoder.6.weight f4 [10, 10]
000000 3c 83 15 3d e7 1f dd 3d f7 14 99 3b 98 fd 18 bc
       0.036502108 0.107971005 0.0046716887 -0.009337805
000010 38 13 37 be ac c6 c6 be 86 49 b9 3d 1e 9f c9 be
       -0.17878425 -0.3882345 0.090472266 -0.3937921
000020 3b d5 de be 1e 29 48 be 1e d1 c9 be a0 14 25 3e
       -0.43522057 -0.19546935 -0.39417356 0.16121149
000030 5a 4f b3 3e c4 47 ce 3e bc 0f a5 be 59 9c 9c 3e
       0.35021478 0.40289128 -0.32238567 0.30588034
000040 d9 81 bd 3e 12 ab 1a ba 59 05 8a 3e 8b fe 84 3e
       0.37013128 -0.0005900125 0.26957205 0.2597545
000050 4b 79 f7 3e 5c 87 5b 3e 65 03 8c 3e cf 3b 2d be
       0.48334727 0.21438354 0.2734634 -0.16917346
000060 78 dc 9f be cb b6 5d be 34 d4 ce 3e 8b 5a 97 bd
       -0.31222892 -0.21651761 0.40396273 -0.073903166
000070 1a e2 c9 3d 1a 2b 10 bf 88 3a 02 bd b2 1a 7c be
       0.098575786 -0.5631577 -0.0317941 -0.24619558
000080 91 f3 76 be b5 53 d4 3e 22 38 cc be c7 c7 58 be
       -0.2411635 0.41470113 -0.39886576 -0.21169959
000090 0d db 68 bc 1d 5f 08 bf 5d 0b 97 3e f2 78 5e be
       -0.014212382 -0.5327013 0.29500857 -0.21725824
0000a0 40 d0 5c 3e 82 5b d3 3e ce ab c0 3e 5e 0e a0 3d
       0.21563816 0.41280752 0.37631077 0.0781524
0000b0 8b f7 b0 3e bb 54 0b 3f 76 60 22 3e fa d1 9b bd
       0.3456386 0.54426163 0.1585711 -0.07608409
0000c0 fc 87 3c be af 8d dc 3d 2f 86 d9 3d 2d 35 e5 be
       -0.18411249 0.107692115 0.106212966 -0.44767132
0000d0 a0 46 c0 3e c2 50 12 3e d9 e1 ef be c4 3b 40 3e
       0.37553883 0.14288619 -0.46851996 0.18772799
0000e0 6c 63 c0 3e 9b 89 f1 3d 1a 1d c4 3e 98 aa b3 3d
       0.37575853 0.11793824 0.38303453 0.087727726
0000f0 51 e6 de be 22 0c 3c bd 5f b2 bd 3e 74 81 83 be
       -0.43535092 -0.04591001 0.3705015 -0.25684702
000100 d5 ce 40 3e 14 79 29 3e 01 27 3f bd 6a 75 1d 3c
       0.188289 0.16550094 -0.046668056 0.009610513
000110 1d 26 3c 3e 04 70 c1 be f7 6f a7 3e 2d f9 a9 3e
       0.18373914 -0.37780774 0.3270261 0.3319792
000120 50 b2 c0 3e 93 27 fa 3e 19 e1 3d 3d eb 0e 05 bf
       0.37636042 0.48858318 0.046357248 -0.5197589
000130 8e df 8b 3d b8 4f 1d be 6f 3b 28 3e 68 9d f0 3e
       0.06829749 -0.15362442 0.16428922 0.4699509
000140 16 f2 91 be 1f 47 b9 3d 24 59 19 3f 63 36 cb be
       -0.2850501 0.090467684 0.5990164 -0.3968993
000150 d4 75 75 bd 03 da e5 3e 83 31 bd 3e ea 7f 40 3e
       -0.059926823 0.44892892 0.36951837 0.18798795
000160 18 95 a4 be d7 6f c8 3c 72 f0 e9 be e7 7f ef be
       -0.32145 0.024467392 -0.45691258 -0.4677727
000170 9e aa 06 bf 6a e0 00 3f e2 20 cb 3e af af 74 3e
       -0.5260409 0.5034243 0.39673525 0.23895143
000180 9f a8 08 be 1c 6a 05 3f 2b ee 37 be c6 ba cf 3e
       -0.13345574 0.52115035 -0.17961948 0.40572184

GRN_net.encoder.6.bias f4 [10]
000000 06 b4 0f 3d 43 94 7e 3e 11 52 ac 3d 03 6f 06 be
       0.035083793 0.24861245 0.084140904 -0.13128285
000010 9c cf 8a 3e c6 55 b7 bc bc 9c 4e 3e ba 6f 9f 3d
       0.27111518 -0.022379767 0.20176977 0.07784982
000020 20 80 87 3e f7 51 33 3e
       0.2646494 0.17511736

GRN_net.decoder.0.weight f4 [6, 10]
000000 50 92 74 3c 7a 29 a5 be 73 a2 39 be b8 ee 51 be
       0.014927462 -0.32258207 -0.18128376 -0.2050122
000010 36 91 05 bf 23 77 29 3e 63 81 4b be 1c db 80 3e
       -0.521747 0.16549353 -0.19873576 0.25167167
000020 06 8c ce 3e af bb 9e bd 17 55 71 3e 67 4d 44 3e
       0.40341204 -0.077506416 0.23567615 0.19170152
000030 d0 72 bf 3e a2 66 95 be 43 e4 5b be 19 00 3a be
       0.37392282 -0.29179865 -0.21473794 -0.181641
000040 d1 8f fe 3e 09 e1 2b bf d0 10 d1 be bf fc 94 3d
       0.49719098 -0.6714025 -0.4083314 0.0727477
000050 7b ce 06 3f 9d c8 a4 3e 67 14 1f bf c6 df d8 be
       0.52658814 0.32184306 -0.62140507 -0.42358226
000060 83 a6 0f 3f cd f5 85 3c 83 a2 0e bf 91 8d 62 be
       0.5611345 0.016352559 -0.55716723 -0.22124316
000070 54 56 6c 3e fb d3 c6 bd d9 ac e6 be 88 ff b7 be
       0.23079807 -0.09708401 -0.45053747 -0.35937142
000080 dd e5 99 be e3 3d 8b 3c b2 f9 50 3e dd f8 8d 3e
       -0.30058184 0.016997283 0.20407751 0.2772893
000090 f3 92 a0 be 93 f9 4c be be 1c f2 be 55 aa ed 3e
       -0.31362113 -0.2001708 -0.47287554 0.46419016
0000a0 6d 5b 19 3f b1 c3 1c 3f ad 72 66 3e ab d5 70 bd
       0.5990513 0.612361 0.22504683 -0.05879752
0000b0 a1 ff e5 bd e1 88 6d 3e 7a fb fe be 3f 7c 94 3c
       -0.11230398 0.23196746 -0.49801236 0.018125651
0000c0 6b 1a 00 bf f9 76 14 bf 82 83 6a 3d 2a c4 9d bc
       -0.5004031 -0.5799404 0.057254322 -0.019258577
0000d0 75 2a e9 be e1 eb 53 3e da 2e 24 3e 58 23 49 3d
       -0.45540205 0.2069545 0.16033497 0.049105972
0000e0 55 01 bf be 3a d8 01 bf 82 97 19 bd 41 3d 43 be
       -0.37305704 -0.5072056 -0.037498005 -0.19066335

GRN_net.decoder.0.bias f4 [6]
000000 7a fa f6 3d 22 a9 9a be b1 87 56 3e 4a 2a 92 3d
       0.12059493 -0.30207163 0.209502 0.07136972
000010 33 a5 0d bd 02 2b f2 3d
       -0.034581374 0.11824609

BRD_net.encoder.0.weight f4 [8, 7]
000000 0c 0b 40 be 96 d9 c7 3e fc b1 33 3e 4a 5a 1e 3f
       -0.18754214 0.39033192 0.17548364 0.6185652
000010 f7 64 61 3c 2a 56 f5 be 72 62 27 3e 58 94 eb be
       0.013756982 -0.479173 0.16346148 -0.46011615
000020 a7 0b 75 3e a3 5b 0f bf 85 67 6f 3e 88 e6 1f bf
       0.23930226 -0.559992 0.23379333 -0.6246114
000030 d9 b4 11 3f 50 42 0c 3f f5 d7 c1 3e c2 a5 ae 3e
       0.56916577 0.54788685 0.37860075 0.34110838
000040 16 57 0f 3e 96 91 eb be 2b 31 92 be 9e 3d 9a bd
       0.13998064 -0.4600951 -0.28553137 -0.07531284
000050 78 9b 18 bf dd d9 19 3f 13 05 92 be 56 f2 ed 3e
       -0.59612226 0.6009806 -0.28519496 0.4647395
000060 ec 15 25 3e 73 f8 a6 3e 89 bf b0 be 14 b9 14 bf
       0.16121644 0.32611427 -0.3452113 -0.58094907
000070 1a 0a e5 3e ca 7d 19 bd 1b 28 e7 3e 52 80 f3 be
       0.4473427 -0.037473477 0.45147786 -0.47558838
000080 f2 f8 34 3e 90 5f 17 bf d4 b9 32 be e6 a0 7f bc
       0.1767309 -0.5913019 -0.174537 -0.015602326
000090 67 80 7d be a6 e0 33 bf dc dc a3 be 23 c7 8a 3e
       -0.24756013 -0.7026466 -0.3200444 0.27105054
0000a0 b3 c1 3f 3f 7b a4 96 be d2 27 40 bd de fc 4f bf
       0.74904937 -0.29422364 -0.046912976 -0.8124522
0000b0 e2 30 c6 be 1a 99 a7 be de bc a4 3e c1 37 5b 3d
       -0.3870917 -0.32733995 0.32175344 0.053519968
0000c0 4a 5c 45 3d 57 07 31 3f 80 5c 98 be 05 85 48 3f
       0.048183717 0.69151825 -0.29758072 0.7832797
0000d0 8e 59 3d 3f 91 e3 59 3f 5f 15 6a 3e f0 29 cb be
       0.73964775 0.85112864 0.22859715 -0.39680433

BRD_net.encoder.0.bias f4 [8]
000000 78 ee a4 3e 04 80 5d be 20 07 8b be 44 7b 70 be
       0.32213187 -0.21630865 -0.27153873 -0.23484522
000010 bf 8a 76 3e 9f 3d 49 bd e9 13 bd bd 00 7a 62 bd
       0.24076365 -0.049131032 -0.09232313 -0.05529213

BRD_net.encoder.2.weight f4 [8, 8]
000000 8a 63 b8 be ad 3d cd be 16 40 74 3e 2f 3f 9e 3e
       -0.36013442 -0.40086117 0.23852572 0.3090758
000010 70 0f 7f 3e 23 4a f2 be 19 0f e8 be 64 7d f6 3e
       0.24908233 -0.47322187 -0.4532402 0.4814254
000020 6b 46 ad be 9f 08 02 bf 00 b9 63 3d e1 ee 19 be
       -0.33842787 -0.50794405 0.05559635 -0.15032531
000030 c1 98 7e bd a3 88 b0 3e 1f 03 8b 3e 0a 41 0f bf
       -0.062157396 0.34479246 0.2715082 -0.55958617
000040 9b 10 ae be 41 43 5d be 56 ed 07 3f ab 6f a1 3e
       -0.33997044 -0.21607687 0.5309652 0.31530508
000050 06 59 8d 3e 6c 65 2c 3f cf 6a ac 3e 1e 24 33 bf
       0.27606982 0.6734226 0.33675238 -0.69976985
000060 5f 02 01 3f 2f b9 83 be 9a 5b 51 be 3d 2f 5d be
       0.50394243 -0.2572722 -0.204451 -0.21600051
000070 46 71 c7 3e a8 bc 8f be 48 90 e8 be cf c4 a0 be
       0.38953608 -0.2807362 -0.45422578 -0.31400153
000080 6c 17 6b be 63 08 09 3f d5 cd 15 3f 24 e2 f1 3e
       -0.22958153 0.5352842 0.585172 0.47242844
000090 31 b0 06 3e d5 f6 31 bd e9 ff b0 bd 84 ad d8 be
       0.13153149 -0.043448288 -0.08642561 -0.42319882
0000a0 da 17 97 3e 2c 91 f9 be 2b bb 37 3b 95 89 ba 3e
       0.29510385 -0.4874357 0.0028035145 0.36433092
0000b0 0d f2 0f 3f fe c2 1a bf a2 f8 f1 3e 75 3a b1 be
       0.56228715 -0.60453784 0.47260004 -0.34614912
0000c0 7f f6 a9 be 40 ac 27 3f 6a ac e2 3e aa 87 52 be
       -0.33195874 0.6549721 0.44272166 -0.20559564
0000d0 8d 06 93 3e 12 46 fc be a3 4a 06 3f 42 58 fd 3e
       0.28715935 -0.4927221 0.52457637 0.49481398
0000e0 4e 6e 91 be 7e bd 34 3e e9 08 33 3e e0 66 ad be
       -0.28404468 0.1765041 0.17483868 -0.3386755
0000f0 f8 42 a7 be 93 3e 9c bc 3f 3e e2 be 55 c9 12 bf
       -0.3266828 -0.019072806 -0.44188115 -0.5733846

BRD_net.encoder.2.bias f4 [8]
000000 18 8b 2a 3c 58 0b 81 3e 02 84 91 bc a0 37 cb bd
       0.010409139 0.25203967 -0.017763142 -0.09922719
000010 30 82 b6 bd df c0 d6 3e 26 9f 1a 3e eb cd 08 be
       -0.0891155 0.41944024 0.15099773 -0.13359801

BRD_net.decoder.weight f4 [1, 8]
000000 03 b1 27 3e fe cd f7 be d7 c8 0d bf 86 7f ae 3d
       0.16376118 -0.48399347 -0.5538458 0.08520417
000010 91 87 19 bf b6 f7 58 3f ad 5f 5a be 0b b8 11 bf
       -0.5997248 0.84752977 -0.2132556 -0.5692145
