example/Embryogenesis/Output/ckpt_itr5900.pth (torch, 8074 bytes, 15 tensors)

GRN_net.encoder.0.weight f4 [10, 6]
000000 04 bc f0 bd 85 89 58 be 6e d3 12 3d 2b dc f9 3d
       -0.11754611 -0.2114621 0.035846166 0.12200197
000010 ad de a9 3e f3 5f 1e 3e 11 5c 7b 3e 0b 22 82 3e
       0.331777 0.15466289 0.2454684 0.25416598
000020 f9 50 58 3e 74 03 32 3d b5 ac 1b be 5e a2 f0 3e
       0.21124639 0.043460324 -0.15202601 0.46998876
000030 6b 63 ea 3d 77 d2 fd 3e a9 e0 22 3f 3a 5d 2a be
       0.11444744 0.49574634 0.63624054 -0.16637126
000040 e2 80 0e 3f 85 c2 59 bd b0 b6 fc 3e d2 d7 33 3f
       0.5566541 -0.053164024 0.4935813 0.7025119
000050 67 50 f0 be 67 c7 9f 3c e2 7a e4 be a4 92 03 bf
       -0.46936342 0.019504262 -0.44625002 -0.5139563
000060 9f e0 5c be f9 72 81 be 2f 8e 2c be a4 49 13 bf
       -0.21570061 -0.2528303 -0.16851114 -0.5753424
000070 a9 f1 b0 be 8b cf 23 bd 26 e7 81 bd ce 58 90 3e
       -0.34559372 -0.03999285 -0.06342916 0.28192753
000080 bf cd c3 3e 60 96 9f 3e 78 ca f9 3e e1 bf 0d bf
       0.3824291 0.31169415 0.48787284 -0.5537091
000090 25 e0 0d 3f 0f ba 40 bf f3 ad ae bd f1 16 b4 3e
       0.5542014 -0.752839 -0.08529272 0.35173753
0000a0 72 5f 96 3e 9f 74 da be eb e5 8b be 01 6a 05 bf
       0.29369694 -0.426671 -0.2732385 -0.52114874
0000b0 18 17 91 be 59 86 0e be a2 6b 63 3f 10 df 08 be
       -0.28337932 -0.13918437 0.8883611 -0.13366342
0000c0 bc 36 b1 bd e8 cf e0 be c6 8e 65 3f 2f c3 8e be
       -0.08653018 -0.4390862 0.8967098 -0.27883288
0000d0 33 94 1f bf e5 54 e5 3e a4 59 d8 bd 47 a5 09 3f
       -0.6233551 0.44791332 -0.105639726 0.5376782
0000e0 f4 1a 24 bf a0 bf f5 be 76 06 ac be b3 c4 99 3e
       -0.6410363 -0.4799776 -0.3359868 0.30032882

GRN_net.encoder.0.bias f4 [10]
000000 29 fb a0 be 53 d5 95 3e 95 cc a5 3e 3e 1b 8d 3e
       -0.3144162 0.29264316 0.32382646 0.27559847
000010 b9 1e 97 be 6e 1b 15 be b7 7a 2a bd 8a 41 92 3d
       -0.29515627 -0.14561245 -0.041620936 0.07141407
000020 46 7c 85 be a6 15 90 be
       -0.26071376 -0.28141516

GRN_net.encoder.2.weight f4 [10, 10]
000000 35 a9 91 bd ee ed cc be 90 3c 5a 3e cd 98 53 bd
       -0.07112352 -0.40025276 0.21312165 -0.051659394
000010 7d 2f 29 3e c2 4e 95 be a5 5d fc be ec a3 9a 3e
       0.16522022 -0.2916165 -0.49290195 0.30203187
000020 23 f9 c0 be 4b ff ce 3e b7 14 dd 3e 61 93 e7 be
       -0.37690076 0.40429148 0.43179867 -0.4522963
000030 53 d5 10 bf 22 d1 a5 3d 8d cf 80 be 63 ee 68 3d
       -0.56575507 0.080965295 -0.2515835 0.05686797
000040 d0 d9 88 be 8a b4 3f be a7 69 04 bf 04 b1 c7 3e
       -0.26728678 -0.18721214 -0.5172371 0.3900224
000050 27 f0 d4 be f5 55 bf be 7c ca 41 bd 2d bb ae be
       -0.41589472 -0.37370268 -0.047312245 -0.3412718
000060 fe f4 00 bf 33 3f c8 3e 7f f9 2a be 4b 11 7d 3e
       -0.5037383 0.39110717 -0.16696738 0.24713628
000070 53 32 b2 3e 5a 4c db be 6e f6 14 bf 96 de 1e be
       0.3480402 -0.4283169 -0.5818852 -0.15514597
000080 22 02 ab 3e 27 52 50 3d 93 b9 60 be 90 99 bb 3e
       0.33400065 0.050859597 -0.21945791 0.36640596
000090 4d e7 0b 3f 8d 77 a7 3e a1 01 f1 be 45 ff d9 bd
       0.5464981 0.32708398 -0.47071555 -0.10644392
0000a0 32 8d 84 be 7e 9c d7 3e 78 a1 91 be e2 34 6f be
       -0.25888973 0.42111582 -0.28443503 -0.23360017
0000b0 4e 49 9f 3c 77 04 26 bd a3 c4 da 3e 67 7e 69 3d
       0.019444134 -0.0405316 0.42728147 0.057005312
0000c0 6d b9 e2 be 55 21 e0 3e 0a 69 cb 3e 24 e2 a2 3d
       -0.44282094 0.4377543 0.39728576 0.07953289
0000d0 3b 6b 0e bf f2 bd 70 3e 1c b9 c9 3e 47 35 2a 3e
       -0.5563237 0.23509958 0.3939904 0.16621886
0000e0 b6 8a 41 be 9c 37 af 3d 6d 6f aa be e5 b3 0e 3f
       -0.1890057 0.085555285 -0.33288136 0.5574325
0000f0 78 92 fd 3e 5c be 15 be 0e 34 e8 be b7 e6 ca 3e
       0.4952581 -0.14623398 -0.45352215 0.39629146
000100 cc 5f b3 3e 93 97 8c 3e 14 56 ac be 1c 02 62 3e
       0.35034025 0.27459392 -0.33659422 0.22071117
000110 93 6f 59 be db 26 fe be 69 67 97 be d0 59 38 3e
       -0.21233968 -0.4963902 -0.29571083 0.18003011
000120 bd 8c 6c 3e 7d 6a 09 bf b0 f8 81 3e d2 86 8e 3e
       0.23100562 -0.53678113 0.25385046 0.27837235
000130 e5 f6 00 3f f0 76 f3 3e 36 ad 84 be aa 85 81 3e
       0.5037673 0.4755168 -0.259134 0.2529729
000140 0c d5 2c 3f c6 28 01 3e b9 77 cd be 88 9e 1b be
       0.67512584 0.1261321 -0.40130404 -0.15197194
000150 ed e4 f6 3e 22 03 af 3e 43 5b f8 3e 99 d9 e1 bd
       0.48221532 0.34182078 0.48507127 -0.110278316
000160 df 7c a7 bc 67 dd e3 be 97 e9 83 be 77 47 b0 3e
       -0.020445285 -0.44504854 -0.25764152 0.34429523
000170 13 13 04 bf 5b b8 6b be c2 b5 03 3e a6 5b a2 be
       -0.51591605 -0.23019545 0.12862304 -0.31710547
000180 92 a6 4f 3d be 15 08 3d 24 4f 94 3e c6 ae c7 be
       0.050695963 0.03322386 0.2896663 -0.3900053

GRN_net.encoder.2.bias f4 [10]
000000 2f a0 8d bd 17 7b 36 3d 7a 2f b3 3d 5c ba c5 3d
       -0.06915318 0.04455098 0.0874929 0.09654686
000010 ed fe a5 3e c8 c5 7d 3e 73 42 1e 3e 9b a9 0f 3c
       0.32421055 0.24782479 0.15455036 0.008768464
000020 21 0f 88 be 44 30 85 3e
       -0.26574042 0.26013386

GRN_net.encoder.4.weight f4 [10, 10]
000000 7f 86 88 3c 94 11 f9 be e0 e0 94 3e 96 ac 02 3f
       0.016665695 -0.48646224 0.29077816 0.51044595
000010 33 97 13 be e6 6f 84 3d 11 73 8f be 1a 6f f1 be
       -0.14413147 0.064666554 -0.28017476 -0.47155076
000020 d0 d4 a0 be d4 a9 3c be bb 69 0e 3e 10 af a7 3d
       -0.31412363 -0.1842416 0.1390752 0.081876874
000030 2a 97 95 3d 25 f2 ca be a2 76 c4 be 8b 99 cc be
       0.07304223 -0.39637867 -0.3837176 -0.39960894
000040 d0 c0 b3 be 16 d6 ed 3e b5 ae 4c 3e dc be 0c bf
       -0.35108042 0.46452397 0.1998852 -0.5497873
000050 cf 1e cd bd 4f 6b 72 3d 6b bd cc 3e af c8 06 3f
       -0.10015642 0.05918437 0.39988264 0.5264997
000060 a7 3d a7 be 7a 43 bb 3e c9 0a a1 bd 02 87 6e 3d
       -0.32664225 0.36574918 -0.07863385 0.058234222
000070 a5 f9 8b be 50 76 a0 3d 0b 9a f2 3e 13 6d c2 3e
       -0.273389 0.07835066 0.4738315 0.37973842
000080 dd a5 b8 3e e7 93 68 be a8 7b 5e bd 19 62 0d 3e
       0.36064044 -0.2271267 -0.054317147 0.13806953
000090 5a 6b c2 3e 7c cd 00 bf 7a 04 80 be ea 03 cf b8
       0.37972528 -0.50313544 -0.25003415 -9.871258e-05
0000a0 7a ef 97 be 72 b7 28 3e 6f 93 b3 bc 77 13 16 be
       -0.29674894 0.16476229 -0.021920888 -0.14655863
0000b0 e2 d2 33 3e e3 be b7 3e 81 3e 02 3f 1f 90 97 3e
       0.17560914 0.35887823 0.50876623 0.29602143
0000c0 3c ba 2d 3c ed 18 d7 3e 80 6c f6 3e 17 ec 18 bf
       0.010603484 0.42011204 0.48129654 -0.59735245
0000d0 e2 8c 8e 3e f2 21 2d bb a0 14 a6 be 6c 6c dd bd
       0.2784186 -0.0026417938 -0.3243761 -0.108116955
0000e0 05 13 f1 bd 0e 47 7c be 13 80 33 be ca 1a f8 3d
       -0.11771206 -0.2463648 -0.17529325 0.121144846
0000f0 5d d5 fb 3d 48 30 a0 3d ee 62 09 bf 5d 6a 97 3e
       0.12296555 0.07821709 -0.5366658 0.29573336
000100 6a d9 a0 bd cd 7e dd 3e 61 8d 03 bf 99 68 13 be
       -0.078539684 0.43260804 -0.513876 -0.1439537
000110 b2 fc d0 3e d2 62 83 3e 5a 94 87 be 12 05 f7 be
       0.4081779 0.2566133 -0.2648037 -0.48246056
000120 97 9c 88 3d a1 b2 30 3e 20 b6 1b bf d8 a2 ef be
       0.06670492 0.17255642 -0.60824776 -0.46803927
000130 06 07 7b ba e6 fd db bd 00 33 c5 3e 96 64 0a bf
       -0.0009575937 -0.10741787 0.38515472 -0.5405973
000140 8f eb 28 be 15 10 df be 90 58 f3 bc c0 2a 47 be
       -0.16496108 -0.43566957 -0.029705316 -0.19449902
000150 aa b6 25 3e 58 2e 0b bf 95 97 e7 be 2f 18 af be
       0.16182962 -0.5436759 -0.45232835 -0.34198138
000160 f8 c7 0a bf 5d eb ee 3e e5 67 fe bd 87 9e b8 be
       -0.5421138 0.46663943 -0.1242216 -0.36058447
000170 27 59 0a 3e 36 36 c3 bd a3 f2 75 3e 93 0d 3c be
       0.13510571 -0.09531824 0.2401834 -0.18364553
000180 8c 38 09 bf 85 c9 87 3e d0 63 ee 3e a8 67 12 bf
       -0.5360191 0.26520935 0.46560526 -0.57189417

GRN_net.encoder.4.bias f4 [10]
000000 ae 50 ba bb 7b f1 2d 3d 32 c2 88 3e 07 2a b1 3d
       -0.0056858873 0.04246662 0.2671066 0.08650594
000010 65 9e 44 be 57 45 3d be 25 c2 7d be 20 ba 80 3e
       -0.19201048 -0.18483482 -0.24781092 0.25142002
000020 bf 1b 2f 3d 9d 6e c5 3d
       0.04275107 0.096402384

GRN_net.encoder.6.weight f4 [10, 10]
000000 3b 46 cd 3d 8c 1e 3e 3d 70 b9 6f 3c 45 fe 8f bd
       0.10023161 0.04641585 0.014631614 -0.0703092
000010 7d fd 23 be 9e 03 ca be f1 36 14 3e a1 c0 04 bf
       -0.16014667 -0.39455885 0.14474083 -0.5185643
000020 1f 5c e6 be ea a6 2d be e2 26 b6 be 12 7c fa 3d
       -0.44992158 -0.16958204 -0.3557654 0.12230696
000030 53 b7 bc 3e 0b 31 de 3e 2b ed 93 be ed e0 af 3e
       0.36858615 0.43396792 -0.28891882 0.34351292
000040 ef 9a ca 3e b3 65 24 bd f2 2f 82 3e 65 65 92 3e
       0.3957133 -0.04013605 0.25427204 0.28592983
000050 96 05 04 3f c2 07 3f 3e 81 4f 99 3e 3a 01 da bd
       0.51571023 0.18655303 0.2994347 -0.10644765
000060 81 3e 88 be c2 b0 61 be 0a cd bf 3e 3e 64 41 bd
       -0.26610187 -0.22040084 0.3746112 -0.04721474
000070 b9 cb 0b 3e 6b a7 19 bf 04 97 d8 bb a8 85 81 be
       0.13651933 -0.60021085 -0.0066097993 -0.25297284
000080 4b a1 82 be 6c 59 e3 3e e5 04 d6 be 05 27 59 be
       -0.25513682 0.4440416 -0.4180061 -0.21206291
000090 93 91 22 bd 0d 1f 00 bf f5 16 92 3e c9 72 9d be
       -0.03968961 -0.5004738 0.2853314 -0.30751637
0000a0 bc 9e 83 3e fe d8 e4 3e 63 d1 bb 3e 67 0e 1e be
       0.25707042 0.44696802 0.36683187 -0.15435182
0000b0 48 7a a7 3e 6d 72 11 3f f9 39 1d 3e 67 4a a5 bd
       0.3271048 0.56815225 0.15354146 -0.08070832
0000c0 14 a9 4e be 3c 5e 17 3e 6f 85 ef 3d d5 67 bc be
       -0.20181686 0.14782041 0.11695372 -0.36797968
0000d0 3a e2 aa 3e e3 b7 b5 3d eb 53 13 bf 35 1a 68 3e
       0.33375722 0.08872964 -0.57549924 0.22666247
0000e0 38 d6 ad 3e a9 81 27 3e 83 99 d3 3e ef 6f 69 3e
       0.33952498 0.16358055 0.41328058 0.22796606
0000f0 d6 46 da be 93 73 72 bd f0 cd d1 3e c4 f8 54 be
       -0.4263217 -0.05919225 0.4097743 -0.20798022
000100 b1 4b 40 3e 30 93 39 3e e6 7b fe bd d4 d0 c8 3b
       0.18778874 0.18122554 -0.124259755 0.00612841
000110 6f c4 54 3e 7f 45 cd be fc dc ab 3e 38 ce aa 3e
       0.20778058 -0.40092084 0.33567035 0.33360457
000120 13 fd 67 3e c7 ae f6 3e 78 ca 1c 3d ad ba 17 bf
       0.22655134 0.4818022 0.038279027 -0.5926922
000130 ac 4a 57 3d c3 d8 0b be e8 07 2f 3e 90 7d e5 3e
       0.052561447 -0.13656907 0.1709286 0.4482236
000140 89 55 61 be fc 62 bf 3d d3 49 16 3f 13 3e d6 be
       -0.22005285 0.09345052 0.58706397 -0.41844234
000150 16 73 a4 bd 9e fd cf 3e ad ab 01 3f f0 84 69 3e
       -0.080297634 0.40623182 0.5065258 0.22804618
000160 0f 30 8f be cd 7f 09 3d 2c df f2 be be 38 8a be
       -0.27966353 0.033569146 -0.47435892 -0.26996416
000170 3a f6 09 bf ff 4f f4 3e 3e 9a b6 3e 1f e1 75 3e
       -0.53891337 0.47717282 0.35664552 0.24011658
000180 52 4c 5a be f9 b9 05 3f 02 22 25 be f0 f6 ce 3e
       -0.21318176 0.52236897 -0.16126254 0.40422773

GRN_net.encoder.6.bias f4 [10]
000000 a5 38 21 3c 94 9c 64 3e a6 0f db 3d ad d5 84 bd
       0.009840165 0.22325355 0.10696344 -0.06486068
000010 71 e4 84 3e 89 f5 02 3c dd 47 60 3e c9 3a b5 3d
       0.25955537 0.00799311 0.21902414 0.08849103
000020 fe 18 6b 3e 6a a1 4d 3e
       0.22958753 0.20081106

GRN_net.decoder.0.weight f4 [6, 10]
000000 cf 72 67 3c d5 98 ba be 0e d5 2f be 74 90 6e be
       0.014126494 -0.36444727 -0.17171118 -0.23297292
000010 84 39 15 bf f2 7a 03 3e fe 68 39 be b4 1f 5c 3e
       -0.58290887 0.12839869 -0.18106458 0.21496469
000020 21 e4 e6 3e 1c c6 e0 bd e7 4f 72 3e 92 f7 75 3e
       0.45095924 -0.10975286 0.23663293 0.24020222
000030 86 44 2e 3e 9c 99 8a be ee 29 2e be fb 8e 83 3e
       0.17018327 -0.2707032 -0.17008182 0.25695023
000040 a7 db 01 3f 34 c3 1b bf 8f 98 d2 be b4 98 ea 3d
       0.5072579 -0.6084473 -0.41132018 0.11454907
000050 78 6b 04 3f f2 51 88 3e 44 86 1b bf 11 a6 fb be
       0.51726484 0.2662502 -0.6075175 -0.49150136
000060 f0 8e 1f 3f e2 82 8c 3c 01 cf 13 bf 09 b2 58 be
       0.6232748 0.017152254 -0.5773774 -0.21161665
000070 9f df 84 3e 84 ae fb bd 8a 46 e1 be 78 ef b1 be
       0.2595186 -0.122891456 -0.4399913 -0.34753013
000080 8b 32 aa be 74 9a d1 3c 0c db 59 3e 6f a1 44 3e
       -0.33241686 0.025586344 0.21274966 0.19202207
000090 b9 71 9d be 80 40 4f be c1 24 f5 be ee 29 df 3e
       -0.30750826 -0.20239449 -0.47879604 0.43586677
0000a0 44 02 60 3f e3 34 1c 3f 7f 70 69 3e 60 16 59 bd
       0.8750346 0.610182 0.2279682 -0.052999854
0000b0 91 a3 16 be 98 b3 c3 3e 6d e2 fd be 83 df bf 3c
       -0.14710833 0.38222957 -0.49586812 0.023422008
0000c0 02 78 f5 be 4a 49 0d bf 8e 22 a4 3d 88 b8 db bc
       -0.4794312 -0.55189955 0.08014403 -0.02682139
0000d0 01 68 ea be 21 2f 88 3e 4d 1c 18 3e b7 f4 36 3d
       -0.45782474 0.26598457 0.14854546 0.044666972
0000e0 b5 fd c6 be 28 ca 02 bf b3 26 c0 ba 7a 5e 46 be
       -0.38865438 -0.51089716 -0.0014659971 -0.19371977

GRN_net.decoder.0.bias f4 [6]
000000 54 3e 01 3e dc 88 a0 be 3a bb 40 3e 6d 9e be 3d
       0.12621433 -0.31354415 0.18821421 0.09307561
000010 04 1b ae bc 21 69 d7 3d
       -0.021253116 0.105180986

BRD_net.encoder.0.weight f4 [8, 7]
000000 57 9b 4f be f4 21 cb 3e 51 b8 1e 3e 54 a4 06 3f
       -0.20274101 0.39674342 0.15499999 0.52594495
000010 56 86 1f 3d b9 cc f0 be 86 61 1a 3e 02 89 e1 be
       0.038946472 -0.4703119 0.15076265 -0.4404984
000020 bb 5c 80 3f 13 c6 0d bf 3f 05 86 3e 0f 66 16 bf
       1.0028299 -0.5538036 0.26175877 -0.5874948
000030 3f 09 0a 3f 1b 6c 17 3f 1a cc cc 3e e2 4e 9f 3e
       0.5392036 0.5914933 0.39999467 0.3111487
000040 63 5b 66 3e 6d 21 c3 be 42 ca 94 be db 96 e5 3d
       0.22495799 -0.3811144 -0.2906056 0.11210414
000050 64 19 16 bf 33 32 0c 3f a9 90 c0 be 2c 48 e5 3e
       -0.58632493 0.547641 -0.37610367 0.44781625
000060 1d 2b 2d 3e fd 60 d6 3e d2 eb 86 be 20 fa 38 bf
       0.16910978 0.4187087 -0.26351792 -0.7225666
000070 60 ad c3 3e 6d d4 a0 be 73 57 e8 3e 7e ce f9 be
       0.38218212 -0.31412068 0.45379218 -0.48790354
000080 11 a2 77 3e 7c 61 0b bf a5 6f 6f be 1d 51 ba bb
       0.24182917 -0.54445624 -0.23382433 -0.005685939
000090 40 f8 4f be e8 ec 3c bf b9 38 88 be 66 1b 78 3e
       -0.20309544 -0.7379899 -0.26605776 0.24229202
0000a0 ef 80 31 3f 08 f1 8a be e7 2a 35 bb fa e4 50 bf
       0.6933736 -0.27137017 -0.002764398 -0.8159939
0000b0 82 21 cf be 66 ec 9e be 39 e9 0e c0 f8 2a 63 3e
       -0.40455252 -0.31039733 -2.2329848 0.2218436
0000c0 d9 f6 69 bd e6 e0 3d 3f 0c 50 0f bf 8f 3d 5a 3f
       -0.057120178 0.7417129 -0.55981517 0.8525018
0000d0 7d 7c 34 3f 68 72 55 3f 41 48 8c 3e 2b 89 b6 be
       0.70502454 0.83377695 0.27398875 -0.35651526

BRD_net.encoder.0.bias f4 [8]
000000 e9 7e af 3e a8 7c 63 be 55 dc 91 be 92 38 e4 be
       0.34276512 -0.22215521 -0.28488412 -0.4457441
000010 d3 32 70 3e fd 61 81 bd a2 7a 83 bd dd 7a 40 3d
       0.23456888 -0.06317518 -0.06419875 0.04699217

BRD_net.encoder.2.weight f4 [8, 8]
000000 82 d5 c9 be 64 54 ce be 26 d6 7b 3e 65 24 67 3e
       -0.39420706 -0.4029876 0.2459341 0.22572477
000010 a5 03 51 3e 4c e5 cb be 5a ea bd be 5f 9f ef 3e
       0.20411547 -0.39823377 -0.3709286 0.46801278
000020 6c 0f 93 be 22 b1 fc be 47 94 62 3d 12 b5 16 be
       -0.28722703 -0.49353892 0.05531719 -0.1471751
000030 7c 03 92 bd 24 f5 9f 3e 38 cf 69 3e aa 80 11 bf
       -0.07129571 0.31241715 0.22832954 -0.5683695
000040 3c ce 2b be f2 95 56 be 7f 43 0e 3f bd f5 ab 3e
       -0.16777891 -0.20955637 0.5557174 0.3358592
000050 de a4 8b 3e 8e 75 28 3f ee 7e 92 3e 34 7e 33 bf
       0.2727422 0.65804374 0.28612465 -0.70114446
000060 05 c8 e3 3e da b7 2c be 4f 0e 8d be ad c7 a6 be
       0.4448854 -0.16867009 -0.2754998 -0.32574216
000070 ce 5a 9c 3e 35 a4 26 be 0b 31 e8 be 06 19 c9 be
       0.30538028 -0.16273578 -0.45349917 -0.39276904
000080 d3 2c 40 be 16 ba 0c 3f b7 5f 11 3f ef 92 f1 3e
       -0.18767099 0.54971445 0.56786674 0.47182414
000090 24 b6 ef 3d 0c d7 83 bd e5 a8 d6 bd 18 a9 dc be
       0.117046624 -0.06437501 -0.10481433 -0.43097758
0000a0 96 6e 7e 3e 88 01 ff be 14 a7 85 3d da e9 b7 3e
       0.24846873 -0.49805856 0.06526008 0.35920602
0000b0 96 ea 0c 3f 68 80 07 bf a8 f8 04 3f 7b dc af be
       0.5504545 -0.5293031 0.5194192 -0.343479
0000c0 66 28 a0 be 0f 23 2a 3f 4e 87 e7 3e b0 3f 49 be
       -0.31280822 0.66459745 0.45220417 -0.19653201
0000d0 85 b8 90 3e 16 bc 05 bf a0 ed f5 3e 82 bb fa 3e
       0.28265777 -0.5224012 0.48032856 0.48971182
0000e0 7c 55 85 be 7f c7 44 3e d2 5e 12 3e 5d 60 a7 be
       -0.26041782 0.19216727 0.14293984 -0.32690707
0000f0 e6 8b a9 be 56 ee 7b bd 2e 6f f9 be 6a a2 16 bf
       -0.33114547 -0.06150659 -0.48717636 -0.58841574

BRD_net.encoder.2.bias f4 [8]
000000 ef 21 b3 3c 68 22 69 3e 54 4e 27 bd a0 3a 29 be
       0.021866767 0.22767031 -0.040846184 -0.1652627
000010 bc dc e6 bd 2e 0a df 3e 7d 38 04 3e 7a 17 2b be
       -0.112725705 0.43562454 0.12912174 -0.16708174

BRD_net.decoder.weight f4 [1, 8]
000000 0f 68 2a 3e 1d e1 d7 be 3b 45 06 bf c2 db 50 be
       0.16641258 -0.42163935 -0.5244939 -0.20396331
000010 70 c8 1c bf 6e 42 5d 3f 11 d1 2f be 59 c2 16 bf
       -0.61243343 0.8642949 -0.17169596 -0.588903
