example/Embryogenesis/Output/ckpt_itr5800.pth (torch, 8074 bytes, 15 tensors)

GRN_net.encoder.0.weight f4 [10, 6]
00000000: 7e74 f3bd 1dbb 57be 0788 133d 9cf6 f83d
00000010: 7b50 a93e 1546 1f3e bddc 7b3e a93f 823e
00000020: 43a0 583e c387 323d d7c5 19be a2dd f03e
00000030: a386 ed3d 469f fd3e ffaf 223f 7c8d 2abe
00000040: c4c3 0e3f e532 5cbd 43e4 fc3e a0df 333f
00000050: 8a2b f0be 40cf a43c 90a1 e4be e199 02bf
00000060: 37e1 5ebe 345a 81be cd27 2cbe fe3d 13bf
00000070: ad24 b1be 93da 21bd 9f1b 81bd bd9e 903e
00000080: 6087 c33e 5e68 9f3e 06f2 f93e dab4 0dbf
00000090: c0ed 0d3f 93c0 40bf 26a1 aebd 7bc7 b33e
000000a0: efdd 963e 9545 dabe 1910 8bbe 0860 05bf
000000b0: a4da 90be f6a6 0dbe 276e 633f b9c7 09be
000000c0: aa3f b8bd e5fa e1be f54f 643f 8011 8ebe
000000d0: f38e 1fbf b144 e53e f51d d9bd 43a2 093f
000000e0: b596 23bf baf7 f5be 0105 acbe 5ec2 993e
-0.118874535 -0.21067472 0.036018398 0.12156412 0.33069214 0.15554078 0.24595924 0.25439194
0.21154885 0.043586504 -0.15016876 0.47044092 0.115979455 0.49535578 0.635498 -0.16655535
0.55767465 -0.053759474 0.493929 0.702631 -0.46908218 0.020118356 -0.44654512 -0.5101605
-0.217656 -0.25264132 -0.16812058 -0.5751647 -0.34598294 -0.03951509 -0.063040964 0.28246108
0.3818922 0.31134313 0.48817462 -0.5535408 0.554409 -0.75293845 -0.085268304 0.3511313
0.29466197 -0.42631212 -0.2716072 -0.5209966 -0.2829181 -0.13833222 0.88839954 -0.13455094
-0.08996518 -0.4413673 0.89184505 -0.27747726 -0.623275 0.4477897 -0.10601417 0.53763217
-0.63901836 -0.48040563 -0.33597568 0.30031103

GRN_net.encoder.0.bias f4 [10]
00000000: 4126 a1be 52f6 963e f825 a63e 0747 8d3e
00000010: e9d1 96be 23f9 14be b224 27bd d84e 953d
00000020: e890 86be 531f 90be
-0.31474498 0.29484802 0.32450843 0.27593252 -0.29457024 -0.14548163 -0.04080648 0.07290429
-0.2628243 -0.28148898

GRN_net.encoder.2.weight f4 [10, 10]
00000000: 0770 95bd b32a cdbe 898d 593e bba0 4dbd
00000010: aede 293e 4341 95be 3253 fcbe 7069 9a3e
00000020: f5d5 c0be aa21 cf3e ff6f dd3e ba86 e7be
00000030: f625 11bf 261f a43d cf0f 80be 809f 673d
00000040: 954f 89be 4a0b 40be e848 04bf 59f4 c73e
00000050: 7a0e d5be 1e72 bfbe 0341 42bd 57e8 adbe
00000060: f4f5 00bf c448 c83e 4b94 28be da2f 7d3e
00000070: 6829 b23e 5027 dbbe ae09 15bf 1fe9 1ebe
00000080: 2c62 ab3e d7c0 513d 82dd 60be 1ded bb3e
00000090: 9afb 0b3f 88f1 a73e 7b78 f1be c25a dabd
000000a0: 5190 85be a9df d73e 6ba4 91be 3587 6dbe
000000b0: 66b5 9e3c 357d 27bd 59e5 d93e b806 693d
000000c0: 8c9c e2be 7019 e03e 0a6c cb3e 17ac a23d
000000d0: 1b9e 0dbf 3be6 703e ad23 ca3e e76f 2a3e
000000e0: bdf3 41be 27c9 ae3d 6822 aabe bda8 0e3f
000000f0: 7d41 fd3e 690d 15be 1856 e8be 48f5 c93e
00000100: f052 b33e 317f 8c3e 06a7 acbe 5c30 613e
00000110: 691a 58be cc14 febe ca51 97be 9a11 393e
00000120: 71f3 6e3e 248d 09bf 69da 813e 9897 8e3e
00000130: c5e9 003f 2d82 f33e 1263 85be b6a4 813e
00000140: 1b12 2c3f 1be7 003e 665f cdbe b43c 1cbe
00000150: 4001 f73e 55eb ae3e e616 f83e 6ccf e1bd
00000160: b66f a5bc 38ce e3be dfdd 83be d08d b03e
00000170: 1b14 04bf 03ae 6cbe 009f 033e dc19 a2be
00000180: 4285 4f3d 32f6 003d b858 943e eae2 c7be
-0.07296758 -0.4007164 0.21245398 -0.050202113 0.16588852 -0.29151353 -0.49282223 0.30158567
-0.37663236 0.4045537 0.4324951 -0.45219976 -0.5669855 0.080137536 -0.2501206 0.056548595
-0.2681853 -0.18754306 -0.51673746 0.3905361 -0.41612607 -0.37391752 -0.04742528 -0.33966324
-0.50375295 0.39118016 -0.1646282 0.24725285 0.34797215 -0.4280343 -0.58217895 -0.15518616
0.33473337 0.051209297 -0.21959499 0.3670434 0.5468079 0.3280146 -0.47162232 -0.10661842
-0.26086667 0.42162827 -0.28445753 -0.23196109 0.019373607 -0.04089089 0.4255779 0.056891173
-0.4426006 0.43769407 0.39730865 0.0794298 -0.55319375 0.23525326 0.39480343 0.1664425
-0.18940635 0.085344605 -0.33229375 0.55726224 0.49464026 -0.14555897 -0.45378184 0.39444947
0.35024214 0.2744079 -0.3372118 0.21991104 -0.21103825 -0.49625242 -0.29554588 0.1807312
0.23335053 -0.5373099 0.25361946 0.27850032 0.50356704 0.47560254 -0.26052147 0.25320977
0.67215127 0.1258816 -0.40111846 -0.15257531 0.4824314 0.3416392 0.4845497 -0.11025891
-0.02019487 -0.4449327 -0.25755212 0.34483194 -0.5159318 -0.23113255 0.12853622 -0.31660354
0.050664194 0.03148479 0.28973937 -0.3904031

GRN_net.encoder.2.bias f4 [10]
00000000: 2b41 8ebd 75ed 333d 86d2 b23d c102 c63d
00000010: 5227 a63e 5095 7d3e a421 1e3e 86fa 123c
00000020: 72fe 87be 6d6a 853e
-0.069460236 0.04392763 0.087315604 0.09668494 0.32451874 0.2476399 0.1544252 0.008970862
-0.26561314 0.2605776

GRN_net.encoder.4.weight f4 [10, 10]
00000000: 9dcf 893c 56f7 f8be 14d4 943e 29cd 023f
00000010: a77b 13be 31a7 843d 5617 8fbe aa2c f1be
00000020: c45e a0be 9e26 3ebe da65 0e3e 4d5e a73d
00000030: 25d1 943d 3eec cabe 7710 c4be 9a9f ccbe
00000040: 70bb b3be a5ff ed3e 40d0 4d3e 0fc8 0cbf
00000050: f324 cebd 94b7 6f3d 9980 cc3e e1df 063f
00000060: 4a1a a6be a119 bb3e 4f4e a4bd ec35 703d
00000070: 38c2 8bbe a97d 9f3d 7791 f23e b566 c23e
00000080: e56e b83e d5e0 68be dab9 5ebd 5e5e 0d3e
00000090: ba56 c23e 58f5 00bf 9013 80be 1f06 813a
000000a0: 44f7 97be d482 283e 5d8e b1bc a650 16be
000000b0: deb2 333e 5b59 b73e 3e32 023f 4d11 983e
000000c0: 3a41 2a3c 0231 d73e cc73 f63e 3dc8 18bf
000000d0: 4fd7 8e3e cbe9 20bb 1058 a6be 8415 ddbd
000000e0: f615 f0bd 57ab 7bbe 9090 33be 6be8 f63d
000000f0: 616f fc3d f388 9e3d e369 09bf d78e 973e
00000100: f841 a1bd 232b dd3e a571 03bf 1cf5 12be
00000110: 045e d13e 7824 833e 2bb4 87be ce01 f7be
00000120: c436 883d dd82 303e fc7d 1bbf 07b6 efbe
00000130: 442b a3ba 2efb dbbd 1c12 c53e 355a 0abf
00000140: 61e2 28be c48c debe 2914 f2bc 836e 47be
00000150: aa03 263e 7018 0bbf 0925 e7be 7307 afbe
00000160: 7888 0abf a6fb ee3e fdbf fdbd 09a0 b8be
00000170: 8a00 113e 843f c3bd 74c6 753e 890a 3cbe
00000180: 4c2d 09bf f36a 883e 3e35 ee3e e66f 12bf
0.01682263 -0.48626202 0.29068053 0.510943 -0.14402638 0.06477202 -0.2794749 -0.47104388
-0.313223 -0.18569419 0.13906041 0.08172283 0.07266454 -0.39633363 -0.38293812 -0.39965516
-0.3510394 0.46484104 0.20098972 -0.54992765 -0.10065641 0.058524683 0.39941862 0.5268536
-0.32441932 0.3654299 -0.08022749 0.058645174 -0.27296615 0.0778764 0.47376606 0.37968984
0.36022106 -0.22742017 -0.05437646 0.1380553 0.37956792 -0.50374365 -0.25014925 0.0009843743
-0.29680836 0.16456157 -0.02167433 -0.14679202 0.17548701 0.3581036 0.50857913 0.297007
0.010391528 0.42029577 0.4813522 -0.5968054 0.27898642 -0.0024553414 -0.3248906 -0.107951194
-0.11722939 -0.2457708 -0.17535615 0.12056049 0.12325931 0.07740965 -0.53677195 0.29601166
-0.07873911 0.43196973 -0.5134528 -0.14351314 0.4089204 0.2561376 -0.26504645 -0.48243564
0.06651071 0.1723742 -0.6073911 -0.46818563 -0.0012448807 -0.10741268 0.3849038 -0.54043895
-0.16492607 -0.4346677 -0.029550629 -0.1947575 0.16212335 -0.54334164 -0.45145443 -0.3418537
-0.54114485 0.46676368 -0.123901345 -0.36059597 0.14160362 -0.09533599 0.24001485 -0.18363394
-0.5358474 0.26644096 0.46524996 -0.57201993

GRN_net.encoder.4.bias f4 [10]
00000000: 513d c2bb c8f0 2c3d a401 893e b311 b13d
00000010: 1939 42be 9c46 3dbe 7829 7ebe a0dc 803e
00000020: a4d7 2e3d c2c1 c43d
-0.0059277196 0.042221814 0.26759064 0.08645954 -0.18967094 -0.18483967 -0.24820507 0.25168324
0.04268612 0.09607269

GRN_net.encoder.6.weight f4 [10, 10]
00000000: c511 cd3d d347 3e3d 2e96 733c 63c6 8dbd
00000010: f2ba 23be 9601 cabe aecc 133e 5ac8 03bf
00000020: 8e87 e6be 0ccb 2dbe d5ea b5be e78c f93d
00000030: 5cc7 bc3e 3728 de3e f7f1 93be 79c0 af3e
00000040: 9da8 ca3e 5108 1cbd 1418 823e 374a 923e
00000050: efec 033f 2c12 3f3e 6932 993e 6c59 dabd
00000060: 574c 88be 70e7 61be 0df1 bf3e 3501 41bd
00000070: b508 0b3e b5a1 19bf a748 c5bb 6db4 81be
00000080: 337f 82be 614d e33e 482e d6be 1bcc 58be
00000090: 40e0 21bd 373f 00bf c27e 923e a087 9dbe
000000a0: a380 833e d6ea e43e 95d2 bb3e a53e 1dbe
000000b0: a4ac a73e 097c 113f 1f30 1d3e d3ad a5bd
000000c0: d597 4ebe bd44 173e bb1d ec3d 3823 bdbe
000000d0: 34d7 aa3e 4ed9 b63d 4899 12bf aacc 673e
000000e0: a710 ae3e 4b3f 273e 2c77 d33e 6366 653e
000000f0: ce07 dabe 7cdd 71bd 94bb d13e 926e 55be
00000100: 3811 3e3e 1247 393e 01d3 fdbd 9ed9 d23b
00000110: 3620 553e 390c cdbe e8b9 ab3e cff4 aa3e
00000120: ccae 663e 3c9f f63e 4f8a 1c3d e1b3 17bf
00000130: 8525 583d 90ea 0bbe eceb 2e3e 52a2 e53e
00000140: e761 62be 48b4 c03d 8241 163f 8f59 d6be
00000150: 9914 a5bd 5796 ce3e ef86 013f dc75 693e
00000160: aa61 8fbe bcd6 0b3d b951 f3be dbcb 89be
00000170: 2c1a 0abf 411b f53e 81c8 b63e a3ce 763e
00000180: 6e3f 5abe 54a1 053f 4d05 25be 06d8 ce3e
0.10013155 0.046455216 0.014867349 -0.06922605 -0.15989283 -0.39454335 0.14433548 -0.5147759
-0.45025295 -0.16971987 -0.35530725 0.12185078 0.3687085 0.43390056 -0.28895542 0.34326532
0.39581767 -0.03809387 0.25408995 0.28572246 0.51533407 0.18659276 0.29921272 -0.10661587
-0.26620743 -0.22060943 0.37488595 -0.04712029 0.1357754 -0.6001237 -0.0060206237 -0.25332966
-0.2548767 0.44394973 -0.41832185 -0.2117161 -0.039520502 -0.5009646 0.28612334 -0.30767536
0.2568408 0.44710416 0.366841 -0.15355928 0.32748902 0.5682989 0.15350388 -0.08089795
-0.20175107 0.14772315 0.11529108 -0.36940932 0.33367312 0.08928166 -0.5726514 0.22636667
0.3399708 0.16332738 0.41301858 0.22402339 -0.4258408 -0.059049115 0.40963423 -0.2084296
0.18561256 0.18093517 -0.123937614 0.0064346334 0.20813069 -0.40048388 0.33540273 0.333899
0.22527617 0.4816836 0.03821784 -0.5925885 0.052770156 -0.13663697 0.17082185 0.44850403
-0.2210766 0.09409386 0.58693707 -0.41865203 -0.08060569 0.40349075 0.5059652 0.22798866
-0.280042 0.034140334 -0.47523287 -0.26913342 -0.53946185 0.47872356 0.35699847 0.24102263
-0.21313259 0.5219929 -0.16115303 0.40399188

GRN_net.encoder.6.bias f4 [10]
00000000: 2143 1c3c 2862 643e b117 db3d 6559 84bd
00000010: 1fcd 843e 642e f33b 37c7 603e ad35 b53d
00000020: 1192 6b3e 7dac 4d3e
0.009537489 0.22303069 0.10697878 -0.06462363 0.25937745 0.0074213017 0.21950994 0.088481285
0.23004939 0.2008533

GRN_net.decoder.0.weight f4 [6, 10]
00000000: 4ee0 623c c196 babe e323 30be 54cf 6ebe
00000010: 5a32 15bf 3538 033e 0f46 39be c051 5c3e
00000020: 15f5 e63e 27ed dfbd 8c47 723e d08b 753e
00000030: 8f8a 303e f7a2 8abe 068f 2ebe 6c27 843e
00000040: 7cf8 013f f6bd 1bbf ba8f d2be cc58 eb3d
00000050: 4068 043f fd0d 883e 3401 1cbf 0402 fcbe
00000060: baaa 1f3f 5516 833c 9ad3 13bf e288 57be
00000070: 53cf 843e 9d32 fbbd ae60 e1be c0da b1be
00000080: 6608 aabe e2bd d53c 77e2 583e b4d5 443e
00000090: d733 9dbe 8414 50be c387 f5be 3aec df3e
000000a0: 83c0 5f3f 400d 1c3f dab3 6a3e 5d24 59bd
000000b0: ebba 18be 3608 c33e 31e0 fdbe fd72 b03c
000000c0: 3c83 f5be 224b 0dbf f2eb a33d e9be dbbc
000000d0: e246 eabe 466d 883e f65e 183e bf72 383d
000000e0: e3f1 c6be 6db4 02bf e8e1 e3ba a409 47be
0.013847424 -0.3644314 -0.1720119 -0.23321277 -0.58279955 0.1281441 -0.18093131 0.2151556
0.45108858 -0.10933905 0.23660105 0.23979115 0.17240356 -0.27077457 -0.17046747 0.25811327
0.5076978 -0.6083673 -0.4112528 0.11491546 0.5172157 0.26573172 -0.60939336 -0.49220288
0.62369883 0.01600186 -0.57744753 -0.2104831 0.25939426 -0.12265513 -0.44019073 -0.34737206
-0.33209532 0.02609152 0.2118014 0.19222146 -0.30703613 -0.20320326 -0.4795514 0.43734914
0.87403125 0.6095772 0.2292017 -0.053013194 -0.14915054 0.38092202 -0.49585107 0.021539206
-0.47951686 -0.5519277 0.08003987 -0.026824431 -0.45757204 0.2664587 0.14879975 0.045031305
-0.3885642 -0.5105656 -0.0017386051 -0.19437271

GRN_net.decoder.0.bias f4 [6]
00000000: 068f 013e 1547 a0be ae84 403e ea21 be3d
00000010: b5b0 bdbc a968 d73d
0.12652215 -0.3130423 0.18800613 0.09283812 -0.02315555 0.10518009

BRD_net.encoder.0.weight f4 [8, 7]
00000000: 63ab 4fbe 8e9b ca3e 0fc0 1f3e c3bd 063f
00000010: a449 1f3d ebc0 f0be d89c 1a3e b5c0 e1be
00000020: 423f 803f 4caa 0dbf 6866 863e eb5e 16bf
00000030: ad4d 0a3f 6451 173f b7cb cc3e d16e a13e
00000040: dfea 633e d399 c3be ed18 96be 2a9c db3d
00000050: 302b 16bf cd4e 0c3f df1a bfbe fb70 e53e
00000060: db30 2c3e f6cf d23e 97a1 88be f09e 38bf
00000070: 05cb c33e 47bd 9ebe 1afd e73e a863 fabe
00000080: eb6e 743e 71e3 0bbf 733b 6fbe a0fe b7bb
00000090: b1cc 4ebe 170f 3dbf feae 87be f108 793e
000000a0: c9a9 313f c300 8bbe f424 29bb 4f30 51bf
000000b0: 3907 cdbe ba89 9ebe 8e8d 0dc0 e289 613e
000000c0: 56e1 5bbd e1a5 3d3f a8f1 0ebf b0f6 593f
000000d0: da70 343f a4a6 553f 2cff 8c3e d693 b6be
-0.20280223 0.39571804 0.15600608 0.52633303 0.03888859 -0.47022185 0.15098894 -0.44092336
1.0019305 -0.5533798 0.26250005 -0.58738583 0.54024774 0.5910857 0.39999172 0.3152986
0.22257565 -0.38203296 -0.29315892 0.10723145 -0.5865965 0.5480774 -0.3732519 0.4481276
0.16815512 0.41174287 -0.26685783 -0.7211752 0.3824083 -0.31003782 0.4531029 -0.48904157
0.23870437 -0.54643923 -0.23362522 -0.0056150705 -0.20195271 -0.7385115 -0.26500696 0.24319817
0.69399697 -0.2714902 -0.002580938 -0.8171434 -0.40044573 -0.30964452 -2.2117648 0.22025254
-0.053681694 0.74081236 -0.5583749 0.8514204 0.704847 0.834574 0.2753843 -0.35659665

BRD_net.encoder.0.bias f4 [8]
00000000: 6972 af3e 2853 63be 49d8 91be 4e44 e4be
00000010: b9b9 6f3e 5ddd 80bd c290 82bd 1808 3a3d
0.34266976 -0.2219969 -0.28485325 -0.44583362 0.23410691 -0.06292222 -0.063752666 0.045417875

BRD_net.encoder.2.weight f4 [8, 8]
00000000: 0962 cabe ae42 cebe 32b0 7d3e 05da 683e
00000010: 9053 513e 2fab cbbe de40 bebe da70 ef3e
00000020: a5b6 91be 8bb8 fcbe aea4 623d 74d3 16be
00000030: c907 92bd d7b2 9f3e 3b2a 6a3e 6a7a 11bf
00000040: 8426 24be 8ac5 56be 1563 0e3f 06f1 ab3e
00000050: efbf 8b3e 9e4d 283f fef1 923e 0372 33bf
00000060: 0868 e53e d1f6 2cbe 68bf 8cbe 20d3 a6be
00000070: 9868 9c3e fadb 26be 4b07 e7be aef3 c8be
00000080: a636 39be 7ebd 0c3f 935e 113f d97f f13e
00000090: f09d ef3d c811 86bd 4685 d7bd 32ae dcbe
000000a0: a700 7e3e 5513 ffbe 3030 8d3d 0e21 b83e
000000b0: 9b0f 0d3f c5bb 07bf 8adc 043f 3af3 afbe
000000c0: edd5 9fbe 5b2b 2a3f ebc4 e73e 955b 49be
000000d0: 2ea4 903e d8a7 05bf 2a48 f63e 64ab fa3e
000000e0: 5719 85be 9bbb 443e 61ca 123e 086f a7be
000000f0: 049f a9be b628 7abd 5115 f9be 4096 16bf
-0.3952792 -0.40285248 0.24774244 0.22739418 0.20442033 -0.3977904 -0.37158865 0.46765786
-0.2845966 -0.49359545 0.055332832 -0.147291 -0.07130391 0.3119113 0.22867672 -0.56827414
-0.16030318 -0.20973793 0.5561994 0.33582324 0.2729487 0.65743434 0.2870025 -0.70095843
0.44805932 -0.16891028 -0.2748978 -0.3258295 0.3054855 -0.16294852 -0.45122752 -0.39248413
-0.18087253 0.5497664 0.56784934 0.47167853 0.11700046 -0.0654636 -0.10523467 -0.4310165
0.24804936 -0.49819437 0.06893957 0.3596272 0.5510194 -0.5302089 0.51899016 -0.34365255
-0.312179 0.66472405 0.45267424 -0.19663842 0.2825026 -0.52209234 0.48101932 0.48958886
-0.25995895 0.19212191 0.14335014 -0.32701898 -0.33129132 -0.06107398 -0.48649076 -0.58823013

BRD_net.encoder.2.bias f4 [8]
00000000: 18ec ae3c 5b5f 693e 3ec6 25bd 6c9f 28be
00000010: e2ac e6bd e7ec de3e ae39 043e 69cd 2abe
0.021352813 0.22790281 -0.04047226 -0.16467065 -0.112634435 0.43540117 0.12912628 -0.1667992

BRD_net.decoder.weight f4 [1, 8]
00000000: ac89 2a3e 67bb d7be 6d1d 06bf 1dfe 50be
00000010: 3fb3 1cbf 4942 5d3f 4be9 2fbe 2db9 16bf
0.1665408 -0.42135164 -0.5238865 -0.20409437 -0.6121101 0.8642927 -0.17178838 -0.58876306
