example/Embryogenesis/Output/ckpt_itr4800.pth (torch, 8074 bytes, 15 tensors)

GRN_net.encoder.0.weight f4 [10, 6]
000000 84 5f fe bd 58 b9 57 be cc d8 15 3d 42 7a f8 3d
       -0.12420562 -0.21066797 0.036583707 0.12132694
000010 ac c6 a5 3e 29 03 25 3e a7 32 81 3e 8b e4 83 3e
       0.32378137 0.16114487 0.25233957 0.25760302
000020 f7 2b 5a 3e e0 b3 37 3d 27 69 00 be bc 68 f2 3e
       0.21305834 0.044849277 -0.12540112 0.4734553
000030 2b f7 00 3e 98 5a fc 3e d3 8b 21 3f fc eb 31 be
       0.12594287 0.49287868 0.6310398 -0.17375177
000040 ae 78 10 3f e1 54 6b bd ac 31 fd 3e f2 bf 33 3f
       0.5643414 -0.057453994 0.4945196 0.7021476
000050 b1 e9 ee be de b7 0a 3d ea 18 e6 be a4 b7 f1 be
       -0.46662667 0.033866756 -0.44940883 -0.4721042
000060 64 a2 6a be 4b b1 7c be 70 aa 2a be a4 b3 12 bf
       -0.2291351 -0.24677007 -0.16666579 -0.5730536
000070 83 98 b1 be 96 4e 11 bd 37 ec 83 bd 08 aa 92 3e
       -0.3468667 -0.035475336 -0.06441539 0.2864535
000080 54 f9 c0 3e e6 69 9d 3e c7 79 fb 3e b3 d7 0c bf
       0.37690222 0.30744857 0.49116346 -0.5501663
000090 36 02 0c 3f 38 cc 40 bf d8 69 ae bd c9 1b a6 3e
       0.54690874 -0.75311613 -0.08516282 0.32443073
0000a0 da 89 9a 3e ff fd d3 be 10 96 8a be ee bf 02 bf
       0.30183297 -0.4140472 -0.27067614 -0.5107411
0000b0 6e dd 8e be 2e cd 02 be d5 2c 64 3f c8 ac 08 be
       -0.27903312 -0.12773582 0.8913091 -0.13347161
0000c0 aa 1c da bd 4c 6a ed be a2 4e 5b 3f 94 e2 8a be
       -0.106499985 -0.4637016 0.8566686 -0.2712599
0000d0 17 ed 1f bf f8 8c e4 3e 9c d9 db bd 3b 08 19 3f
       -0.62471145 0.446388 -0.10734865 0.59778184
0000e0 e0 e7 1f bf 51 01 f7 be 3c 2f ab be ab b6 98 3e
       -0.6246319 -0.48243192 -0.33434474 0.29826865

GRN_net.encoder.0.bias f4 [10]
000000 8b 4e a2 be f0 9f 9e 3e ce 96 a8 3e 5d db 8f 3e
       -0.3170055 0.30981398 0.32927555 0.28097048
000010 b3 d5 96 be 94 87 1f be 68 54 0f bd 38 2f a8 3d
       -0.29459915 -0.15579063 -0.034992605 0.08212131
000020 10 0c 90 be 6c ea 90 be
       -0.28134203 -0.2830385

GRN_net.encoder.2.weight f4 [10, 10]
000000 16 c1 ca bd 18 9c cf be 7c 6e 57 3e 08 29 01 bd
       -0.099001095 -0.40548778 0.2103824 -0.03153327
000010 8f 04 2d 3e 5b ca 93 be eb 65 fa be 0c 17 98 3e
       0.1689627 -0.28865322 -0.48905882 0.29705083
000020 4e de c1 be 2d ac cf 3e 35 c4 df 3e 55 d3 e6 be
       -0.37864918 0.40561047 0.43704382 -0.4508311
000030 7f 48 12 bf 34 fb 9b 3d 86 2e 7c be d8 f8 5e 3d
       -0.5714187 0.076162726 -0.24627122 0.054436535
000040 81 22 8c be 71 5d 42 be 4f 86 03 bf 17 b8 c7 3e
       -0.27370074 -0.18980958 -0.51376814 0.39007637
000050 d0 22 d6 be d5 34 c0 be b3 4f 45 bd 0c 3f b2 be
       -0.41823435 -0.37540308 -0.04817171 -0.34813726
000060 b0 78 fd be 43 57 c4 3e 55 7f 18 be c8 7f 7d 3e
       -0.4950614 0.38347825 -0.14892323 0.24755776
000070 db 82 b2 3e ff 0f d7 be 38 5d 11 bf e2 f4 1c be
       0.3486546 -0.42004392 -0.56782866 -0.1532779
000080 d2 bc ae 3e b0 0c 1c 3d 95 a4 61 be 76 03 bd 3e
       0.34128433 0.038098037 -0.2203544 0.36916703
000090 34 51 0b 3f 8f a4 ae 3e c5 47 ee be c8 f9 dc bd
       0.5442078 0.34109923 -0.4653913 -0.107898295
0000a0 f5 4d 94 be 37 51 d9 3e f2 c0 91 be 5d 81 55 be
       -0.28965726 0.42444775 -0.28467518 -0.2085013
0000b0 06 a8 80 3c 6c 3e 26 bd cb fb d8 3e 04 51 61 3d
       0.01570512 -0.040586874 0.42379603 0.055008903
0000c0 cf 80 e4 be 16 12 df 3e 86 ad cb 3e 06 b3 a0 3d
       -0.44629523 0.43568486 0.39780825 0.07846646
0000d0 f0 e8 03 bf 0b 62 73 3e 6e 00 cb 3e b3 42 30 3e
       -0.5152731 0.23767869 0.39648765 0.17212944
0000e0 b5 54 45 be bd 13 ac 3d 93 16 ab be 68 68 0e 3f
       -0.19270594 0.08402202 -0.3341566 0.5562806
0000f0 e3 4f fd 3e f0 33 10 be 1f 5d ea be 63 49 bd 3e
       0.4947501 -0.14082313 -0.4577417 0.36970052
000100 b0 1e b1 3e 7f af 8b 3e 79 2d af be ca 1e 5b 3e
       0.34593725 0.2728233 -0.3421438 0.21398464
000110 2f 34 4d be c0 ad fd be 96 f9 95 be 15 4b 4a 3e
       -0.20039438 -0.49546623 -0.2929198 0.19755204
000120 bc fe 87 3e f3 b8 0a bf bf 8c 83 3e bf a2 8d 3e
       0.26561534 -0.5418846 0.25693318 0.27663228
000130 fe 7e 00 3f 36 ed f3 3e 6e 1c 7f be 7c 0f 86 3e
       0.50193775 0.47641915 -0.24913189 0.2618369
000140 e0 9d 24 3f f7 b6 05 3e 56 52 cc be 2b 14 20 be
       0.643034 0.13058077 -0.39906567 -0.15632693
000150 53 9e f8 3e fa e9 ad 3e 3d f7 f6 3e 03 17 de bd
       0.48558292 0.33967572 0.48235503 -0.10844233
000160 9d 4d 92 bc 74 43 e3 be 8d e8 82 be 76 e6 b1 3e
       -0.017859275 -0.443874 -0.25568047 0.3474614
000170 63 20 04 bf 94 ec 7e be 43 81 00 3e 4b 08 9d be
       -0.5161192 -0.24894935 0.1254931 -0.3067039
000180 ce 44 4a 3d 31 b8 8a 3c 82 80 94 3e 51 65 c9 be
       0.049382024 0.016933532 0.29004294 -0.3933511

GRN_net.encoder.2.bias f4 [10]
000000 77 d9 93 bd 76 0a 24 3d 2d 76 af 3d 25 f4 ca 3d
       -0.072192125 0.04004904 0.08567462 0.09909848
000010 d6 29 a8 3e 6e 59 7b 3e f0 ba 1e 3e e6 e2 b4 3b
       0.32844418 0.24545833 0.15500998 0.0055202125
000020 39 53 87 be 54 82 87 3e
       -0.2643068 0.2646662

GRN_net.encoder.4.weight f4 [10, 10]
000000 07 67 91 3c 84 51 f9 be 82 3b 95 3e c3 87 03 3f
       0.017749323 -0.48695004 0.29146963 0.5137903
000010 9c 4d 14 be 96 f0 83 3d 95 5b 8c be 36 b6 ef be
       -0.1448273 0.064423725 -0.27413622 -0.46818703
000020 9a 90 9d be 04 db 45 be 3a 8b 0e 3e 56 58 8c 3d
       -0.30774385 -0.19321829 0.13920298 0.06852786
000030 2e bd 84 3d 14 fa ca be 7e d6 c0 be ee 45 d1 be
       0.06481396 -0.3964392 -0.37663645 -0.40873665
000040 28 65 b6 be d6 84 ef 3e ad 13 55 3e fb 08 0d bf
       -0.3562405 0.46781033 0.20808287 -0.5509183
000050 47 31 d4 bd d2 29 4a 3d c0 40 c9 3e 91 5e 07 3f
       -0.103609614 0.04935629 0.39307213 0.5287867
000060 6b 9c 93 be 29 72 b9 3e 65 b7 e2 bd ee 69 81 3d
       -0.28830275 0.3621991 -0.11070136 0.063190326
000070 a5 da 8b be 34 74 97 3d 4f f4 f1 3e 33 ef c1 3e
       -0.2731525 0.07395211 0.47256705 0.37877807
000080 42 a1 b7 3e 79 d8 6a be 0a ea 5e bd 6b 71 0c 3e
       0.35865217 -0.2293414 -0.054422416 0.1371514
000090 6e cc c1 3e 45 3c 02 bf 5c 58 80 be c8 dd 44 3c
       0.3785128 -0.50873214 -0.25067413 0.012015767
0000a0 fa 17 97 be 4e dc 26 3e 21 c3 ac bc 6e 7b 18 be
       -0.2951048 0.16294977 -0.021089138 -0.14890835
0000b0 fc ed 33 3e 6e 34 b6 3e c4 8e 01 3f b1 60 9c 3e
       0.17571253 0.35586876 0.5060847 0.3054252
0000c0 be 73 17 3c 61 52 d8 3e 90 e0 f6 3e 67 e9 13 bf
       0.009243904 0.4225035 0.48218203 -0.5777802
0000d0 36 cd 8f 3e 94 4e 80 39 a1 6e a7 be 2e 35 d8 bd
       0.2808625 0.00024472608 -0.3270159 -0.10557018
0000e0 0e f3 eb bd a4 26 77 be 2e fa 36 be 68 0a e6 3d
       -0.115209684 -0.24135834 -0.17868873 0.112324536
0000f0 b8 d8 10 3e 3c 99 8f 3d e4 7d 0a bf a3 a5 98 3e
       0.14145172 0.07011649 -0.54098344 0.2981387
000100 09 dd aa bd a9 ba da 3e e3 c6 02 bf 68 9c 0d be
       -0.0834294 0.42720535 -0.5108473 -0.13829195
000110 58 28 d3 3e f8 18 7f 3e bd 93 88 be 35 66 f7 be
       0.41241717 0.24911869 -0.26675215 -0.48320165
000120 13 31 81 3d e3 ba 2d 3e 71 2b 19 bf 23 a6 ef be
       0.06308188 0.16965823 -0.5983191 -0.4680644
000130 30 ff 8b bb d4 fd dd bd d1 59 c4 3e 63 94 09 bf
       -0.004272364 -0.108394295 0.38349774 -0.53742045
000140 37 6d 28 be 18 75 da be a6 c6 f2 bc 9e fc 4e be
       -0.16447912 -0.4266746 -0.029635739 -0.20213553
000150 9c 7e 27 3e 12 53 0a bf da fe e3 be c3 e5 ae be
       0.16356891 -0.54033005 -0.44530374 -0.3415967
000160 be 87 08 bf ff cf f0 3e bf 75 f8 bd 31 d2 b8 be
       -0.53332126 0.47033688 -0.12131833 -0.36097863
000170 b3 b5 2d 3e b3 b1 c1 bd 75 f8 74 3e f3 f0 3b be
       0.16963844 -0.094577216 0.23922904 -0.18353634
000180 53 e6 08 bf 8a a2 8d 3e d3 7f ed 3e 83 ba 12 bf
       -0.53476447 0.2766307 0.46386585 -0.57315844

GRN_net.encoder.4.bias f4 [10]
000000 57 09 f4 bb e7 15 23 3d 3b 99 8b 3e c0 b3 b1 3d
       -0.0074474025 0.03981581 0.27265343 0.08676863
000010 db fd 2d be c0 bc 3d be 49 39 85 be 3b 2b 82 3e
       -0.1699137 -0.18529034 -0.26020268 0.25423607
000020 5a 34 2b 3d bc 15 c1 3d
       0.041797973 0.09427974

GRN_net.encoder.6.weight f4 [10, 10]
000000 18 a9 c6 3d 09 8c 3a 3d 90 4b 88 3c 77 81 6b bd
       0.09700221 0.045543704 0.016637594 -0.057496514
000010 55 e2 1f be cd 71 ca be 6c 8b 0f 3e c1 be f7 be
       -0.15613683 -0.39539948 0.14018029 -0.4838772
000020 4f d0 e7 be 7a db 2f be 47 7f b4 be d1 bc f0 3d
       -0.45276114 -0.17173567 -0.35253355 0.11754764
000030 88 0c bd 3e 2e 57 de 3e 65 98 93 be 0d 94 ad 3e
       0.36923623 0.43425888 -0.28827205 0.33902016
000040 3e 61 cb 3e d0 17 db bc 14 6b 81 3e dc 88 90 3e
       0.39722627 -0.026744753 0.25277007 0.28229415
000050 fa e0 01 3f 52 9a 3f 3e 87 ca 97 3e 7c ba db bd
       0.5073391 0.18711212 0.29646704 -0.107289284
000060 c8 2c 85 be 19 0e 62 be d4 ec c0 3e cb 59 44 bd
       -0.26010728 -0.2207569 0.37680686 -0.047937196
000070 09 79 07 3e dc a4 19 bf 78 86 1d 3c be 72 81 be
       0.13229765 -0.6001718 0.009614579 -0.25282854
000080 80 d9 7c be b2 b2 e2 3e ca c7 da be 69 8c 56 be
       -0.24692345 0.4427696 -0.42730552 -0.20952
000090 9d ce 27 bd 1d 4c 00 bf 50 7b 95 3e ad f6 99 be
       -0.040968526 -0.5011614 0.29195642 -0.3007101
0000a0 24 f2 84 3e 77 95 e5 3e 45 b7 bb 3e 6a ed 16 be
       0.2596599 0.44840595 0.3666326 -0.14739004
0000b0 34 0b a7 3e da 8d 11 3f 56 ff 1e 3e 9b bc aa bd
       0.32625735 0.56857073 0.1552709 -0.08336755
0000c0 a5 a3 4f be e4 23 18 3e 32 ba d7 3d 76 19 c7 be
       -0.20277269 0.14857441 0.10533561 -0.38886613
0000d0 9e 20 ab 3e 85 4f c0 3d 60 49 09 bf 90 7e 63 3e
       0.33423322 0.09390167 -0.53627586 0.22216249
0000e0 33 ca ae 3e ef c0 24 3e 9f a5 d3 3e 15 97 3b 3e
       0.3413864 0.16089223 0.41337296 0.18319352
0000f0 68 9e da be a5 fe 6a bd b4 f0 cf 3e 00 01 59 be
       -0.4269898 -0.057371754 0.4061333 -0.21191788
000100 25 f5 28 3e 11 3f 37 3e 2b 26 f2 bd b0 54 b4 3b
       0.16499765 0.17895152 -0.11823686 0.0055032596
000110 32 7c 5a 3e b1 71 cb be eb 73 aa 3e 25 d5 ac 3e
       0.21336439 -0.39735177 0.33291563 0.33756366
000120 c5 94 45 3e ce 00 f6 3e c6 55 17 3d 14 84 14 bf
       0.19295032 0.4804749 0.036947034 -0.58014035
000130 96 4f 5f 3d 71 23 0c be f8 b3 2e 3e 01 66 e7 3e
       0.05451926 -0.13685395 0.1706084 0.4519501
000140 44 85 6d be 14 55 d1 3d ec 5c 15 3f c0 3a d7 be
       -0.23195368 0.102213055 0.5834491 -0.4203701
000150 74 e2 b0 bd 96 0e ca 3e 14 a0 03 3f 67 00 6a 3e
       -0.086369425 0.39464253 0.51416135 0.22851716
000160 67 5e 92 be 4f 4b 23 3d 79 e5 f8 be 6e 0a 88 be
       -0.28587648 0.03986674 -0.48612574 -0.26570457
000170 df 94 0b bf 65 20 fd 3e d2 40 b9 3e 0c 54 7e 3e
       -0.54524034 0.49438778 0.36182266 0.24836749
000180 1b 37 56 be 86 61 04 3f c1 37 24 be c0 7c cd 3e
       -0.20919459 0.5171131 -0.16036893 0.4013424

GRN_net.encoder.6.bias f4 [10]
000000 e9 0d e0 3b 25 df 61 3e 9e 9b db 3d 34 7c 83 bd
       0.0068375957 0.22057779 0.10723041 -0.06420174
000010 5e d0 83 3e b2 8a d0 3b 59 9a 64 3e 5c 5c b5 3d
       0.2574491 0.00636419 0.22324504 0.08855507
000020 85 b2 68 3e 25 27 4e 3e
       0.2272435 0.2013212

GRN_net.decoder.0.weight f4 [6, 10]
000000 d8 71 1e 3c 62 0c bb be 7d 66 37 be fe ec 71 be
       0.009670697 -0.36532885 -0.1791019 -0.23625562
000010 90 e5 14 bf 8d 22 fa 3d 89 bc 35 be 66 ff 5b 3e
       -0.58162785 0.12213621 -0.17747702 0.21484146
000020 33 a2 e6 3e 25 b0 c4 bd bd a9 72 3e 8b ab 69 3e
       0.45045623 -0.096039094 0.23697563 0.22819345
000030 d5 a4 3f 3e d2 3f 8a be c3 a4 36 be 3c 3e 84 3e
       0.18715222 -0.27001816 -0.17836289 0.2582873
000040 02 dc 03 3f ba 10 1c bf b4 42 d4 be ee 92 f4 3d
       0.5150758 -0.6096302 -0.4145714 0.11942087
000050 93 ef 04 3f 6f 8f 85 3e bb 57 1f bf 72 c0 fd be
       0.5192806 0.26085994 -0.6224324 -0.49560887
000060 2b 58 1f 3f 3d 85 76 3b df 34 14 bf 7b 02 56 be
       0.6224391 0.0037616037 -0.57893175 -0.20899384
000070 e5 77 84 3e 32 5c f8 bd d9 50 e2 be 9b 0b b2 be
       0.25872722 -0.1212696 -0.44202307 -0.3477448
000080 f2 f6 a6 be 55 9b fe 3c db 52 4c 3e 01 ff 49 3e
       -0.3261028 0.031079927 0.19953482 0.19726183
000090 aa 09 9a be ea cc 58 be a8 f3 f8 be b5 20 e7 3e
       -0.30085498 -0.21171919 -0.48623395 0.4514214
0000a0 71 45 57 3f 87 4f 1a 3f ff 07 74 3e a8 08 5a bd
       0.84090334 0.602776 0.23831175 -0.05323091
0000b0 71 67 30 be 6b 33 be 3e fc 31 ec be d9 65 96 3b
       -0.1722696 0.37148604 -0.46131885 0.004589778
0000c0 9b 6b f7 be 06 f2 0c bf a4 08 a2 3d 17 42 ea bc
       -0.48324284 -0.550568 0.07911804 -0.028595967
0000d0 2e bb e8 be 15 0a 85 3e 5d 50 1e 3e 56 53 46 3d
       -0.45455307 0.25984254 0.15460344 0.04841932
0000e0 2a e1 c6 be 2a db 00 bf de 53 42 3a 77 11 4f be
       -0.38843662 -0.5033442 0.000741301 -0.20221506

GRN_net.decoder.0.bias f4 [6]
000000 cf 46 05 3e 80 e1 9d be b0 65 3e 3e a6 1f be 3d
       0.13015293 -0.30836105 0.18593478 0.0928338
000010 d4 1d 14 bd 33 d5 d6 3d
       -0.03616126 0.10489883

BRD_net.encoder.0.weight f4 [8, 7]
000000 65 42 50 be fc ec c7 3e 1e fc 27 3e 55 e2 08 3f
       -0.20337828 0.39047992 0.16404769 0.53470355
000010 b7 05 26 3d 2e f2 ee be 2f be 1b 3e 3c 6d e4 be
       0.040532794 -0.46669143 0.15209268 -0.4461459
000020 6a 9f 83 3f f7 9c 0d bf d9 f0 87 3e ac 02 19 bf
       1.0283024 -0.55317634 0.2655094 -0.597697
000030 18 60 0c 3f ae e4 15 3f eb 42 cd 3e c9 bd ab 3e
       0.5483413 0.5855206 0.40090117 0.33543232
000040 94 fe 51 3e 5f 40 c9 be 60 17 a1 be b3 64 26 3d
       0.2050727 -0.39306924 -0.31463146 0.040623378
000050 55 62 16 bf 32 33 0e 3f a4 75 ba be 2b 63 e9 3e
       -0.5874379 0.5554687 -0.36417878 0.45583472
000060 5e 92 26 3e cb be c7 3e df ec 96 be 08 14 31 bf
       0.16266772 0.3901275 -0.29477593 -0.6917119
000070 08 f9 c7 3e 49 0f 92 be 97 54 e6 3e 12 21 fe be
       0.39057183 -0.28527287 0.44986412 -0.49634606
000080 66 9c 64 3e b3 6a 10 bf 62 73 6a be 44 a3 a1 bb
       0.22325286 -0.5641281 -0.22895578 -0.004932793
000090 04 f4 48 be d0 cd 3e bf c1 36 87 be 6b f8 7c 3e
       -0.19624335 -0.74532795 -0.2640896 0.24704139
0000a0 f9 d8 31 3f 4e 1b 8b be 76 1b cc 3a 44 ea 55 bf
       0.694717 -0.2716927 0.0015572149 -0.83560586
0000b0 7c 97 b7 be d3 1b 98 be 5c c7 ce bf 77 0e 4d 3e
       -0.3585776 -0.29708728 -1.615459 0.20025049
0000c0 49 cb c6 bb bf b1 3b 3f 5a 0e 05 bf 97 d6 57 3f
       -0.006066714 0.73318094 -0.51975024 0.84311813
0000d0 87 b7 35 3f 34 4f 59 3f 67 45 94 3e 8e ed b9 be
       0.70983166 0.8488648 0.289592 -0.36314052

BRD_net.encoder.0.bias f4 [8]
000000 b2 4a af 3e 08 ec 64 be 69 7a 91 be 24 d8 c3 be
       0.34236676 -0.22355664 -0.28413704 -0.3825084
000010 7a e7 6f 3e f2 44 7d bd c6 1f 54 bd 7c 4e 00 3d
       0.23428145 -0.06183333 -0.051788114 0.03132485

BRD_net.encoder.2.weight f4 [8, 8]
000000 0f 6c cc be 2a b1 ce be b4 32 82 3e c4 34 6d 3e
       -0.39926192 -0.4036954 0.25429308 0.2316466
000010 57 bc 54 3e a0 2b cb be fa 98 c4 be 5e 94 ef 3e
       0.20774971 -0.3968172 -0.38397962 0.46792883
000020 fa ba 8b be df 58 fd be 10 71 6e 3d de 73 15 be
       -0.2729109 -0.49481866 0.058213294 -0.14594981
000030 0f 25 90 bd 38 10 9d 3e 55 5a 70 3e ce 64 11 bf
       -0.07038318 0.30676436 0.23471959 -0.5679444
000040 e7 b6 de bd 73 b5 59 be df 64 0f 3f 3f 9e ac 3e
       -0.108747296 -0.21260624 0.5601329 0.33714482
000050 ec 4a 8d 3e 19 0a 26 3f 60 3d 97 3e 25 fb 32 bf
       0.27596223 0.6485916 0.29539013 -0.69914466
000060 81 33 ed 3e 4a 02 31 be 78 ff 87 be 52 82 a4 be
       0.46328357 -0.1728603 -0.26562095 -0.32130677
000070 9e 02 9e 3e 1b e4 2d be da bf da be cd 50 c8 be
       0.30861372 -0.16981547 -0.42724496 -0.39124146
000080 f4 75 0c be f8 6e 0c 3f 2b ca 11 3f 82 16 f2 3e
       -0.1371687 0.54856825 0.5694911 0.47282797
000090 b5 2c f2 3d 80 b8 9b bd 5a 10 db bd 8c 89 dc be
       0.118249334 -0.0760355 -0.10696478 -0.4307369
0000a0 e7 14 80 3e 5b 04 01 bf 7f 6d 98 3d 1e d0 b8 3e
       0.25015947 -0.5039727 0.0744276 0.3609628
0000b0 65 0c 0f 3f 1e 1f 0a bf f7 ac 02 3f 90 dc ae be
       0.5587829 -0.5395373 0.51045173 -0.3415265
0000c0 83 73 9f be 2f 5f 2a 3f 41 be eb 3e ed 6c 48 be
       -0.31142816 0.6655149 0.4604359 -0.19572802
0000d0 02 50 90 3e 92 69 05 bf 46 ff fa 3e 94 cb f9 3e
       0.2818604 -0.5211421 0.49022883 0.4878813
0000e0 42 d5 85 be 75 8d 46 3e 70 17 1f 3e 05 ff a6 be
       -0.26139265 0.19389899 0.15536284 -0.3261644
0000f0 c5 d3 aa be bd 95 6a bd c9 0e f4 be 41 be 16 bf
       -0.33364692 -0.057271708 -0.4766753 -0.58884054

BRD_net.encoder.2.bias f4 [8]
000000 71 e6 9f 3c bc 26 6b 3e 60 f3 16 bd 95 e7 23 be
       0.019519063 0.22963995 -0.036853194 -0.1600631
000010 d3 a9 e3 bd 20 47 df 3e 4d d0 03 3e 0c a2 29 be
       -0.11116376 0.43608952 0.12872429 -0.16565722

BRD_net.decoder.weight f4 [1, 8]
000000 9b 8c 2b 3e 7e d4 d7 be 67 e9 05 bf be 8b 45 be
       0.16752855 -0.42154306 -0.5230927 -0.19291589
000010 eb 8c 1c bf 75 02 5d 3f 9a cf 34 be b5 57 16 bf
       -0.61152524 0.86331874 -0.17657319 -0.5872758
