example/Embryogenesis/Output/ckpt_itr4000.pth (torch, 8074 bytes, 15 tensors)

GRN_net.encoder.0.weight f4 [10, 6]
0	0xbdfd19b6	-0.123584196
1	0xbe577bb9	-0.2104329
2	0x3d139823	0.03603376
3	0x3df77e14	0.12084594
4	0x3ea45a90	0.32100344
5	0x3e26a29c	0.16272968
6	0x3e877c6d	0.26462117
7	0x3e84c895	0.25934282
8	0x3e59b5be	0.21260735
9	0x3d33dd5f	0.043912288
10	0xbdb7a9c7	-0.08967929
11	0x3ef29e9b	0.4738663
12	0x3e06eeec	0.13177079
13	0x3efadcdc	0.48996627
14	0x3f21821b	0.6308915
15	0xbe381cca	-0.17979732
16	0x3f1159d1	0.56777674
17	0xbd6844a1	-0.056706075
18	0x3efc9d7e	0.49338907
19	0x3f339bcc	0.701596
20	0xbeedc0e2	-0.4643622
21	0x3d3aabc9	0.045573983
22	0xbee706af	-0.45122287
23	0xbeec28e0	-0.46124935
24	0xbe66caca	-0.22538295
25	0xbe79c135	-0.24390109
26	0xbe2bae13	-0.16765623
27	0xbf132c84	-0.574898
28	0xbeb00234	-0.3437668
29	0xbd0be3e6	-0.034152888
30	0xbd8d50ca	-0.06900175
31	0x3e93dfcc	0.2888168
32	0x3ebf0a3c	0.37312496
33	0x3e9bd1be	0.30433458
34	0x3efb9fb8	0.49145293
35	0xbf0bea02	-0.5465394
36	0x3f0aa6c9	0.54160744
37	0xbf40d934	-0.75331426
38	0xbdb2f8c0	-0.087388515
39	0x3e9ba9ae	0.30402893
40	0x3e9d66ac	0.30742395
41	0xbecd7015	-0.40124574
42	0xbe8d0c93	-0.27548656
43	0xbf00cfeb	-0.5031726
44	0xbe8ce50a	-0.27518493
45	0xbdfe87ca	-0.124282435
46	0x3f64cb1a	0.8937241
47	0xbe051d9b	-0.12999575
48	0xbdb5e555	-0.08881632
49	0xbef48fa0	-0.47765827
50	0x3f55df5a	0.8354393
51	0xbe8af2c6	-0.27138346
52	0xbf20f58e	-0.62874687
53	0x3ee43d7b	0.44578156
54	0xbddeba6f	-0.10875403
55	0x3f24a2d3	0.6431095
56	0xbf1d51e9	-0.6145311
57	0xbef6f62a	-0.48234683
58	0xbea9ef86	-0.33190554
59	0x3e97d745	0.29656425

GRN_net.encoder.0.bias f4 [10]
0	0xbea2a684	-0.31767666
1	0x3ea2dde0	0.31809902
2	0x3eab080d	0.3340458
3	0x3e91ba78	0.28462577
4	0xbe978608	-0.29594445
5	0xbe293205	-0.16522987
6	0xbcfa3a4a	-0.030545373
7	0x3db33c9e	0.08751796
8	0xbe9434b4	-0.2894646
9	0xbe91b495	-0.28458086

GRN_net.encoder.2.weight f4 [10, 10]
0	0xbddb01ee	-0.106937274
1	0xbed18c9b	-0.40927586
2	0x3e56dd7d	0.20982929
3	0xbcb85713	-0.022502458
4	0x3e2e3248	0.17011368
5	0xbe9224a2	-0.28543574
6	0xbefa2758	-0.48858142
7	0x3e961c1e	0.29318327
8	0xbec2e3de	-0.38064474
9	0x3ed089d7	0.40730163
10	0x3ee09716	0.4386527
11	0xbee66342	-0.44997603
12	0xbf10ab20	-0.56511116
13	0x3d9bef86	0.07614045
14	0xbe8337ed	-0.25628605
15	0x3d5b08a7	0.05347505
16	0xbe8d28ca	-0.27570182
17	0xbe436575	-0.19081672
18	0xbf0351e3	-0.51296824
19	0x3ec5adad	0.38609067
20	0xbed71c0a	-0.4201358
21	0xbec058ca	-0.3756774
22	0xbd46d468	-0.04854241
23	0xbebd0a99	-0.36922148
24	0xbef7dfaa	-0.4841283
25	0x3ebefef3	0.37303886
26	0xbe1db0ff	-0.1539955
27	0x3e7b6f18	0.24554098
28	0x3eb3716f	0.3504748
29	0xbecfc92f	-0.40583178
30	0xbf07c99d	-0.5304201
31	0xbe1a3dde	-0.15062663
32	0x3eb1186c	0.34588945
33	0x3c7a4171	0.0152743915
34	0xbe6284ba	-0.22120944
35	0x3ebd5258	0.36976886
36	0x3f0a5ac1	0.5404473
37	0x3eb7b2fb	0.3587874
38	0xbee80f27	-0.4532406
39	0xbde12169	-0.109927006
40	0xbe9a7461	-0.30166915
41	0x3ed890ef	0.42298076
42	0xbe90ea43	-0.28303728
43	0xbe466ba3	-0.19376998
44	0x3c4b4b83	0.01240814
45	0xbd12d1cd	-0.035844613
46	0x3ed7f870	0.4218173
47	0x3d5f8a9f	0.05457556
48	0xbee74122	-0.4516688
49	0x3ede4216	0.43409795
50	0x3ecc66aa	0.39922076
51	0x3d9f6d7e	0.07784556
52	0xbef92846	-0.4866354
53	0x3e748a22	0.23880818
54	0x3ec9d8ab	0.39423117
55	0x3e365310	0.17805123
56	0xbe4683c3	-0.193862
57	0x3daccac9	0.08437116
58	0xbeadbc53	-0.33932742
59	0x3f0ce8c1	0.55042654
60	0x3efc54b6	0.4928338
61	0xbe104dd1	-0.14092185
62	0xbeebc3e3	-0.46047887
63	0x3eb62a5c	0.35579193
64	0x3eaf9119	0.34290388
65	0x3e8bc8c6	0.27301615
66	0xbeb09e93	-0.34495983
67	0x3e57f2d9	0.21088733
68	0xbe47266d	-0.19448252
69	0xbefd6927	-0.49494287
70	0xbe958027	-0.29199335
71	0x3e5aa557	0.21352135
72	0x3e91c622	0.28471476
73	0xbf0b1375	-0.54326564
74	0x3e86eef1	0.26354173
75	0x3e8af4fd	0.27140036
76	0x3f00a29b	0.50248116
77	0x3ef438a3	0.4769946
78	0xbe6e952d	-0.23299094
79	0x3e8b1525	0.2716457
80	0x3f1f5c86	0.62250555
81	0x3e1a4c99	0.15068282
82	0xbecb5043	-0.39709672
83	0xbe20c88c	-0.15701503
84	0x3ef9a534	0.48758852
85	0x3eacc67a	0.33745176
86	0x3ef782ff	0.4834213
87	0xbdd8f34e	-0.10593282
88	0xbc8d7a8b	-0.017270347
89	0xbee2e80d	-0.44317666
90	0xbe821322	-0.25405222
91	0x3eae7b03	0.34078225
92	0xbf042776	-0.5162271
93	0xbe85f270	-0.26161528
94	0x3df9cbbb	0.12197062
95	0xbe942621	-0.2893534
96	0x3d47e6ca	0.048804082
97	0x3c7f5eb4	0.015586544
98	0x3e93f95e	0.2890119
99	0xbecb90c9	-0.397589

GRN_net.encoder.2.bias f4 [10]
0	0xbd9a8255	-0.0754439
1	0x3d20fecf	0.039305504
2	0x3daa1ba0	0.0830605
3	0x3dd0952d	0.10184703
4	0x3ea87a26	0.32905692
5	0x3e7a5fcb	0.24450605
6	0x3e1ef4a7	0.15523015
7	0x3b39d342	0.002835468
8	0xbe860eab	-0.26183066
9	0x3e87f538	0.26554275

GRN_net.encoder.4.weight f4 [10, 10]
0	0x3c94fd4e	0.018187191
1	0xbefa51bd	-0.48890486
2	0x3e96240b	0.29324374
3	0x3f033175	0.5124734
4	0xbe167b1d	-0.14695401
5	0x3d81a87e	0.063309655
6	0xbe8b5c55	-0.2721888
7	0xbef02810	-0.46905565
8	0xbe9d2d3b	-0.3069857
9	0xbe46c7a9	-0.19412102
10	0x3e0fbc3a	0.14036646
11	0x3d4fdfe2	0.05075062
12	0x3d5e36a4	0.054251328
13	0xbecb9100	-0.39759064
14	0xbebddb2f	-0.37081286
15	0xbed5ef9c	-0.4178437
16	0xbeba6371	-0.36403993
17	0x3eefa878	0.4680822
18	0x3e5675a8	0.2094332
19	0xbf0cdefb	-0.5502774
20	0xbdd77b03	-0.105215095
21	0x3d252962	0.04032267
22	0x3ec6caab	0.38826498
23	0x3f0794fe	0.5296172
24	0xbe7b6bdd	-0.24552865
25	0x3eb82d71	0.3597217
26	0xbe0b4743	-0.13601403
27	0x3d874023	0.0660403
28	0xbe8cf064	-0.27527153
29	0x3d98d7fe	0.07463072
30	0x3ef15f85	0.47143188
31	0x3ec15ba6	0.37765235
32	0x3eb77c66	0.35837096
33	0xbe6d79fe	-0.23191068
34	0xbd61e3d2	-0.055148907
35	0x3e0b14bb	0.13582127
36	0x3ec0aa73	0.37630042
37	0xbf037b45	-0.5135997
38	0xbe812c23	-0.25228986
39	0x3ca2fb55	0.019895235
40	0xbe952065	-0.29126278
41	0x3e26016d	0.16211481
42	0xbcba8d5f	-0.02277249
43	0xbe199fef	-0.15002416
44	0x3e361dd7	0.1778482
45	0x3eb8b2cf	0.3607392
46	0x3f010390	0.5039606
47	0x3e9e73d8	0.30947757
48	0x3c08641a	0.008324647
49	0x3ed90fbd	0.4239482
50	0x3ef71a17	0.48262092
51	0xbf0e8335	-0.55668956
52	0x3e8fe276	0.28102463
53	0x3b43be67	0.0029868127
54	0xbea75ca9	-0.32687882
55	0xbdd48fef	-0.10379016
56	0xbdebed74	-0.115199
57	0xbe735f13	-0.23766737
58	0xbe355057	-0.17706428
59	0x3dd72123	0.10504367
60	0x3e1e76d8	0.15475023
61	0x3d78559f	0.06062853
62	0xbf0b174f	-0.5433244
63	0x3e995154	0.2994486
64	0xbda7fa24	-0.082020074
65	0x3ed7d31f	0.4215326
66	0xbf025526	-0.50911176
67	0xbe08fa46	-0.13376722
68	0x3ed48b75	0.41512647
69	0x3e7bb442	0.24580482
70	0xbe8932b5	-0.267965
71	0xbef86198	-0.48511958
72	0x3d712c02	0.05887986
73	0x3e2c2a21	0.16812946
74	0xbf16db9a	-0.58928835
75	0xbeef71a0	-0.46766376
76	0xbbdca536	-0.006733562
77	0xbde0d535	-0.10978166
78	0x3ec336c3	0.38127717
79	0xbf08c9d1	-0.5343295
80	0xbe2738e2	-0.16330293
81	0xbed691e3	-0.41908178
82	0xbcffd0d9	-0.031227516
83	0xbe5b2806	-0.21401986
84	0x3e267592	0.16255787
85	0xbf097ce3	-0.53706187
86	0xbee1e0f8	-0.4411695
87	0xbeaf45d5	-0.34232965
88	0xbf0758e5	-0.5287002
89	0x3ef1f574	0.47257578
90	0xbdf55a1e	-0.11980079
91	0xbeb9197d	-0.3615226
92	0x3e1dce89	0.15410818
93	0xbdc0fbd3	-0.09423032
94	0x3e74e1bb	0.23914234
95	0xbe3c0ac6	-0.18363485
96	0xbf08e38e	-0.5347222
97	0x3e904998	0.28181148
98	0x3eec6da7	0.46177408
99	0xbf12dc2b	-0.573672

GRN_net.encoder.4.bias f4 [10]
0	0xbc082a5a	-0.008310879
1	0x3d1cd2a5	0.038286824
2	0x3e8ebfd7	0.27880737
3	0x3db26e53	0.08712449
4	0xbe2cb94c	-0.1686756
5	0xbe3e564d	-0.18587609
6	0xbe871717	-0.26384804
7	0x3e837444	0.2567464
8	0x3d25bc2f	0.04046267
9	0x3dbcf104	0.092256576

GRN_net.encoder.6.weight f4 [10, 10]
0	0x3dad3ad6	0.08458488
1	0x3d37d237	0.04487821
2	0x3c8d304a	0.01723494
3	0xbd396e43	-0.04527117
4	0xbe193e3b	-0.14965145
5	0xbecb5d7c	-0.3971976
6	0x3e0c2f81	0.13689996
7	0xbef06a7f	-0.4695625
8	0xbee8c9ea	-0.45466548
9	0xbe323a95	-0.1740516
10	0xbeb58add	-0.35457507
11	0x3decfd7d	0.115717866
12	0x3ebcae26	0.36851615
13	0x3edf6630	0.4363265
14	0xbe91f6ed	-0.28508702
15	0x3eacb9c8	0.3373549
16	0x3ecc24aa	0.39871722
17	0xbcc7c2bf	-0.024384854
18	0x3e810b49	0.25203922
19	0x3e8e9e87	0.27855322
20	0x3f007a42	0.5018655
21	0x3e3f30b8	0.18670928
22	0x3e96aa21	0.29426673
23	0xbdd9c9d5	-0.106341995
24	0xbe84c6d0	-0.25932932
25	0xbe5fad21	-0.21843387
26	0x3ec197dd	0.37811175
27	0xbd52b649	-0.051443372
28	0x3e094113	0.1340373
29	0xbf1a244e	-0.60211647
30	0x3ce11fbb	0.02748095
31	0xbe7dc87f	-0.24783514
32	0xbe761244	-0.24030405
33	0x3ee2233e	0.44167513
34	0xbee1595a	-0.44013482
35	0xbe563fc9	-0.2092277
36	0xbd32104d	-0.043472577
37	0xbefe99ff	-0.49726865
38	0x3e94e930	0.29084158
39	0xbe91a71b	-0.28447804
40	0x3e867c6a	0.26266795
41	0x3ee683df	0.45022485
42	0x3eba8e0e	0.36436504
43	0xbe181d4f	-0.1485493
44	0x3ea4d81b	0.32196125
45	0x3f118fd7	0.5686011
46	0x3e220595	0.15822442
47	0xbdae6360	-0.08515048
48	0xbe51235c	-0.20423645
49	0x3e1a9c31	0.15098645
50	0x3dd24c08	0.10268408
51	0xbece20b6	-0.4025933
52	0x3eac5b04	0.3366319
53	0x3dc5b041	0.096527584
54	0xbf01fb43	-0.5077402
55	0x3e615d01	0.22008134
56	0x3ead925e	0.33900732
57	0x3e236c80	0.15959358
58	0x3ed48e96	0.41515034
59	0x3e205a12	0.15659359
60	0xbedaa559	-0.42704275
61	0xbd6cdba3	-0.05782665
62	0x3eceb286	0.40370578
63	0xbe5adde9	-0.21373715
64	0x3e186819	0.1488346
65	0x3e373a11	0.17893244
66	0xbde51ed8	-0.111875236
67	0x3afe531b	0.001940343
68	0x3e60cb39	0.21952523
69	0xbecb51b3	-0.3971077
70	0x3eaa5e26	0.33274955
71	0x3ead2187	0.33814642
72	0x3e20def1	0.15710045
73	0x3ef5b12f	0.47986743
74	0x3d0efdfd	0.03491019
75	0xbf0f089e	-0.55872524
76	0x3d648153	0.055787396
77	0xbe0c34fc	-0.13692087
78	0x3e2fb9c8	0.17160714
79	0x3ee7c45f	0.45267007
80	0xbe72c4ca	-0.23707882
81	0x3ddaa1cb	0.10675391
82	0x3f14dc5a	0.5814873
83	0xbed80782	-0.42193228
84	0xbdb90a48	-0.09035164
85	0x3ec42b55	0.3831431
86	0x3f06deff	0.52684015
87	0x3e6ae093	0.22937231
88	0xbe9451e9	-0.28968742
89	0x3d33832e	0.043826275
90	0xbefc23e3	-0.4924613
91	0xbe898eb3	-0.26866683
92	0xbf0cb3e1	-0.54961973
93	0x3f017f05	0.5058444
94	0x3eba64b8	0.36404967
95	0x3e828d0b	0.25498232
96	0xbe4f8d50	-0.2026875
97	0x3f03234f	0.5122575
98	0xbe23c1e8	-0.15991938
99	0x3ecbe380	0.39822006

GRN_net.encoder.6.bias f4 [10]
0	0x3ba43cda	0.005012137
1	0x3e5fd2a1	0.21857692
2	0x3ddc5edd	0.10760281
3	0xbd92ce27	-0.07168227
4	0x3e82d559	0.25553396
5	0x3c13634b	0.008995841
6	0x3e673c43	0.22581582
7	0x3db646f9	0.08900256
8	0x3e65fc7f	0.22459601
9	0x3e4e2f3d	0.20135207

GRN_net.decoder.0.weight f4 [6, 10]
0	0x3beecc44	0.007287534
1	0xbebcb84d	-0.3685936
2	0xbe3e40bd	-0.18579383
3	0xbe74f09c	-0.2391991
4	0xbf14c88e	-0.5811852
5	0x3deb01fa	0.114749864
6	0xbe31418c	-0.1731016
7	0x3e5a96ef	0.21346639
8	0x3ee55cde	0.44797415
9	0xbdabcb6f	-0.08388411
10	0x3e73d7a0	0.23812723
11	0x3e5d8ddf	0.21636151
12	0x3e45fea4	0.19335419
13	0xbe89aef9	-0.26891306
14	0xbe3c87d2	-0.18411186
15	0x3e7c73e0	0.24653578
16	0x3f05e205	0.52298003
17	0xbf1c7bd4	-0.61126447
18	0xbed5ec55	-0.4178187
19	0x3df8db38	0.12151188
20	0x3f05e3f6	0.52300966
21	0x3e837983	0.25678644
22	0xbf21ee36	-0.63254106
23	0xbefd6faf	-0.4949927
24	0x3f1da24b	0.61575764
25	0xbc1ffef7	-0.009765378
26	0xbf146f9a	-0.5798279
27	0xbe61ac82	-0.22038463
28	0x3e83ed5a	0.25767022
29	0xbdf63526	-0.12021856
30	0xbee2e949	-0.44318607
31	0xbeb224e6	-0.34793776
32	0xbea4bdf8	-0.32176185
33	0x3d0e2419	0.034702394
34	0x3e45ab25	0.19303568
35	0x3e4dcea2	0.20098355
36	0xbe981336	-0.29702157
37	0xbe5f0d4a	-0.21782413
38	0xbefb105f	-0.49035928
39	0x3eebea6d	0.4607729
40	0x3f4c2cbd	0.79755765
41	0x3f1947a4	0.5987494
42	0x3e6fbbd9	0.23411502
43	0xbd5d0f75	-0.05396982
44	0xbe3cce5e	-0.18438098
45	0x3eb46a40	0.35237312
46	0xbed6295f	-0.4182844
47	0xbbf3b143	-0.0074369027
48	0xbef9f4b5	-0.4881951
49	0xbf0bc286	-0.54593694
50	0x3da1178c	0.07865819
51	0xbd07b019	-0.033126924
52	0xbee8a9f2	-0.45442158
53	0x3e731c4d	0.23741265
54	0x3e25cf7e	0.16192433
55	0x3d49a698	0.04923114
56	0xbec77994	-0.38959944
57	0xbefc2fe1	-0.4925528
58	0x3c57775f	0.013151019
59	0xbe5395d4	-0.20662624

GRN_net.decoder.0.bias f4 [6]
0	0x3e087e40	0.1332941
1	0xbe9c0d4c	-0.30478895
2	0x3e3c90ba	0.18414584
3	0x3dbe828e	0.09302245
4	0xbd319dfd	-0.04336356
5	0x3dd5f228	0.10446578

BRD_net.encoder.0.weight f4 [8, 7]
0	0xbe508ff6	-0.20367417
1	0x3ec828b0	0.39093542
2	0x3e2618c6	0.16220388
3	0x3f0a9ae0	0.5414257
4	0x3d349498	0.044087023
5	0xbeeff4c8	-0.4686644
6	0x3e1c04a7	0.1523615
7	0xbee65e18	-0.44993663
8	0x3f837a1d	1.0271641
9	0xbf0d7388	-0.5525441
10	0x3e87e52f	0.2654204
11	0xbf1d9093	-0.6154873
12	0x3f0e39ab	0.55556744
13	0x3f151496	0.58234537
14	0x3ecd956b	0.4015306
15	0x3eaa5158	0.33265185
16	0x3e4ec98b	0.2019407
17	0xbecd3642	-0.40080458
18	0xbea7f169	-0.3280137
19	0xb8ecdf99	-0.00011295005
20	0xbf166297	-0.58744186
21	0x3f0f961b	0.5608842
22	0xbeb992b7	-0.36244747
23	0x3eee3b42	0.46529585
24	0x3e25f499	0.16206588
25	0x3ed4088c	0.4141277
26	0xbe9e9bb8	-0.3097818
27	0xbf2a6d5f	-0.6657314
28	0x3ecb7bd9	0.39742926
29	0xbe89bae2	-0.26900393
30	0x3ee5de89	0.44896343
31	0xbeff6d72	-0.49888188
32	0x3e6748c2	0.22586349
33	0xbf136139	-0.57570225
34	0xbe673459	-0.22578563
35	0xbb93655f	-0.0044981684
36	0xbe4cb54a	-0.19991031
37	0xbf3db496	-0.7410368
38	0xbe8904f6	-0.26761597
39	0x3e7b9fbc	0.24572653
40	0x3f334c0c	0.70037913
41	0xbe8ab71b	-0.27092823
42	0x3ba3f9f8	0.005004164
43	0xbf575a46	-0.8412212
44	0xbeb2d030	-0.3492446
45	0xbe97ca48	-0.29646516
46	0xbf8c3498	-1.095355
47	0x3e2bfb45	0.1679507
48	0x3c8888db	0.01666682
49	0x3f3aa4b4	0.7290757
50	0xbef26ca1	-0.47348502
51	0x3f55216f	0.8325414
52	0x3f372f44	0.71556497
53	0x3f5c76ef	0.8611898
54	0x3e943743	0.2894841
55	0xbebe5a27	-0.37178156

BRD_net.encoder.0.bias f4 [8]
0	0x3eaf0681	0.3418465
1	0xbe6613ae	-0.22468445
2	0xbe90df89	-0.28295544
3	0xbea3b2e3	-0.31972417
4	0x3e708bbe	0.23490807
5	0xbd77b895	-0.060478766
6	0xbd3ab411	-0.04558188
7	0x3cabc87e	0.020969626

BRD_net.encoder.2.weight f4 [8, 8]
0	0xbecbb1e0	-0.39784145
1	0xbecf3515	-0.40470186
2	0x3e82803e	0.25488466
3	0x3e6d310d	0.23163243
4	0x3e56bc4e	0.2097027
5	0xbecc3347	-0.39882872
6	0xbeca1ff1	-0.39477494
7	0x3ef03a01	0.46919253
8	0xbe8b6f9a	-0.27233583
9	0xbefdfb84	-0.49605954
10	0x3d7719be	0.060327284
11	0xbe13e8ae	-0.14444229
12	0xbd8decf4	-0.06929961
13	0x3e9b8087	0.30371496
14	0x3e74d998	0.2391113
15	0xbf11540f	-0.5676889
16	0xbdc576c3	-0.096417926
17	0xbe5cc77b	-0.21560471
18	0x3f0fc338	0.56157255
19	0x3ead61d9	0.33863714
20	0x3e8eb63b	0.27873406
21	0x3f24490c	0.6417396
22	0x3e99f486	0.3006937
23	0xbf327c3b	-0.6972081
24	0x3eec73ce	0.46182102
25	0xbe34fd31	-0.1767471
26	0xbe859965	-0.26093593
27	0xbea230b0	-0.3167777
28	0x3e9f9c37	0.3117387
29	0xbe323aa2	-0.17405179
30	0xbed3effe	-0.41394037
31	0xbec7c563	-0.39017782
32	0xbde9f4b3	-0.11423626
33	0x3f0c1353	0.54716986
34	0x3f11f88a	0.57019866
35	0x3ef2ba9a	0.4740799
36	0x3df5059d	0.11963961
37	0xbdabcad7	-0.08388298
38	0xbddc420c	-0.10754785
39	0xbedc3496	-0.4300887
40	0x3e8206e4	0.25395882
41	0xbf021366	-0.5081085
42	0x3dbf8ae3	0.093526624
43	0x3eb9cf48	0.36290956
44	0x3f104e54	0.5636952
45	0xbf0ba57f	-0.545494
46	0x3f013af2	0.5048057
47	0xbeadf629	-0.33976868
48	0xbea0acc8	-0.31381822
49	0x3f2a7755	0.66588336
50	0x3eedbd66	0.46433562
51	0xbe47f4a5	-0.19526918
52	0x3e902b32	0.28157955
53	0xbf05512b	-0.5207698
54	0x3efe2b8a	0.49642593
55	0x3ef928b6	0.48663872
56	0xbe874ceb	-0.2642587
57	0x3e4829e0	0.19547224
58	0x3e2154e3	0.15755038
59	0xbea72f76	-0.32653397
60	0xbeab9df9	-0.3351896
61	0xbd634806	-0.05548861
62	0xbef0e639	-0.47050646
63	0xbf16e356	-0.5894064

BRD_net.encoder.2.bias f4 [8]
0	0x3c997372	0.018731806
1	0x3e6ca54c	0.23109931
2	0xbd096d79	-0.033551667
3	0xbe2005dd	-0.15627237
4	0xbde06b67	-0.10957985
5	0x3edf3e86	0.4360239
6	0x3e03c1f4	0.12866956
7	0xbe2834a7	-0.16426335

BRD_net.decoder.weight f4 [1, 8]
0	0x3e2be4e5	0.16786535
1	0xbed88e82	-0.42296225
2	0xbf05df3b	-0.5229375
3	0xbe39b649	-0.18135943
4	0xbf1c563f	-0.610691
5	0x3f5cba5f	0.8622188
6	0xbe38c74b	-0.18044774
7	0xbf160698	-0.5860381
