example/Embryogenesis/Output/ckpt_itr3600.pth (torch, 8074 bytes, 15 tensors)

GRN_net.encoder.0.weight f4 [10, 6]
-0.12338499 -0.2106647 0.035852768 0.119555555 0.32065678 0.1643722 0.2705337 0.25916585
0.21221277 0.042977225 -0.07076381 0.4746621 0.13312653 0.48811126 0.632527 -0.18197823
0.5682973 -0.05685214 0.4928721 0.7016536 -0.4635882 0.053808987 -0.4512201 -0.4561705
-0.22255237 -0.24519035 -0.16841534 -0.577956 -0.3405778 -0.033034727 -0.070991665 0.2895459
0.3701688 0.30279574 0.4895311 -0.5450478 0.54335415 -0.7537267 -0.08951594 0.2852266
0.3090227 -0.39999187 -0.2763394 -0.5006858 -0.2740021 -0.13036785 0.8932603 -0.12786998
-0.07513448 -0.48186868 0.8285227 -0.27125606 -0.63075626 0.44682974 -0.11000462 0.65349275
-0.60806656 -0.4827387 -0.33109358 0.2955882
00000000: 45b1 fcbd 7db8 57be 5ada 123d 8bd9 f43d
00000010: 202d a43e 3051 283e 6583 8a3e 63b1 843e
00000020: 4e4e 593e e308 303d 9eec 90bd e906 f33e
00000030: 5252 083e b8e9 f93e 4aed 213f 8058 3abe
00000040: ef7b 113f cadd 68bd bb59 fc3e 929f 333f
00000050: 6f5b edbe d066 5c3d 5206 e7be 2e8f e9be
00000060: c5e4 63be 2e13 7bbe 1275 2cbe edf4 13bf
00000070: 3760 aebe 6c4f 07bd 1464 91bd 5c3f 943e
00000080: c486 bd3e 0b08 9b3e d2a3 fa3e 4188 0bbf
00000090: 4219 0b3f 3cf4 40bf 2254 b7bd 3909 923e
000000a0: 3938 9e3e bccb ccbe 5c7c 8dbe f22c 00bf
000000b0: 014a 8cbe 267f 05be b5ac 643f 59f0 02be
000000c0: 1be0 99bd 7eb7 f6be 101a 543f 13e2 8abe
000000d0: 3e79 21bf dec6 e43e 1a4a e1bd 4d4b 273f
000000e0: 40aa 1bbf 8729 f7be 1985 a9be 5657 973e

GRN_net.encoder.0.bias f4 [10]
-0.3169755 0.32322115 0.33551648 0.28529784 -0.29408604 -0.16687535 -0.028828716 0.08946432
-0.28849342 -0.28548
00000000: 9d4a a2be 3e7d a53e d1c8 ab3e 8f12 923e
00000010: 7292 96be 5fe1 2abe 332a ecbc 1239 b73d
00000020: 69b5 93be 6f2a 92be

GRN_net.encoder.2.weight f4 [10, 10]
-0.10621101 -0.41104448 0.20970418 -0.02040551 0.17137045 -0.28410152 -0.49050966 0.29140672
-0.3808324 0.4094534 0.43825158 -0.44961452 -0.55361414 0.078215726 -0.26843518 0.05342682
-0.27432925 -0.191253 -0.51366174 0.383662 -0.42123607 -0.375416 -0.04856312 -0.37185383
-0.4795652 0.36843795 -0.16247307 0.24377875 0.35159975 -0.3976662 -0.50920284 -0.1515625
0.34629908 0.007907399 -0.22108357 0.37124774 0.5396477 0.36421138 -0.45275295 -0.1105382
-0.29730666 0.42193583 -0.28126314 -0.19378346 0.011215717 -0.032693766 0.41733733 0.055108473
-0.4520787 0.43321657 0.39966717 0.07707643 -0.47778174 0.23961678 0.39415935 0.1803935
-0.1938206 0.0846583 -0.34252846 0.5479716 0.49520248 -0.13969107 -0.4614606 0.34508637
0.3415983 0.27292153 -0.34673828 0.21042153 -0.19140102 -0.49451578 -0.29240865 0.21547465
0.2859481 -0.54312795 0.2681666 0.26836756 0.5025766 0.47755647 -0.22510049 0.27549273
0.60144436 0.16334376 -0.39598656 -0.15665877 0.4885017 0.33604643 0.4841795 -0.105123505
-0.016818965 -0.44303223 -0.25232267 0.33866596 -0.51679164 -0.26699963 0.1197201 -0.2818943
0.04873334 0.018920887 0.28752047 -0.398172
00000000: 2885 d9bd 6c74 d2be b1bc 563e 7529 a7bc
00000010: bc7b 2f3e c175 91be 1524 fbbe 4333 953e
00000020: 77fc c2be e0a3 d13e 8362 e03e e033 e6be
00000030: a8b9 0dbf 912f a03d 5670 89be 15d6 5a3d
00000040: e274 8cbe d4d7 43be 567f 03bf 586f c43e
00000050: 41ac d7be 8736 c0be 1fea 46bd a063 bebe
00000060: 9289 f5be e6a3 bc3e 575f 26be 23a1 793e
00000070: e204 b43e e79a cbbe 1e5b 02bf 3333 1bbe
00000080: 1d4e b13e 098e 013c bb63 62be 2f14 be3e
00000090: 5a26 0a3f ea79 ba3e 3ccf e7be da61 e2bd
000000a0: 9438 98be f907 d83e b901 90be 2c6f 46be
000000b0: 20c2 373c e6e9 05bd 3dad d53e 6cb9 613d
000000c0: dc76 e7be 90ce dd3e 2da1 cc3e 3fda 9d3d
000000d0: cf9f f4be 1a5e 753e 41cf c93e 13b9 383e
000000e0: e878 46be 5561 ad3d e45f afbe de47 0c3f
000000f0: 2e8b fd3e 2d0b 0fbe 9044 ecbe 29af b03e
00000100: f9e5 ae3e 5fbc 8b3e ae87 b1be be78 573e
00000110: a1fe 43be 2c31 fdbe 96b6 95be 63a5 5c3e
00000120: ca67 923e 6f0a 0bbf 224d 893e 7967 893e
00000130: dca8 003f 4882 f43e be80 66be 620d 8d3e
00000140: 42f8 193f 9643 273e c0be cabe 286b 20be
00000150: e51c fa3e 470e ac3e 60e6 f73e fe4a d7bd
00000160: edc7 89bc 1fd5 e2be 7030 81be a065 ad3e
00000170: 754c 04bf 2db4 88be d02f f53d 7354 90be
00000180: 9c9c 473d faff 9a3c e235 933e 33dd cbbe

GRN_net.encoder.2.bias f4 [10]
-0.07752843 0.040080123 0.08127496 0.10177888 0.3285703 0.24405329 0.15500921 0.002771183
-0.25957844 0.26414725
00000000: 3ac7 9ebd 0e2b 243d 7c73 a63d 7271 d03d
00000010: 5e3a a83e 1be9 793e bcba 1e3e bc9c 353b
00000020: 77e7 84be 4f3e 873e

GRN_net.encoder.4.weight f4 [10, 10]
0.018163677 -0.489705 0.29459947 0.5112918 -0.14852016 0.06264091 -0.2715343 -0.47056615
-0.3057799 -0.19754732 0.1417052 0.04474514 0.04897991 -0.39800218 -0.36723202 -0.41815665
-0.36634484 0.46728322 0.20884246 -0.5500987 -0.10524695 0.038322877 0.38561538 0.53018457
-0.21499929 0.35945347 -0.14039223 0.066659056 -0.27582997 0.07456522 0.4707072 0.37678593
0.359033 -0.23326638 -0.05583467 0.13481848 0.3745726 -0.5160839 -0.25367755 0.022641173
-0.2877395 0.16175069 -0.024075435 -0.1506493 0.17845905 0.36494905 0.50304854 0.31010005
0.007342957 0.42509118 0.4829788 -0.5498576 0.28057933 0.0034973854 -0.327661 -0.10303508
-0.11569637 -0.23603904 -0.17596416 0.103090614 0.15974487 0.05672033 -0.5441382 0.30043572
-0.07745266 0.4197688 -0.5074915 -0.13207519 0.41672337 0.244629 -0.2687702 -0.48651883
0.057008788 0.16796651 -0.5839416 -0.4679944 -0.0077638845 -0.11005368 0.37956482 -0.5327319
-0.16274524 -0.41501847 -0.03158718 -0.21835895 0.16236942 -0.53551865 -0.43882197 -0.3426338
-0.5270989 0.4723211 -0.11959537 -0.36209428 0.1585146 -0.094417885 0.23825733 -0.18414716
-0.5349892 0.28259063 0.45990634 -0.5734233
00000000: fecb 943c 9dba fabe bed5 963e 05e4 023f
00000010: ab15 18be e149 803d 8b06 8bbe 0cee f0be
00000020: 2f8f 9cbe d849 4abe 2b1b 113e ae46 373d
00000030: 289f 483d f1c6 cbbe d605 bcbe a118 d6be
00000040: 8d91 bbbe bf3f ef3e ccda 553e 45d3 0cbf
00000050: b78b d7bd 73f8 1c3d 616f c53e 2dba 073f
00000060: c628 5cbe 490a b83e fbc2 0fbe 8b84 883d
00000070: 9639 8dbe a6b5 983d 8900 f13e 16ea c03e
00000080: 2cd3 b73e 62dd 6ebe e5b2 64bd db0d 0a3e
00000090: fbc7 bf3e 131e 04bf 06e2 81be fb79 b93c
000000a0: 9752 93be f9a1 253e d939 c5bc cf43 1abe
000000b0: f8bd 363e 9ada ba3e cac7 003f 6fc5 9e3e
000000c0: 309d f03b 8da5 d93e ff48 f73e 78c3 0cbf
000000d0: 18a8 8f3e 6434 653b 2fc3 a7be 0e04 d3bd
000000e0: 38f2 ecbd 38b4 71be f32f 34be 2c21 d33d
000000f0: 2994 233e 9453 683d a44c 0bbf b6d2 993e
00000100: 809f 9ebd f0eb d63e f7ea 01bf b83e 07be
00000110: c45c d53e 0680 7a3e 3f9c 89be ff18 f9be
00000120: 0c82 693d 6aff 2b3e 327d 15bf f69c efbe
00000130: 2f68 febb d363 e1bd 5256 c23e 1e61 08bf
00000140: b0a6 26be 4d7d d4be 8f61 01bd 7d99 5fbe
00000150: 2b44 263e c017 09bf 46ad e0be b36d afbe
00000160: f4ef 06bf 12d4 f13e 6bee f4bd 6c64 b9be
00000170: a751 223e 2a5e c1bd bbf9 733e 1391 3cbe
00000180: 0df5 08bf b8af 903e d878 eb3e dfcb 12bf

GRN_net.encoder.4.bias f4 [10]
-0.00901951 0.037345137 0.28084722 0.087413415 -0.17148952 -0.18626097 -0.26204455 0.2583859
0.03992256 0.09106097
00000000: 91c6 13bc 37f7 183d 35cb 8f3e ce05 b33d
00000010: f39a 2fbe 32bb 3ebe b42a 86be 284b 843e
00000020: d785 233d 2d7e ba3d

GRN_net.encoder.6.weight f4 [10, 10]
0.079219945 0.044141095 0.018040018 -0.04303272 -0.14658278 -0.40000495 0.13565606 -0.46547052
-0.45579097 -0.17436767 -0.35597348 0.115234286 0.36822402 0.4372931 -0.28392276 0.33511055
0.39986828 -0.02519151 0.251295 0.27759832 0.49967912 0.18600577 0.29348415 -0.105583385
-0.2590285 -0.21815993 0.37878603 -0.055067606 0.13362488 -0.6033852 0.03621247 -0.24420686
-0.2395942 0.4413801 -0.44753954 -0.20751086 -0.045026667 -0.4940738 0.29247883 -0.2751066
0.26500404 0.45131665 0.36282885 -0.14700699 0.3190715 0.5697243 0.15950383 -0.0852788
-0.20400733 0.15196824 0.105813056 -0.40622577 0.33893377 0.09660827 -0.4995253 0.2181259
0.3370238 0.15965305 0.416103 0.15161155 -0.4297529 -0.05906546 0.40273637 -0.21384075
0.14782451 0.17768946 -0.10823199 -0.0017621447 0.22086756 -0.3982593 0.33344638 0.33721083
0.14307165 0.47977215 0.033842932 -0.54793507 0.056160104 -0.1368661 0.1721855 0.45223752
-0.23890676 0.1074423 0.5803795 -0.42244807 -0.09084261 0.37878588 0.53438646 0.22959402
-0.29090646 0.044822402 -0.49472672 -0.27160892 -0.55128044 0.5119411 0.36471894 0.2588668
-0.19954365 0.5094338 -0.15941119 0.39608777
00000000: 113e a23d 4bcd 343d a9c8 933c 1443 30bd
00000010: cc19 16be 73cd ccbe 6ce9 0a3e 2752 eebe
00000020: 6f5d e9be 708d 32be 2842 b6be f4ff eb3d
00000030: dc87 bc3e e2e4 df3e 535e 91be 9c93 ab3e
00000040: 89bb cc3e 6d5e cebc bda9 803e 5e21 8e3e
00000050: f1d5 ff3e 4c78 3e3e 8e43 963e 1a3c d8bd
00000060: 629f 84be 5165 5fbe 3ef0 c13e 928e 61bd
00000070: f6d4 083e 7477 1abf 8753 143d 5d11 7abe
00000080: 2f58 75be 93fc e13e e723 e5be ba7d 54be
00000090: e26d 38bd 3ef7 fcbe c9bf 953e c6da 8cbe
000000a0: 9cae 873e fa12 e73e b4c4 b93e 0089 16be
000000b0: 575d a33e 74d9 113f f954 233e a7a6 aebd
000000c0: 4ce7 50be 909d 1b3e 84b4 d83d d3fc cfbe
000000d0: ba88 ad3e 8fda c53d c8c1 ffbe 655c 5f3e
000000e0: 628e ac3e 177c 233e 740b d53e 0f40 1b3e
000000f0: 9208 dcbe a0ee 71bd 7633 ce3e 12f9 5abe
00000100: 4f5f 173e 3af4 353e bca8 ddbd c4f7 e6ba
00000110: 1b2b 623e a5e8 cbbe 7cb9 aa3e e6a6 ac3e
00000120: 6081 123e b2a4 f53e e39e 0a3d 7945 0cbf
00000130: 2308 663d a026 0cbe 6551 303e ad8b e73e
00000140: f9a3 74be b50a dc3d c093 143f 1d4b d8be
00000150: b10b babd 39f0 c13e 8dcd 083f b21a 6b3e
00000160: b1f1 94be b297 373d d24c fdbe 5310 8bbe
00000170: b720 0dbf 920e 033f 71bc ba3e 308a 843e
00000180: 2c55 4cbe 416a 023f b03c 23be 04cc ca3e

GRN_net.encoder.6.bias f4 [10]
0.004723328 0.21775684 0.10778623 -0.07693255 0.2546079 0.011306104 0.226757 0.08926689
0.22283685 0.20140262
00000000: 26c6 9a3b a6fb 5e3e 07bf dc3d d08e 9dbd
00000010: f75b 823e 3d3d 393c fd32 683e 8fd1 b63d
00000020: 582f 643e 7d3c 4e3e

GRN_net.decoder.0.weight f4 [6, 10]
0.007226563 -0.37099892 -0.18904687 -0.24057506 -0.5814378 0.110247165 -0.17107907 0.21282129
0.4464833 -0.07886809 0.23962983 0.20875147 0.19754061 -0.2682686 -0.1872759 0.23153538
0.5264769 -0.6106631 -0.41900247 0.11937647 0.52567685 0.25472876 -0.6359418 -0.49383986
0.6115687 -0.017117685 -0.5800517 -0.22941731 0.25708193 -0.11995351 -0.44530523 -0.34690693
-0.32019117 0.035521887 0.19413713 0.20413844 -0.29540473 -0.21953617 -0.4913901 0.46364424
0.78030175 0.59715265 0.22903523 -0.055447135 -0.18432476 0.33741528 -0.41238576 -0.009364634
-0.48914436 -0.5434863 0.07783765 -0.03474711 -0.45535058 0.22351575 0.16740295 0.04941506
-0.39040262 -0.4876164 0.023736825 -0.20711665
00000000: cecc ec3b 92f3 bdbe 8195 41be 4f59 76be
00000010: 1cd9 14bf 44c9 e13d 5a2f 2fbe d3ed 593e
00000020: 7699 e43e 9885 a1bd 8661 753e f2c2 553e
00000030: 1648 4a3e 805a 89be 41c5 3fbe 9c17 6d3e
00000040: 31c7 063f 6b54 1cbf 7e87 d6be a77b f43d
00000050: c292 063f cf6b 823e 15cd 22bf 94d8 fcbe
00000060: c48f 1c3f 633a 8cbc 457e 14bf 5fec 6abe
00000070: 3ea0 833e 30aa f5bd 0cff e3be c99d b1be
00000080: 19f0 a3be 667f 113d e2cb 463e ab09 513e
00000090: 4a3f 97be 17ce 60be 7c97 fbbe c762 ed3e
000000a0: dbc1 473f ffde 183f 3688 6a3e 891c 63bd
000000b0: a1bf 3cbe b2c1 ac3e 3a24 d3be 1f6e 19bc
000000c0: 2171 fabe eb21 0bbf 5969 9f3d fc52 0ebd
000000d0: b623 e9be 50e1 643e ae6b 2b3e 7267 4a3d
000000e0: dae2 c7be dba8 f9be bb73 c23c 6316 54be

GRN_net.decoder.0.bias f4 [6]
0.13434517 -0.3034256 0.18315302 0.09340417 -0.045191083 0.10430334
00000000: c891 093e 9a5a 9bbe 778c 3b3e af4a bf3d
00000010: 491a 39bd fd9c d53d

BRD_net.encoder.0.weight f4 [8, 7]
-0.2039222 0.39127734 0.15877382 0.5437927 0.04644785 -0.47400418 0.15233587 -0.45019653
0.9898512 -0.55073744 0.26614323 -0.62187254 0.56075865 0.58202314 0.40142602 0.3324883
0.20349468 -0.40464172 -0.3377597 -0.0032075401 -0.5873923 0.5620127 -0.35486174 0.46736833
0.16069892 0.4177739 -0.31699848 -0.6601461 0.39733955 -0.2506457 0.4478653 -0.5006418
0.22570921 -0.58133143 -0.22550848 -0.004017891 -0.20212492 -0.7347805 -0.26880693 0.24446753
0.7098815 -0.2700846 0.00550935 -0.83843005 -0.3520986 -0.301869 -1.0129166 0.15045127
0.019222125 0.7272062 -0.4527794 0.82451564 0.7164094 0.86330277 0.28169325 -0.37609148
00000000: fbd0 50be 8155 c83e 9b95 223e 0036 0b3f
00000010: 1a40 3e3d adb0 f2be effd 1b3e 2980 e6be
00000020: e366 7d3f 21fd 0cbf ed43 883e 0a33 1fbf
00000030: e18d 0f3f 78ff 143f b687 cd3e e83b aa3e
00000040: e960 503e 332d cfbe d7ee acbe 9835 52bb
00000050: 575f 16bf 10e0 0f3f 70b0 b5be e74a ef3e
00000060: 428e 243e 76e6 d53e a04d a2be 56ff 28bf
00000070: 1770 cb3e a254 80be 9a4e e53e 102a 00bf
00000080: 5120 673e 23d2 14bf b2eb 66be 83a8 83bb
00000090: d6f9 4ebe 931a 3cbf 10a1 89be b255 7a3e
000000a0: cbba 353f 8748 8abe c787 b43b 5aa3 56bf
000000b0: 4546 b4be 938e 9abe 40a7 81bf e60f 1a3e
000000c0: b877 9d3c 2f2a 3a3f b4d2 e7be 7513 533f
000000d0: 9b66 373f 6901 5d3f 193a 903e 108f c0be

BRD_net.encoder.0.bias f4 [8]
0.34109232 -0.22343822 -0.28227842 -0.31979048 0.23312254 -0.058799706 -0.046832643 0.01550615
00000000: a7a3 ae3e fdcc 64be cc86 90be 94bb a3be
00000010: adb7 6e3e f6d7 70bd 96d3 3fbd 820d 7e3c

BRD_net.encoder.2.weight f4 [8, 8]
-0.39755645 -0.40282035 0.25840247 0.23364997 0.20949984 -0.40015775 -0.39814028 0.46797028
-0.27297568 -0.49682626 0.060601216 -0.14440396 -0.068797305 0.30349243 0.24042287 -0.5669129
-0.10528957 -0.21686079 0.5620092 0.33876318 0.2797684 0.6406451 0.3024708 -0.69593596
0.4599054 -0.17848092 -0.26082847 -0.31651956 0.31278053 -0.1735903 -0.409754 -0.38864022
-0.10689204 0.5466102 0.5705837 0.4742016 0.12018075 -0.08622166 -0.10817924 -0.4294301
0.2548455 -0.5076288 0.12143672 0.36452222 0.5644587 -0.54803264 0.50301343 -0.3408717
-0.31484488 0.6658279 0.46464914 -0.19582725 0.2814593 -0.51996565 0.49849603 0.4867057
-0.26485014 0.19499776 0.15396954 -0.32735705 -0.33521253 -0.054597806 -0.46864718 -0.5883613
00000000: 858c cbbe 783e cebe 544d 843e f041 6f3e
00000010: 2087 563e 7ae1 ccbe 0bd9 cbbe cd99 ef3e
00000020: 78c3 8bbe 0360 febe fb38 783d a2de 13be
00000030: 9ae5 8cbd 5c63 9b3e 6a31 763e 3421 11bf
00000040: 0fa2 d7bd c110 5ebe d6df 0f3f 5e72 ad3e
00000050: ce3d 8f3e 5101 243f 74dd 9a3e dc28 32bf
00000060: b878 eb3e b4c3 36be 4f8b 85be da0e a2be
00000070: c524 a03e a8c1 31be 47cb d1be dafb c6be
00000080: 37ea dabd a5ee 0b3f c611 123f 8dca f23e
00000090: 5321 f63d fb94 b0bd 148d ddbd 43de dbbe
000000a0: 1c7b 823e f6f3 01bf d1b3 f83d a8a2 ba3e
000000b0: 5e80 103f de4b 0cbf 7dc5 003f bc86 aebe
000000c0: 5933 a1be b273 2a3f 7ee6 ed3e f086 48be
000000d0: 6f1b 903e 781c 05bf df3a ff3e 7d31 f93e
000000e0: 709a 87be 7ead 473e 31aa 1d3e 589b a7be
000000f0: faa0 abbe f3a1 5fbd 86f2 efbe d99e 16bf

BRD_net.encoder.2.bias f4 [8]
0.016776383 0.23247129 -0.03163699 -0.15346004 -0.10848113 0.43416607 0.12932813 -0.16239782
00000000: a06e 893c f40c 6e3e ca95 01bd a124 1dbe
00000010: 5b2b debd 044b de3e 986e 043e 9d4b 26be

BRD_net.decoder.weight f4 [1, 8]
0.16761881 -0.423569 -0.5215239 -0.1743648 -0.6089335 0.8615317 -0.18251444 -0.5849814
00000000: 44a4 2b3e 09de d8be 9782 05bf b08c 32be
00000010: 11e3 1bbf 578d 5c3f 11e5 3abe 57c1 15bf
