example/Embryogenesis/Output/ckpt_itr6000.pth (torch, 8074 bytes, 15 tensors)

GRN_net.encoder.0.weight f4 [10, 6]
-0.11634997 -0.21275817 0.0358357 0.12211352 0.33283082 0.15412311 0.24635372 0.25379217
0.21079966 0.043272503 -0.15485074 0.4695168 0.1133748 0.49651563 0.63671976 -0.16559312
0.5555617 -0.052761164 0.49325296 0.7024137 -0.46972007 0.018195592 -0.4456961 -0.51894367
-0.21209247 -0.25386265 -0.16883576 -0.57569164 -0.3453516 -0.040355813 -0.06420092 0.28135717
0.383603 0.31225204 0.48773652 -0.5538983 0.55446583 -0.75283563 -0.08540938 0.35320586
0.29265293 -0.4273698 -0.27435544 -0.52129704 -0.2841786 -0.1395538 0.88851845 -0.13328858
-0.083842896 -0.4360406 0.90123314 -0.28055328 -0.62340355 0.44807872 -0.10516394 0.5373927
-0.64334923 -0.47914845 -0.336142 0.30035684
00000000: e548 eebd 47dd 59be 74c8 123d a716 fa3d
00000010: cd68 aa3e 73d2 1d3e 2644 7c3e 0cf1 813e
00000020: dedb 573e 823e 313d 3191 1ebe 8264 f03e
00000030: 0c31 e83d 4c37 fe3e 1100 233f 3e91 29be
00000040: 4b39 0e3f 171c 58bd a78b fc3e 62d1 333f
00000050: 267f f0be ec0e 953c 4732 e4be 7ed9 04bf
00000060: c52e 59be 49fa 81be 48e3 2cbe 8760 13bf
00000070: edd1 b0be 234c 25bd c67b 83bd 0c0e 903e
00000080: 9d67 c43e 80df 9f3e 9ab8 f93e 47cc 0dbf
00000090: 79f1 0d3f d6b9 40bf 1deb aebd 66d7 b43e
000000a0: 9bd6 953e 37d0 dabe 5178 8cbe b973 05bf
000000b0: dc7f 91be 31e7 0ebe f275 633f cd7c 08be
000000c0: d3b5 abbd b740 dfbe 37b7 663f aea4 8fbe
000000d0: 6097 1fbf 936a e53e 3160 d7bd 9192 093f
000000e0: 89b2 24bf f252 f5be ce1a acbe 5fc8 993e

GRN_net.encoder.0.bias f4 [10]
-0.31393144 0.29160678 0.32300317 0.2751994 -0.2946769 -0.14589716 -0.042323716 0.06997856
-0.25931075 -0.28128433
00000000: 9fbb a0be 7c4d 953e ac60 a53e f0e6 8c3e
00000010: e4df 96be 1166 15be a25b 2dbd eb50 8f3d
00000020: 61c4 84be 8004 90be

GRN_net.encoder.2.weight f4 [10, 10]
-0.07162395 -0.3994931 0.21395409 -0.051702768 0.16431206 -0.29188192 -0.4925913 0.30198932
-0.37753156 0.40405634 0.43156147 -0.4525215 -0.5648374 0.08062532 -0.2522479 0.057296615
-0.26688775 -0.18675283 -0.51741946 0.38954696 -0.41545776 -0.37369475 -0.04730324 -0.34386176
-0.50306356 0.39148396 -0.17163473 0.24707359 0.34814677 -0.42771608 -0.5807239 -0.15552697
0.3330979 0.051688354 -0.21942109 0.36643484 0.54644257 0.32692248 -0.4725363 -0.10628015
-0.2573097 0.42052695 -0.28448915 -0.23543929 0.019804098 -0.040464483 0.4286853 0.05714891
-0.44289201 0.43793938 0.39695668 0.079945594 -0.55974936 0.2354463 0.3924278 0.16593912
-0.1879463 0.08547907 -0.33370504 0.55651295 0.49639237 -0.14750324 -0.45319837 0.39703763
0.35147426 0.27475098 -0.3362252 0.22200342 -0.21359244 -0.49634367 -0.29604974 0.1802949
0.22880565 -0.5361988 0.25339857 0.27821988 0.5041828 0.47524524 -0.25746512 0.25195077
0.6756663 0.12850074 -0.4013934 -0.15118685 0.4817519 0.34194386 0.4858481 -0.110871986
-0.020685928 -0.4454522 -0.25810567 0.34401712 -0.5158109 -0.22779089 0.12881872 -0.31841916
0.0508643 0.03488699 0.2894506 -0.38945848
00000000: 94af 92bd 5c8a ccbe c816 5b3e 48c6 53bd
00000010: 6c41 283e 8c71 95be ed34 fcbe 589e 9a3e
00000020: d14b c1be 79e0 ce3e a0f5 dc3e e6b0 e7be
00000030: 2f99 10bf e31e a53d a326 81be dbaf 6a3d
00000040: 83a5 88be 223c 3fbe 9a75 04bf b372 c73e
00000050: e1b6 d4be eb54 bfbe 0bc1 41bd a60e b0be
00000060: c6c8 00bf 9670 c83e 04c1 2fbe dc00 7d3e
00000070: 4b40 b23e 9afd dabe 52aa 14bf 7642 1fbe
00000080: cf8b aa3e 2bb7 533d ecaf 60be 599d bb3e
00000090: a9e3 0b3f 6262 a73e 47f0 f1be 68a9 d9bd
000000a0: 19be 83be 4f4f d73e 90a8 91be ff16 71be
000000b0: 343c a23c 16be 25bd a47c db3e fa14 6a3d
000000c0: bec2 e2be 9739 e03e e83d cb3e 84ba a33d
000000d0: bc4b 0fbf d618 713e 4cec c83e f2eb 293e
000000e0: ff74 40be a70f af3d 63db aabe a277 0e3f
000000f0: 2427 fe3e 170b 17be 9e09 e8be 8448 cb3e
00000100: 6ff4 b33e 29ac 8c3e b625 acbe dd54 633e
00000110: fab7 5abe c220 febe d593 97be 3a9f 383e
00000120: 074c 6a3e 5344 09bf 75bd 813e d672 8e3e
00000130: 2012 013f 5853 f33e 78d2 83be b1ff 803e
00000140: 77f8 2c3f b395 033e 7083 cdbe bad0 1abe
00000150: 2fa8 f63e 4413 af3e 15c1 f83e da10 e3bd
00000160: 8975 a9bc 5012 e4be 6d26 84be 0323 b03e
00000170: 2f0c 04bf 0442 69be 0ee9 033e d607 a3be
00000180: 1657 503d a9e5 0e3d de32 943e 1a67 c7be

GRN_net.encoder.2.bias f4 [10]
-0.06859399 0.044906102 0.08694832 0.09627605 0.3238241 0.2483269 0.15412264 0.009598897
-0.2652905 0.2601522
00000000: 017b 8cbd 76ef 373d f611 b23d 612c c53d
00000010: 46cc a53e 6849 7e3e 53d2 1d3e b144 1d3c
00000020: 28d4 87be ab32 853e

GRN_net.encoder.4.weight f4 [10, 10]
0.016556276 -0.48625517 0.2909147 0.50993615 -0.14446193 0.06467123 -0.2806441 -0.47212136
-0.31440988 -0.18363108 0.1386459 0.081938624 0.073960766 -0.39641383 -0.38524014 -0.39997992
-0.35110232 0.464023 0.19903843 -0.54955673 -0.099969245 0.05980159 0.40086657 0.52628547
-0.32878432 0.36596653 -0.075918026 0.05775341 -0.27331495 0.07900988 0.47403747 0.37976
0.3615208 -0.22710921 -0.05456632 0.1381018 0.37987265 -0.50250244 -0.24981855 -0.0012921924
-0.2960489 0.165081 -0.022116967 -0.14650574 0.17512296 0.36006257 0.50900793 0.29491365
0.010721946 0.41987684 0.48122 -0.5975121 0.27713454 -0.0027652034 -0.32275409 -0.108204186
-0.11827203 -0.24731682 -0.17685711 0.1216527 0.118549414 0.07790002 -0.5363213 0.29582477
-0.07643957 0.43172678 -0.5143394 -0.14473541 0.40751722 0.2574944 -0.26425275 -0.48242113
0.06727837 0.17246549 -0.60998154 -0.46777055 -0.0005581375 -0.10722931 0.38560262 -0.54080427
-0.1648224 -0.43664575 -0.029554851 -0.19491042 0.16100805 -0.54391843 -0.45313522 -0.3419959
-0.54281825 0.46634358 -0.124738075 -0.36057952 0.12872997 -0.09537505 0.24042419 -0.18373345
-0.5362366 0.26334694 0.46432945 -0.5716783
00000000: 07a1 873c 70f6 f8be c6f2 943e 2d8b 023f
00000010: d4ed 13be 5a72 843d 95b0 8fbe e4b9 f1be
00000020: 55fa a0be c909 3cbe 31f9 0d3e 70cf a73d
00000030: be78 973d c1f6 cabe 323e c5be 2bca ccbe
00000040: afc3 b3be 6c94 ed3e bbd0 4b3e c0af 0cbf
00000050: adbc ccbd 83f2 743d 623e cd3e a5ba 063f
00000060: 6b56 a8be f75f bb3e e97a 9bbd d78e 6c3d
00000070: f0ef 8bbe efcf a13d 0ab5 f23e e76f c23e
00000080: 4119 b93e 518f 68be ef80 5fbd 8f6a 0d3e
00000090: ab7e c23e 00a4 00bf 6fd0 7fbe c85e a9ba
000000a0: b993 97be fe0a 293e a42e b5bc 9a05 16be
000000b0: 6f53 333e 1f5a b83e 584e 023f ecfe 963e
000000c0: 1aab 2f3c 19fa d63e 7862 f63e 8ef6 18bf
000000d0: 94e4 8d3e 6a38 35bb 0640 a5be 289a ddbd
000000e0: 9b38 f2bd 9f40 7dbe 081a 35be 0d25 f93d
000000f0: 09ca f23d 0c8a 9f3d 5a4c 09bf 5876 973e
00000100: 598c 9cbd 4b0b dd3e bfab 03bf 8535 14be
00000110: 19a6 d03e 4ed6 833e 234c 87be e7ff f6be
00000120: 3ec9 893d cb9a 303e c027 1cbf 9f7f efbe
00000130: f94f 12ba 0a9b dbbd b56d c53e 2672 0abf
00000140: 34c7 28be 0890 dfbe 041d f2bc 9996 47be
00000150: 4bdf 243e 3d3e 0bbf 5701 e8be 161a afbe
00000160: 23f6 0abf 96c4 ee3e ad76 ffbd e19d b8be
00000170: cad1 033e ff53 c3bd c231 763e 9f24 3cbe
00000180: cd46 09bf 69d5 863e 97bc ed3e 8259 12bf

GRN_net.encoder.4.bias f4 [10]
-0.005641175 0.042726588 0.26661515 0.08637553 -0.19468188 -0.18470629 -0.24544826 0.2509506
0.042673983 0.097458564
00000000: 9bd9 b8bb 1302 2f3d c881 883e a7e5 b03d
00000010: b05a 47be a523 3dbe ca56 7bbe 997c 803e
00000020: eaca 2e3d 5b98 c73d

GRN_net.encoder.6.weight f4 [10, 10]
0.10131197 0.04572538 0.01454613 -0.07229725 -0.16041927 -0.39471817 0.14498368 -0.52120703
-0.4494226 -0.1693653 -0.3557849 0.1222682 0.3685677 0.4339262 -0.28887686 0.34379393
0.3954652 -0.041465864 0.25453988 0.28601032 0.5158024 0.18678309 0.29965064 -0.10618613
-0.265701 -0.21966921 0.37421653 -0.046779476 0.1367605 -0.6001855 -0.0066448655 -0.25300682
-0.25511843 0.44390464 -0.4182432 -0.2130157 -0.039265018 -0.50030375 0.28512108 -0.30737028
0.25810277 0.44644684 0.36681336 -0.15498911 0.32641298 0.56775755 0.15369228 -0.0807478
-0.201478 0.14754647 0.116726235 -0.36606297 0.333583 0.08831403 -0.577875 0.22751334
0.33917543 0.16381153 0.4132754 0.23207825 -0.42741033 -0.058955748 0.4097374 -0.20733887
0.19047736 0.18227673 -0.12485486 0.0060165725 0.20687154 -0.4013159 0.33584127 0.33363146
0.22774106 0.4819794 0.038386818 -0.5899594 0.05222228 -0.13640557 0.1709365 0.44804093
-0.21766628 0.09242453 0.58783865 -0.41845453 -0.08011532 0.4053295 0.5050261 0.22822548
-0.27825543 0.033090454 -0.47411036 -0.26932532 -0.5386921 0.47702065 0.35629472 0.24056582
-0.21350257 0.5227422 -0.16152136 0.40441343
00000000: a67c cf3d 894a 3b3d e452 6e3c 9510 94bd
00000010: f344 24be 8018 cabe 9a76 143e d36d 05bf
00000020: b81a e6be 196e 2dbe 7029 b6be c067 fa3d
00000030: e8b4 bc3e 932b de3e abe7 93be c205 b03e
00000040: 6a7a ca3e 1cd8 29bd 0d53 823e f26f 923e
00000050: a00b 043f 1144 3f3e cf6b 993e 1d78 d9bd
00000060: f609 88be f7f0 60be 4f99 bf3e d69b 3fbd
00000070: f20a 0c3e c2a5 19bf 2cbd d9bb 1c8a 81be
00000080: e29e 82be 7847 e33e f923 d6be ca20 5abe
00000090: 5bd4 20bd e813 00bf 64fb 913e a35f 9dbe
000000a0: 0c26 843e ae94 e43e f6ce bb3e 77b5 1ebe
000000b0: 9a1f a73e 8f58 113f 8261 1d3e 1a5f a5bd
000000c0: 4050 4ebe 6c16 173e 2a0e ef3d 9b6c bbbe
000000d0: 64cb aa3e fcdd b43d 9eef 13bf 42f9 683e
000000e0: 67a8 ad3e 36be 273e d598 d33e eca5 6d3e
000000f0: 87d5 dabe 957b 71bd 1ac9 d13e a450 54be
00000100: 7f0c 433e c0a6 3a3e e8b3 ffbd ab26 c53b
00000110: 22d6 533e 4779 cdbe 63f3 ab3e bed1 aa3e
00000120: f434 693e 01c6 f63e 7f3b 1d3d 9407 17bf
00000130: 08e7 553d e7ad 0bbe fa09 2f3e 9f65 e53e
00000140: e9e3 5ebe 1249 bd3d 987c 163f ac3f d6be
00000150: 8013 a4bd 5987 cf3e 6449 013f f1b3 693e
00000160: 7f77 8ebe db89 073d 98be f2be 02e5 89be
00000170: bae7 09bf 0d3c f43e 436c b63e e356 763e
00000180: 6ba0 5abe 6fd2 053f db65 25be 470f cf3e

GRN_net.encoder.6.bias f4 [10]
0.010305438 0.22352833 0.10677632 -0.06458801 0.25990736 0.008059688 0.21822771 0.08842029
0.23130909 0.20056975
00000000: 24d8 283c 9ce4 643e 8bad da3d b846 84bd
00000010: 9412 853e c80c 043c 1677 5f3e b215 b53d
00000020: 4adc 6c3e 2862 4d3e

GRN_net.decoder.0.weight f4 [6, 10]
0.014158734 -0.364604 -0.17211121 -0.23311485 -0.58275306 0.12864587 -0.18109813 0.21490094
0.45119086 -0.10961113 0.2366156 0.24026704 0.16493148 -0.27070692 -0.1694911 0.25453126
0.50665396 -0.6087727 -0.4114242 0.11511994 0.5169034 0.26618204 -0.6047478 -0.49062398
0.6216743 0.019597296 -0.5770615 -0.21260852 0.25941724 -0.12313502 -0.43921968 -0.34749308
-0.33406058 0.025158197 0.21417168 0.19016476 -0.3084113 -0.20196636 -0.47814617 0.43689623
0.8757937 0.61071634 0.22586489 -0.053099092 -0.14462633 0.3818661 -0.49699128 0.024905808
-0.47929174 -0.55171007 0.0804112 -0.02678151 -0.45718795 0.2661982 0.14653504 0.04474367
-0.38854396 -0.51013476 -0.0013231813 -0.19408184
00000000: 09fa 673c 60ad babe ec3d 30be a9b5 6ebe
00000010: 4e2f 15bf bebb 033e ca71 39be fe0e 5c3e
00000020: 7d02 e73e cd7b e0bd 5c4b 723e 9008 763e
00000030: cce3 283e 199a 8abe 138f 2dbe ec51 823e
00000040: 13b4 013f 87d8 1bbf 31a6 d2be 01c4 eb3d
00000050: c853 043f 0349 883e c0d0 1abf 1133 fbbe
00000060: 0c26 1f3f 828a a03c 4dba 13bf 0cb6 59be
00000070: 56d2 843e 372e fcbd 67e1 e0be 9dea b1be
00000080: fd09 abbe 9018 ce3c d24f 5b3e 8dba 423e
00000090: 16e8 9dbe 45d0 4ebe 93cf f4be ddb0 df3e
000000a0: 0434 603f e857 1c3f 2049 673e 6f7e 59bd
000000b0: ed18 14be f483 c33e a475 febe 4407 cc3c
000000c0: ba65 f5be df3c 0dbf a1ae a43d e664 dbbc
000000d0: 8a14 eabe 214b 883e 480d 163e 2345 373d
000000e0: 3cef c6be 3198 02bf 996e adba 64bd 46be

GRN_net.decoder.0.bias f4 [6]
0.12607437 -0.31447577 0.1886638 0.09272501 -0.020507468 0.10540374
00000000: a419 013e f802 a1be 1531 413e 9ce6 bd3d
00000010: 47ff a7bc ebdd d73d

BRD_net.encoder.0.weight f4 [8, 7]
-0.20276764 0.39836776 0.15262488 0.5237338 0.03827624 -0.47021842 0.15060899 -0.43997756
1.0031252 -0.5540328 0.26116008 -0.58706564 0.5381193 0.5917044 0.40030864 0.30497414
0.22855972 -0.37848678 -0.2841835 0.11558645 -0.5860218 0.54706967 -0.3776841 0.44697142
0.16994298 0.42290607 -0.2606467 -0.72389096 0.38188925 -0.31733233 0.45428187 -0.4868264
0.24425195 -0.5425691 -0.23384403 -0.0056249127 -0.20519572 -0.7359926 -0.2651561 0.24241923
0.69259673 -0.27133882 -0.0029926326 -0.8142346 -0.40954775 -0.31188396 -2.2568743 0.22320251
-0.059747662 0.74268794 -0.56074834 0.8531353 0.704369 0.8322756 0.27263296 -0.3559798
00000000: 52a2 4fbe dcf6 cb3e b249 1c3e 6b13 063f
00000010: 8cc7 1c3d 78c0 f0be 3e39 1a3e bd44 e1be
00000020: 6866 803f 18d5 0dbf c6b6 853e ef49 16bf
00000030: 30c2 093f f179 173f 41f5 cc3e 9225 9c3e
00000040: 8f0b 6a3e 05c9 c1be 8080 91be 97b8 ec3d
00000050: 8605 16bf c20c 0c3f cf5f c1be 70d9 e43e
00000060: 8805 2e3e 2587 d83e 7c73 85be eb50 39bf
00000070: fd86 c33e 6279 a2be a297 e83e 4f41 f9be
00000080: 2f1d 7a3e cfe5 0abf cf74 6fbe 3051 b8bb
00000090: d41e 52be 036a 3cbf 8ac2 87be bf3c 783e
000000a0: 054e 313f ecec 8abe 0b20 44bb ae71 50bf
000000b0: 3eb0 d1be 41af 9fbe a170 10c0 338f 643e
000000c0: f7b9 74bd cc20 3e3f 348d 0fbf 1367 5a3f
000000d0: 8751 343f 0410 553f 8c96 8b3e fc42 b6be

BRD_net.encoder.0.bias f4 [8]
0.34267348 -0.22225183 -0.28445446 -0.44782785 0.23495698 -0.06315267 -0.06487669 0.04856327
00000000: e672 af3e fc95 63be 04a4 91be b149 e5be
00000010: 9098 703e 3056 81bd 12de 84bd 48ea 463d

BRD_net.encoder.2.weight f4 [8, 8]
-0.39336643 -0.40226516 0.2443718 0.22281192 0.20325075 -0.3984512 -0.3696207 0.46799955
-0.2879995 -0.49399847 0.054991357 -0.14662802 -0.070912145 0.31229326 0.22719796 -0.5680457
-0.16726975 -0.20986305 0.55508876 0.33629078 0.27291593 0.657918 0.28443557 -0.7008783
0.4449734 -0.1699802 -0.27685007 -0.32429466 0.30646673 -0.16405751 -0.4578714 -0.391831
-0.19091259 0.54926544 0.56764096 0.47230417 0.117392145 -0.06400392 -0.10512212 -0.43058962
0.24834068 -0.49700764 0.06362933 0.35783505 0.54927063 -0.52797765 0.5206342 -0.3437893
-0.3124447 0.6639162 0.45138782 -0.19594328 0.28321844 -0.52321124 0.4789137 0.49024332
-0.26016894 0.1914934 0.14186881 -0.3260191 -0.33050308 -0.062406603 -0.48857486 -0.58817154
00000000: 5367 c9be b3f5 cdbe 9a3c 7a3e cf28 643e
00000010: f720 503e cc01 ccbe ed3e bdbe a39d ef3e
00000020: ac74 93be 5eed fcbe 9e3e 613d a825 16be
00000030: 633a 91bd e7e4 9f3e 95a6 683e 716b 11bf
00000040: c348 2bbe 57e6 56be 4c1a 0e3f 4e2e ac3e
00000050: a3bb 8b3e 506d 283f 8aa1 913e c36c 33bf
00000060: 8ed3 e33e 4a0f 2ebe 4bbf 8dbe f309 a6be
00000070: 35e9 9c3e b1fe 27be 1f6e eabe 139e c8be
00000080: 977e 43be a99c 0c3f eb50 113f dad1 f13e
00000090: 4b6b f03d 7d14 83bd 444a d7bd 3e76 dcbe
000000a0: 054d 7e3e c977 febe 1850 823d 2836 b73e
000000b0: 009d 0c3f 8b29 07bf 4848 053f 2705 b0be
000000c0: c0f8 9fbe 69f6 293f 4e1c e73e 5ba5 48be
000000d0: 0202 913e 2cf1 05bf 2d34 f53e 2c01 fb3e
000000e0: dd34 85be d916 443e 0f46 113e faeb a6be
000000f0: b337 a9be 119e 7fbd 7c26 fabe 6992 16bf

BRD_net.encoder.2.bias f4 [8]
0.022141986 0.2277814 -0.040819936 -0.16482353 -0.11252506 0.43551153 0.12944825 -0.16706909
00000000: 1c63 b53c 873f 693e ce32 27bd 80c7 28be
00000010: 8a73 e6bd 5efb de3e 158e 043e 2914 2bbe

BRD_net.decoder.weight f4 [1, 8]
0.16576105 -0.4211971 -0.52396595 -0.20493081 -0.61194086 0.86384124 -0.17105857 -0.5885855
00000000: 44bd 293e 25a7 d7be a222 06bf 62d9 51be
00000010: 28a8 1cbf b324 5d3f fa29 2fbe 8aad 16bf
