example/Embryogenesis/Output/ckpt_itr2400.pth (torch, 8074 bytes, 15 tensors)

GRN_net.encoder.0.weight f4 [10, 6]
000000 22 f2 ff bd ad 67 50 be 26 9f 0b 3d 7e 4d e5 3d
       -0.12497355 -0.20352049 0.034087323 0.11196421
000010 69 38 a2 3e b1 a7 2f 3e 05 4d 90 3e 1f 7a 84 3e
       0.31683663 0.17153813 0.2818376 0.2587442
000020 b4 24 57 3e 8d 87 27 3d dc 7f 4d bd 85 34 f5 3e
       0.21010095 0.040900756 -0.050170764 0.47891632
000030 6b 76 07 3e 7d d4 f6 3e e0 77 24 3f e6 50 3c be
       0.13228767 0.4820899 0.64245415 -0.18390235
000040 49 05 11 3f eb 67 80 bd 40 33 fc 3e a9 e8 33 3f
       0.5664869 -0.06269821 0.4925785 0.70276886
000050 6d b6 ec be 22 8f 74 3d df dd e4 be c7 c5 cf be
       -0.4623293 0.059706815 -0.44700524 -0.4058058
000060 c2 97 54 be fe 3b 7e be 38 b9 2f be 1a 46 17 bf
       -0.20761016 -0.24827573 -0.17160499 -0.5909134
000070 85 f4 ae be 56 7b eb bc 56 d8 9d bd 9c f8 93 3e
       -0.3417093 -0.028745335 -0.077072784 0.2890061
000080 84 20 bd 3e 5d 80 98 3e c4 e8 f0 3e 8f cb 0a bf
       0.3693887 0.29785433 0.47052586 -0.54216856
000090 eb c5 0c 3f a6 b7 41 bf 6a 55 b6 bd fc ce 80 3e
       0.549895 -0.7567085 -0.0890301 0.25157917
0000a0 30 43 9e 3e 26 77 ce be 9d af 8f be cd db fe be
       0.30910635 -0.40325278 -0.2806367 -0.4977707
0000b0 81 d8 8b be d7 db 38 be 08 46 60 3f 45 c8 ee bd
       -0.27313617 -0.18052612 0.8760686 -0.11659292
0000c0 4f 39 89 bd 8c 3d 01 bf 6b b0 55 3f c2 d6 85 be
       -0.06700384 -0.5048454 0.8347232 -0.2614041
0000d0 00 be 21 bf ba 32 e6 3e de 30 ea bd a5 cb 2f 3f
       -0.6318054 0.44960576 -0.11435102 0.6867011
0000e0 ca 5c 18 bf 27 9e f9 be 84 80 a9 be 03 74 95 3e
       -0.59516585 -0.48753473 -0.33105862 0.29190072

GRN_net.encoder.0.bias f4 [10]
000000 e7 35 a1 be 70 e7 ad 3e 3b 7f ab 3e f3 b0 91 3e
       -0.31486437 0.33965635 0.33495507 0.28455314
000010 ab 93 8f be ee b9 24 be e8 41 a5 bc 1a ff c2 3d
       -0.2804235 -0.16086552 -0.020173028 0.09521313
000020 78 6c 90 be bc 43 94 be
       -0.28207755 -0.28957927

GRN_net.encoder.2.weight f4 [10, 10]
000000 c5 ba c3 bd 3b fe d5 be 7e db 52 3e 89 20 77 bc
       -0.09557108 -0.41795525 0.20591542 -0.015083441
000010 b6 b2 35 3e b1 7c 8f be 61 25 ff be aa 3a 93 3e
       0.17743954 -0.2802482 -0.49833205 0.28755695
000020 39 38 c3 be 5e f0 d6 3e a9 68 df 3e 5c 85 e5 be
       -0.38128832 0.4198026 0.43634537 -0.44828308
000030 84 ca f7 be a5 5e b8 3d a5 51 a1 be 2e 11 61 3d
       -0.48396695 0.09002427 -0.31507602 0.054948024
000040 64 13 88 be 4c 6f 42 be 53 d8 04 bf ca e4 c1 3e
       -0.26577294 -0.18987769 -0.51892585 0.37869865
000050 4f 35 d9 be 9d b3 bf be 76 dc 47 bd 98 d9 ca be
       -0.42423484 -0.37441722 -0.048794232 -0.39619136
000060 ee 8c ef be 00 e1 b4 3e 67 d3 3b be 85 a8 73 3e
       -0.46787208 0.3532791 -0.18342362 0.23794754
000070 10 fb b5 3e 67 f1 c1 be 11 a9 eb be a3 c2 1e be
       0.35543108 -0.37879488 -0.46027425 -0.15503936
000080 71 0e b1 3e 3d bb 02 bc 15 da 61 be 42 56 bf 3e
       0.3458133 -0.007979211 -0.22055848 0.37370497
000090 3f 59 0a 3f 72 0f c0 3e bf 98 e6 be 7d 45 e4 bd
       0.5404243 0.37511784 -0.4503841 -0.11146066
0000a0 af 88 8b be 11 1e d8 3e bf 1d 8d be f2 55 52 be
       -0.2725272 0.4221044 -0.27561757 -0.20540598
0000b0 6d 98 0e 3c be da d8 bc df 96 ca 3e 12 17 67 3d
       0.008703333 -0.026471492 0.3956823 0.056418486
0000c0 5e 0a e6 be 60 f4 dc 3e af d7 cb 3e db 41 97 3d
       -0.44929785 0.43155193 0.3981299 0.07385608
0000d0 02 7c ef be 8b ee 7a 3e 7b be cb 3e c8 b0 3c 3e
       -0.46774298 0.2450506 0.39793763 0.18426812
0000e0 b0 74 44 be 37 68 ae 3d 11 e5 b4 be c5 61 0d 3f
       -0.19185138 0.08515971 -0.35331014 0.5522731
0000f0 45 09 01 3f e6 e5 02 be b9 2c ee be 33 f9 9d 3e
       0.5040477 -0.12783012 -0.46518496 0.30854186
000100 7d 97 ae 3e 72 3b 89 3e 7c 1d b5 be d2 1b 55 3e
       0.3409995 0.26803166 -0.35374057 0.20811394
000110 01 22 3a be cd ba fb be 78 ba 99 be e9 a5 57 3e
       -0.18177034 -0.49165955 -0.30025077 0.21059383
000120 40 09 89 3e ce ec 09 bf b8 e2 91 3e 47 48 84 3e
       0.2676487 -0.5387696 0.28493285 0.25836393
000130 cd 7d 00 3f 8f 0c f4 3e 2b 19 31 be c9 f1 90 3e
       0.50191957 0.4766583 -0.17294757 0.28309467
000140 7e 7f f6 3e d8 e6 30 3e 6a 22 cb be d4 93 1b be
       0.48144144 0.1727556 -0.39674693 -0.1519311
000150 16 f1 fc 3e 63 ce a9 3e dd 49 f6 3e de 1a ec bd
       0.49402684 0.33165273 0.48103228 -0.11528562
000160 00 1b 4f bc 3a e4 e1 be 34 10 79 be ef ff af 3e
       -0.012640715 -0.44119436 -0.24322587 0.3437495
000170 4d 56 05 bf 85 9b 8f be 64 3b e7 3d 5e 2f 8d be
       -0.5208481 -0.2804834 0.11290625 -0.275752
000180 49 08 45 3d 9e 63 30 3d 98 c8 8f 3e 24 5a c9 be
       0.048103604 0.043063752 0.28082728 -0.39326584

GRN_net.encoder.2.bias f4 [10]
000000 0e 47 b1 bd 63 fe 33 3d 60 53 9b 3d 40 bb ce 3d
       -0.08656131 0.043943774 0.07584262 0.10094309
000010 92 15 a7 3e 83 3f 78 3e 53 fe 1e 3e 32 03 66 3c
       0.32633644 0.24242978 0.15526704 0.014038848
000020 14 24 82 be 41 a3 81 3e
       -0.2541815 0.25319865

GRN_net.encoder.4.weight f4 [10, 10]
000000 3a fb 87 3c c5 70 fd be 45 dd 9a 3e ab eb 02 3f
       0.016599286 -0.495001 0.3024694 0.5114085
000010 e3 62 1d be 4b 57 72 3d d9 c1 89 be 79 98 f0 be
       -0.15369754 0.05916528 -0.26905707 -0.46991327
000020 95 55 97 be 9c 40 5d be e7 fa 13 3e 28 07 0c 3d
       -0.2955748 -0.21606678 0.1445118 0.034186512
000030 d6 fb 18 3d 90 a3 cb be c8 10 b6 be 64 fb d1 be
       0.037349544 -0.39773226 -0.35559678 -0.41012108
000040 b8 2c bb be 81 34 ee 3e b3 07 57 3e 58 32 0d bf
       -0.36557555 0.46524432 0.20999031 -0.55154943
000050 7d a0 d4 bd 07 30 20 3d cc 66 c1 3e 1a 5c 08 3f
       -0.10382173 0.039108302 0.3777374 0.53265536
000060 ef 18 df bd 24 fd b8 3e 09 d7 06 be 13 32 8d 3d
       -0.108934276 0.3613063 -0.13167967 0.068943165
000070 f0 8d 8c be 63 5e 8e 3d 01 61 f0 3e ea dd bf 3e
       -0.2745204 0.069515966 0.46949008 0.37473994
000080 4e 19 b9 3e 4c ae 73 be d2 86 6e bd bd 83 07 3e
       0.36152118 -0.23796958 -0.058234043 0.13233848
000090 6d 00 bd 3e 38 7c 05 bf 91 d4 83 be e5 39 de 3c
       0.36914387 -0.5214267 -0.25748113 0.027127216
0000a0 b6 6a 8c be 7e 8f 24 3e f9 a1 f0 bc 26 1d 1d be
       -0.27425164 0.16070363 -0.02937411 -0.1534315
0000b0 c2 1c 3a 3e 22 47 c3 3e 8d 21 00 3f 08 ca 9a 3e
       0.18175033 0.38140208 0.50051194 0.30232263
0000c0 1b 40 0f 3b db 4e dd 3e 55 04 f8 3e d9 68 08 bf
       0.0021858278 0.43224224 0.48440805 -0.53284985
0000d0 5b 5d 8d 3e 5d c3 51 3b 31 ab a8 be ea b9 ce bd
       0.27610287 0.0032007315 -0.3294311 -0.10094054
0000e0 de bd f4 bd 04 4d 71 be 61 8c 33 be 26 8a d8 3d
       -0.11950277 -0.23564535 -0.17534019 0.10573225
0000f0 28 80 3d 3e 54 7c 66 3d 43 5e 0c bf 93 20 9b 3e
       0.18505919 0.056270912 -0.5483133 0.3029829
000100 55 75 84 bd 0e ba da 3e 77 21 00 bf 1e f9 03 be
       -0.06467692 0.42720073 -0.50051063 -0.12888
000110 08 22 d8 3e 7d 91 73 3e cb 22 8b be ca a6 fb be
       0.42213464 0.23785968 -0.27174982 -0.49150687
000120 4c 74 59 3d 6a ad 2b 3e 7f 1b 12 bf 55 13 f1 be
       0.053089425 0.16765371 -0.57073206 -0.47085062
000130 3a 7f 29 bc 60 b0 e3 bd c1 4e bf 3e 06 0e 07 bf
       -0.010345275 -0.11117625 0.37364772 -0.52755773
000140 f3 e8 26 be c4 9b d1 be 62 a0 ec bc 16 ca 5d be
       -0.162998 -0.40939152 -0.02888507 -0.21659121
000150 0d 90 29 3e c4 d9 08 bf c2 da dd be 4b b8 ae be
       0.16558857 -0.53457284 -0.4333096 -0.3412498
000160 ce 17 06 bf be 40 f0 3e 0a 8e f5 bd 09 73 ba be
       -0.52380073 0.46924394 -0.119899824 -0.3641589
000170 90 95 3e 3e f0 37 c6 bd 7b 90 6e 3e 21 ce 3e be
       0.18611741 -0.09678638 0.23297302 -0.1863332
000180 11 5c 09 bf 93 26 8c 3e 13 62 e4 3e be 26 12 bf
       -0.5365611 0.2737318 0.44606075 -0.57090366

GRN_net.encoder.4.bias f4 [10]
000000 3b 67 2c bc 2f 12 15 3d 1b 55 91 3e 53 cc b2 3d
       -0.010522659 0.036394294 0.28385243 0.08730378
000010 97 fa 2b be 57 8b 40 be c5 16 86 be 26 3c 87 3e
       -0.16794811 -0.18803154 -0.26189247 0.26413077
000020 d1 0d 24 3d 32 8f b1 3d
       0.04005224 0.086698905

GRN_net.encoder.6.weight f4 [10, 10]
000000 2b f5 9d 3d 98 d3 2d 3d d0 8f ab 3c aa 6c 64 bd
       0.07712778 0.04243812 0.020942599 -0.055767693
000010 9c 4a 15 be 19 31 d4 be 1e 05 0d 3e 7b d0 ed be
       -0.14579242 -0.4144371 0.13771483 -0.4644812
000020 30 00 eb be 37 70 2f be bb cc b7 be f0 da f0 3d
       -0.4589858 -0.1713265 -0.35898384 0.11760509
000030 d2 46 bc 3e 98 f5 de 3e d1 67 93 be 51 8c a3 3e
       0.36772782 0.43546748 -0.28790143 0.3194299
000040 18 64 d1 3e c4 8c 0c bd 2a ca 7d 3e 18 25 91 3e
       0.40896678 -0.034313932 0.2478415 0.28348613
000050 2f 0a fc 3e 73 91 3d 3e 5c 46 96 3e 6d f2 d8 bd
       0.4922652 0.18512516 0.29350555 -0.10593114
000060 50 6e 7a be 47 e4 62 be ed 16 c2 3e 90 c0 81 bd
       -0.24456143 -0.22157393 0.37908116 -0.063355565
000070 19 cf 03 3e 9d 95 1a bf de bb 6c 3d 82 39 6e be
       0.1287197 -0.6038454 0.05779635 -0.23264125
000080 fb 70 72 be c5 ba e1 3e f3 be eb be 16 4c 4b be
       -0.23675911 0.44087806 -0.4604412 -0.19853243
000090 f7 1f 73 bd cd ac f5 be 24 8b 97 3e 11 31 7b be
       -0.059356656 -0.479834 0.29598343 -0.24530436
0000a0 3f 46 8c 3e ed cb e7 3e b9 33 b7 3e b5 2d 0c be
       0.27397344 0.4527277 0.3578165 -0.13689311
0000b0 d2 3b 9f 3e c4 13 13 3f 96 89 27 3e 2d ff ad bd
       0.31100327 0.57452035 0.16361079 -0.084959365
0000c0 7f 54 4d be be cb 1c 3e 62 a6 e3 3d cf c9 d0 be
       -0.20051764 0.15312096 0.111157194 -0.40778968
0000d0 cc 0b af 3e c8 9e c4 3d 58 95 ff be be c1 5c 3e
       0.34188688 0.096005976 -0.49918628 0.21558282
0000e0 cc 6d ac 3e 78 fe 22 3e 37 18 d6 3e ef bd 18 3e
       0.33677518 0.15917385 0.4181535 0.14916204
0000f0 43 91 e8 be a7 66 81 bd 62 5d cd 3e 6b 2b 5a be
       -0.45423326 -0.063184075 0.40110308 -0.21305625
000100 4e 33 3b 3e 0b 69 2d 3e 7b b7 ca bd 50 7e 7a bc
       0.1828129 0.16934602 -0.09898277 -0.015288904
000110 27 9f 60 3e c6 5a ce be d6 5c ab 3e bc 79 ab 3e
       0.21935712 -0.4030363 0.33469266 0.33491313
000120 98 83 f3 3d 2c d6 f5 3e d1 d8 06 3d c7 01 06 bf
       0.11890334 0.48014963 0.032921616 -0.5234646
000130 f3 f6 61 3d 1f 94 0b be 1b e9 30 3e 9e 9e e6 3e
       0.05516715 -0.13630722 0.17276423 0.4504289
000140 bc 83 7a be 9b 43 da 3d 9f eb 13 3f 76 fe d7 be
       -0.24464315 0.10657426 0.57781404 -0.42186326
000150 43 02 b0 bd a4 e3 c5 3e f6 94 01 3f 12 b2 6c 3e
       -0.085941814 0.3865024 0.5061792 0.23114803
000160 cc 1e 98 be a9 77 34 3d ad 36 01 bf aa bc 95 be
       -0.29710996 0.04405943 -0.50474054 -0.29245502
000170 51 a1 0e bf d3 a9 0a 3f cc 16 bd 3e ab e9 8b 3e
       -0.557149 0.5416538 0.36931455 0.27326712
000180 12 aa 42 be de 8b ff 3e 6d 6e 20 be 9f 24 c6 3e
       -0.19010189 0.49911398 -0.15667124 0.38699815

GRN_net.encoder.6.bias f4 [10]
000000 0a 86 a7 3b d3 59 5c 3e b0 e3 df 3d 30 f9 b9 bd
       0.0051124142 0.2151864 0.109321 -0.09080732
000010 fe 03 81 3e 09 e4 60 3c e1 cc 6a 3e 8c f3 b8 3d
       0.25198358 0.013726243 0.22929718 0.09030828
000020 57 05 5f 3e 88 71 4e 3e
       0.2177938 0.20160496

GRN_net.decoder.0.weight f4 [6, 10]
000000 d5 fc 18 3c 0c af c0 be da b0 47 be d1 4a 77 be
       0.009337624 -0.3763355 -0.19501057 -0.24149634
000010 1a 65 15 bf a8 5e c7 3d d2 8d 2a be c2 47 57 3e
       -0.58357394 0.09734851 -0.16655663 0.21023467
000020 ba 7c e0 3e 25 0a 85 bd 18 d0 7b 3e f8 c6 53 3e
       0.4384516 -0.064960755 0.245911 0.2068137
000030 19 1a 7a 3e 2d e5 87 be a6 d2 4c be 63 8a 4b 3e
       0.24424018 -0.26542035 -0.20002231 0.19877009
000040 7e 8a 08 3f 43 13 1b bf ff 00 d7 be bf c4 c9 3d
       0.5333632 -0.60576266 -0.41992947 0.098519795
000050 3d 5e 0a 3f 5c 30 83 3e c3 3e 20 bf ff 12 f6 be
       0.54050046 0.25622833 -0.62595767 -0.48061368
000060 47 13 15 3f 4e 84 1b bd 42 21 15 bf 20 e2 86 be
       0.5823254 -0.037967972 -0.5825387 -0.26344395
000070 1a de 81 3e 96 53 f7 bd ac 02 e9 be e5 a7 ad be
       0.25364763 -0.120764896 -0.4550985 -0.33917156
000080 03 d0 9e be 0c d2 1e 3d c5 e3 4b 3e 5f 54 65 3e
       -0.31018075 0.038774535 0.19911106 0.22395466
000090 1c 18 95 be eb 85 63 be 32 d7 fc be 4b 8f e8 3e
       -0.29119956 -0.22219054 -0.4938293 0.45421824
0000a0 7b 8d 44 3f 92 31 18 3f de ba 60 3e e0 e1 7d bd
       0.7677838 0.5945064 0.21946284 -0.06198299
0000b0 79 c5 2a be d9 4f 9f 3e be 8f f8 be 4d c1 51 3a
       -0.16676892 0.31115606 -0.48547167 0.00080015213
0000c0 c8 94 f7 be 0b 1f 0b bf 4b bc 94 3d 4d e7 1e bd
       -0.483557 -0.5434424 0.072624765 -0.038794804
0000d0 b7 f7 ea be a0 2c 38 3e d4 5b 3f 3e 12 f1 50 3d
       -0.45892116 0.17985773 0.18687373 0.051011153
0000e0 62 23 c9 be e5 dc f4 be 19 f7 74 3d 81 ab 53 be
       -0.39284807 -0.4782478 0.059805963 -0.20670892

GRN_net.decoder.0.bias f4 [6]
000000 a9 b2 0a 3e 9c 6a 9a be 78 0b 37 3e a0 a0 c2 3d
       0.13544716 -0.30159461 0.17875469 0.09503293
000010 f8 4a 42 bd 4a 9d d4 3d
       -0.047434777 0.10381563

BRD_net.encoder.0.weight f4 [8, 7]
000000 5c 56 52 be c2 bf c6 3e 63 5b 18 3e 2c f8 0d 3f
       -0.20540756 0.38818175 0.14878611 0.55456805
000010 31 af 7f 3d 9a 46 00 bf 43 c8 1b 3e 2e a2 e4 be
       0.062422935 -0.5010773 0.15213113 -0.44654983
000020 ba 02 56 3f a2 32 0b bf 21 23 89 3e 30 1b 24 bf
       0.8359791 -0.54374135 0.26784614 -0.64103985
000030 97 cf 14 3f 57 73 15 3f 93 c9 cc 3e da 6a b1 3e
       0.58129257 0.5837912 0.3999754 0.34651834
000040 08 77 57 3e 94 80 d4 be ac de c9 be fd a2 84 3c
       0.210415 -0.41504347 -0.39427698 0.016191
000050 41 80 16 bf 3e 8e 11 3f 9b c6 a8 be dd d6 ef 3e
       -0.5878945 0.5685767 -0.32964024 0.46843615
000060 8a 97 1c 3e f3 1c cf 3e 8f de ac be 78 cb 25 bf
       0.15292183 0.40451774 -0.3376355 -0.64763594
000070 3a ef c9 3e 87 00 32 be cd 23 e2 3e bc b5 01 bf
       0.39440328 -0.17383014 0.4416794 -0.5066793
000080 f2 fc 5e 3e 9e bb 19 bf 64 94 68 be 10 f3 a8 ba
       0.21776178 -0.60051906 -0.22712857 -0.0012889821
000090 3e dd 4c be f7 11 38 bf fa 56 8e be 62 37 69 3e
       -0.20006272 -0.7190241 -0.27800733 0.22775033
0000a0 5a 20 40 3f 9e 12 89 be a0 37 ba 3b 97 b2 51 bf
       0.75049365 -0.26772016 0.0056829005 -0.8191313
0000b0 52 d6 bc be fc 44 a6 be 98 b3 99 bf ae bb c8 3d
       -0.36882263 -0.32474506 -1.2007933 0.09801422
0000c0 13 12 88 3c bc 5a 38 3f 78 ed d3 be 68 15 4c 3f
       0.016610181 0.7201345 -0.41392112 0.79720163
0000d0 a7 0e 39 3f 2f 55 63 3f 92 2d 6d 3e 36 76 c7 be
       0.7228798 0.88801855 0.23161915 -0.38957375

BRD_net.encoder.0.bias f4 [8]
000000 1a 30 ad 3e 68 c5 5d be 40 75 90 be 58 50 ab be
       0.3382576 -0.21657336 -0.28214455 -0.33459735
000010 d2 de 65 3e 79 96 5a bd 99 75 66 bd 9d b0 4e b9
       0.2244828 -0.05336616 -0.056264494 -0.00019711484

BRD_net.encoder.2.weight f4 [8, 8]
000000 7a 65 c9 be 5d 79 cc be a8 10 86 3e 37 d9 77 3e
       -0.39335233 -0.39936343 0.26184583 0.24203955
000010 81 d8 56 3e 1d 3f d0 be 4b 0e d0 be 13 30 ed 3e
       0.20981027 -0.40673152 -0.40635905 0.4632574
000020 66 2e 96 be 32 62 ff be da 65 8e 3d 26 de 12 be
       -0.29332274 -0.49879605 0.069530204 -0.14342555
000030 f1 02 89 bd 9f 69 9d 3e 3f ed 7b 3e 01 44 10 bf
       -0.06690014 0.30744645 0.24602221 -0.56353766
000040 79 32 62 be ca 76 5f be 40 38 11 3f 10 14 ad 3e
       -0.22089566 -0.21822658 0.56726456 0.3380437
000050 62 f6 8f 3e 36 de 24 3f f4 9c 9e 3e 81 6d 31 bf
       0.28117663 0.64401567 0.3097912 -0.69307715
000060 0d ce e3 3e 6f 69 37 be 00 a0 81 be 3b c0 a2 be
       0.44493142 -0.17911313 -0.25317383 -0.31787285
000070 ed 35 a0 3e 73 3a 2b be a8 e2 cc be 0d 53 c5 be
       0.31291142 -0.16721515 -0.40016675 -0.38539925
000080 2e 49 05 be f3 15 0b 3f fe 75 14 3f cd 56 f4 3e
       -0.13016197 0.54330367 0.5799254 0.47722474
000090 86 bb fd 3d 73 6d b3 bd 54 29 da bd 18 b1 d9 be
       0.12389283 -0.0876111 -0.10652414 -0.42517924
0000a0 17 e7 84 3e f7 70 01 bf dd 23 33 3e de 61 bd 3e
       0.25957558 -0.50562996 0.1749415 0.3698873
0000b0 be f3 10 3f 63 a7 0e bf 28 bf fe 3e 86 21 b1 be
       0.5662192 -0.5572416 0.49755216 -0.3459589
0000c0 69 92 a5 be 3d ba 2a 3f 80 67 f1 3e 92 9c 4a be
       -0.32338265 0.6669043 0.47149277 -0.1978629
0000d0 02 9d 8f 3e 6e e5 03 bf 7a 38 01 3f 73 75 f9 3e
       0.28049475 -0.51521957 0.504768 0.4872242
0000e0 ec 99 8a be e6 08 46 3e 9a 42 1a 3e a8 59 a9 be
       -0.27070558 0.19339332 0.15064469 -0.33076215
0000f0 68 a0 ab be d9 d5 48 bd 7c af ec be 6b 58 15 bf
       -0.33520818 -0.049032066 -0.46227634 -0.5833804

BRD_net.encoder.2.bias f4 [8]
000000 af 19 27 3c 2f 39 73 3e e2 00 dd bc ba 9a 16 be
       0.010198995 0.23752283 -0.02697796 -0.14707461
000010 d3 35 d3 bd cd 89 da 3e b0 b6 06 3e b2 93 1e be
       -0.103130005 0.4268326 0.13155627 -0.15486029

BRD_net.decoder.weight f4 [1, 8]
000000 92 8a 29 3e 89 d6 da be 08 0c 06 bf cc c3 02 be
       0.16556767 -0.42741802 -0.5236211 -0.12770003
000010 5e 23 1b bf 1b e4 5b 3f 23 90 49 be ed a7 14 bf
       -0.6060084 0.85894936 -0.1968389 -0.58068734
