example/Embryogenesis/Output/ckpt_itr1000.pth (torch, 8074 bytes, 15 tensors)

GRN_net.encoder.0.weight f4 [10, 6]
0	0xbda673d7	-0.081275634
1	0xbe85f872	-0.2616611
2	0x3d843091	0.06454576
3	0x3e20bca0	0.15696955
4	0x3eb1672c	0.34649026
5	0x3e205b6f	0.15659879
6	0x3e6fd763	0.23422007
7	0x3e98807a	0.2978552
8	0x3e6a2846	0.22866926
9	0x3c64f337	0.013974003
10	0xbe37ad31	-0.17937161
11	0x3eee3bdd	0.46530047
12	0x3db48b45	0.08815626
13	0x3f071329	0.5276361
14	0x3f1e966e	0.6194829
15	0xbe2a760b	-0.16646592
16	0x3f06d9df	0.52676195
17	0xbd388548	-0.045048982
18	0x3f078c91	0.5294886
19	0x3f2c6866	0.673468
20	0xbedef97a	-0.4354971
21	0x3d9e90fb	0.077424966
22	0xbed1ed32	-0.41001278
23	0xbeb11214	-0.34584105
24	0xbe15a51a	-0.14613762
25	0xbe269cd0	-0.16270757
26	0xbe1ba3ca	-0.151992
27	0xbf11fc24	-0.5702536
28	0xbeb04ad8	-0.344321
29	0xbd4211aa	-0.047380127
30	0xbdf141aa	-0.117801026
31	0x3ea669c7	0.32502577
32	0x3ec7b9db	0.39008984
33	0x3ea34322	0.31887156
34	0x3ef64255	0.48097482
35	0xbf10a022	-0.56494343
36	0x3ef0d60d	0.47038308
37	0xbf393eb4	-0.723613
38	0xbdc19cde	-0.09453748
39	0xbf0291d5	-0.5100377
40	0x3e8b2ba4	0.27181733
41	0xbedcef47	-0.43151304
42	0xbeb2a3eb	-0.34890684
43	0xbec02175	-0.37525526
44	0xbeac1d32	-0.33616024
45	0xbeabdb27	-0.33565637
46	0x3f46241d	0.77398854
47	0xbe059310	-0.13044381
48	0x3e2b058d	0.16701336
49	0xbee5779d	-0.4481782
50	0x3f4d8a4c	0.8028915
51	0xbe767e66	-0.24071655
52	0xbf1ce34e	-0.6128434
53	0x3ed9b86e	0.4252352
54	0xbde7ec71	-0.113243945
55	0x3f2e72ba	0.6814381
56	0xbf0b57e8	-0.5443101
57	0xbee904c5	-0.4551145
58	0xbeb9a623	-0.36259565
59	0x3ea12cae	0.314794

GRN_net.encoder.0.bias f4 [10]
0	0xbe8bec48	-0.27328706
1	0x3e865618	0.2623756
2	0x3e81c3fe	0.25344843
3	0x3ea55bed	0.32296696
4	0xbe82f3c6	-0.2557661
5	0xbe0ad176	-0.13556466
6	0xbd9eec41	-0.077599056
7	0x3bc905df	0.006134733
8	0xbe9ebab3	-0.31001815
9	0xbe894a47	-0.26814482

GRN_net.encoder.2.weight f4 [10, 10]
0	0xbde00757	-0.109389
1	0xbecb6ef2	-0.39733082
2	0x3e1ecdea	0.15508237
3	0x3ce4fb53	0.027951872
4	0x3e2013a7	0.15632497
5	0xbe9c2641	-0.30497935
6	0xbef15c8a	-0.47140914
7	0x3e80e923	0.2517787
8	0xbeae6c87	-0.34067175
9	0x3ecda359	0.40163687
10	0x3eda53f0	0.42642164
11	0xbed4d6bb	-0.41570076
12	0xbea2d8d8	-0.31806064
13	0x3dd24a65	0.10268096
14	0xbf02bf35	-0.5107301
15	0x3d5c8210	0.053834975
16	0xbe55c59d	-0.20876165
17	0xbe441663	-0.19149165
18	0xbeff22cc	-0.49831235
19	0x3e869566	0.26285857
20	0xbeceb99f	-0.40375993
21	0xbecf9a1d	-0.40547267
22	0xbdb452d5	-0.088048615
23	0xbe6e741f	-0.23286484
24	0xbefd1ab6	-0.4943444
25	0x3ea8ac92	0.3294416
26	0xbe44afb2	-0.19207647
27	0x3e86923d	0.26283446
28	0x3eaa74c3	0.33292207
29	0xbe9f6991	-0.31135228
30	0xbe86495f	-0.26227853
31	0xbe5e11a7	-0.21686421
32	0x3e9df79d	0.30852976
33	0xbda8d60c	-0.08243951
34	0xbe3cf8f9	-0.1845435
35	0x3ebae337	0.36501476
36	0x3eff178c	0.49822652
37	0x3ef0ec4a	0.47055274
38	0xbee339e6	-0.4438011
39	0xbd974301	-0.07385827
40	0xbe1d426b	-0.15357368
41	0x3ec445dd	0.3833455
42	0xbea302ed	-0.3183817
43	0xbe9731ac	-0.29530084
44	0x3d2016fd	0.039084423
45	0xbd8003b4	-0.06250706
46	0x3ea99714	0.33123076
47	0x3dc7e679	0.09760756
48	0xbee53266	-0.44765013
49	0x3ee9f155	0.45691934
50	0x3ebf1640	0.37321663
51	0x3dc2059d	0.09473727
52	0xbf06cb41	-0.5265389
53	0x3e8f054f	0.27933738
54	0x3ebecb57	0.3726451
55	0x3e234ebe	0.15948007
56	0xbe6b9029	-0.23004211
57	0x3d6f8748	0.058478624
58	0xbea79729	-0.32732514
59	0x3f089118	0.53346395
60	0x3f00fab0	0.5038252
61	0xbe0636e4	-0.13106877
62	0xbee468ee	-0.44611305
63	0x3eb48999	0.3526123
64	0x3e9f0e97	0.3106582
65	0x3e907a64	0.28218377
66	0xbea76753	-0.32696018
67	0x3e5ce8e1	0.21573211
68	0xbe6f278e	-0.23354933
69	0xbf0344a4	-0.5127661
70	0xbeb0a1fd	-0.34498587
71	0x3e6ab95e	0.22922274
72	0x3e64ed48	0.2235614
73	0xbeffd300	-0.49965668
74	0x3e8aa39d	0.27077952
75	0x3e92154f	0.28531882
76	0x3eeb0bf9	0.45907572
77	0x3edcbac9	0.43111256
78	0x3d2b858f	0.04187542
79	0x3e928fe9	0.2862542
80	0x3ee9997c	0.45624912
81	0x3e778a5c	0.24173874
82	0xbeb77537	-0.35831615
83	0xbe10fd4b	-0.14159124
84	0x3eef880f	0.46783492
85	0x3eb754f0	0.3580699
86	0x3eddd2bf	0.4332485
87	0xbe26b10a	-0.16278473
88	0xbcbdcd5e	-0.023169216
89	0xbef26982	-0.4734612
90	0xbe890e2c	-0.26768625
91	0x3eae7858	0.3407619
92	0xbf0447b2	-0.516719
93	0xbe5be178	-0.21472728
94	0x3e208033	0.15673904
95	0xbea79f41	-0.3273869
96	0x3d9dd847	0.07707267
97	0x3c80f846	0.015743386
98	0x3e943022	0.28942972
99	0xbecd32ca	-0.4007781

GRN_net.encoder.2.bias f4 [10]
0	0xbd887c2e	-0.066643104
1	0x3dd58b41	0.10426951
2	0x3d2dfd55	0.042477924
3	0x3d76af0e	0.06022554
4	0x3e98f48d	0.29874077
5	0x3e8ad0fb	0.27112564
6	0x3e47fccf	0.19530033
7	0x3c3454c1	0.011006535
8	0xbe61a16e	-0.22034237
9	0x3e5fedff	0.21868132

GRN_net.encoder.4.weight f4 [10, 10]
0	0x3d1a140b	0.03761677
1	0xbf0028ab	-0.50062054
2	0x3e9c1714	0.30486357
3	0x3efe9d97	0.49729607
4	0xbe06357d	-0.13106342
5	0x3d98bc76	0.07457821
6	0xbe973184	-0.29529965
7	0xbecb0dc3	-0.39658937
8	0xbe998388	-0.29983163
9	0xbe6215da	-0.22078648
10	0x3da3400a	0.07971199
11	0xbdace52b	-0.08442148
12	0x3cbd3caa	0.023100216
13	0xbed4fc11	-0.4159856
14	0xbebc05b9	-0.36723116
15	0xbefaed6e	-0.4900927
16	0xbed0d828	-0.40789914
17	0x3ee5963c	0.44841182
18	0x3e3db527	0.18526135
19	0xbf05d346	-0.522755
20	0xbd8ddbc1	-0.0692668
21	0x3daffc65	0.08593062
22	0x3eac3727	0.33635828
23	0x3f02ed58	0.5114341
24	0x3deee715	0.11665169
25	0x3ec9b978	0.39399314
26	0xbe119cc9	-0.14219965
27	0x3d438069	0.047729883
28	0xbe9d7cb7	-0.30759212
29	0x3db1f510	0.0868932
30	0x3ef96e87	0.48717138
31	0x3ec5a078	0.3859899
32	0x3eb33f85	0.350094
33	0xbe502f37	-0.20330511
34	0xbccee95f	-0.025257764
35	0x3e183d21	0.14867069
36	0x3ec92ae6	0.3929054
37	0xbefb308b	-0.49060473
38	0xbe6e80eb	-0.23291366
39	0x3cf3fe74	0.029784419
40	0xbe97e974	-0.29670298
41	0x3e46926d	0.19391795
42	0xbce02b06	-0.027364265
43	0xbe03e6db	-0.12881033
44	0x3e4ac372	0.19801119
45	0x3ec877ab	0.391538
46	0x3f0523a1	0.5200749
47	0x3e8a8c17	0.27060005
48	0x3c697687	0.0142494505
49	0x3ed2975b	0.411311
50	0x3eee9dae	0.46604675
51	0xbe92e3cf	-0.2868943
52	0x3e823ac9	0.25435475
53	0x3c8c6998	0.017140195
54	0xbeb4d347	-0.35317442
55	0xbde434cd	-0.111428834
56	0xbdd17e72	-0.10229196
57	0xbe95f50b	-0.29288515
58	0xbe343030	-0.17596507
59	0x3dec4912	0.115373746
60	0x3ec6dff6	0.38842744
61	0x3d33cbf9	0.043895695
62	0xbf0bea72	-0.5465461
63	0x3e90bc07	0.28268453
64	0xbe09627e	-0.13416478
65	0x3eeeb42e	0.4662184
66	0xbf0436e1	-0.5164624
67	0xbe0d4d79	-0.13799085
68	0x3ecf7b73	0.40523872
69	0x3e816e55	0.2527949
70	0xbe80fbf8	-0.25192237
71	0xbef02043	-0.46899614
72	0x3d854915	0.0650808
73	0x3e4c9474	0.19978505
74	0xbf0f1108	-0.5588536
75	0xbee7db40	-0.45284462
76	0x3c014839	0.007890754
77	0xbdbac8c2	-0.09120323
78	0x3ec6bf69	0.3881791
79	0xbf0d2448	-0.55133486
80	0xbe0df9be	-0.138648
81	0xbee76e8b	-0.45201525
82	0xbd674ea4	-0.056471482
83	0xbe110e15	-0.14165528
84	0x3e5c5594	0.2151702
85	0xbf02d410	-0.5110483
86	0xbeed2c83	-0.46323022
87	0xbe9de874	-0.3084141
88	0xbefea138	-0.49732375
89	0x3ee4f65b	0.44719204
90	0xbdaab9c9	-0.08336217
91	0xbeaec159	-0.34131888
92	0x3e807561	0.25089553
93	0xbd9d5a0d	-0.076831914
94	0x3e833082	0.25622946
95	0xbe1a8d30	-0.15092921
96	0xbf0440eb	-0.51661557
97	0x3e72ea67	0.2372223
98	0x3ebf1658	0.37321734
99	0xbf194d07	-0.5988316

GRN_net.encoder.4.bias f4 [10]
0	0xbd015272	-0.031572767
1	0x3dd4f9b9	0.10399193
2	0x3e7fef31	0.24993588
3	0x3d93380f	0.07188427
4	0xbe08417d	-0.13306232
5	0xbe2e58bd	-0.17026038
6	0xbe86c0fe	-0.26319116
7	0x3e79d4b4	0.24397546
8	0x3c7073ff	0.014676093
9	0x3d444791	0.047919814

GRN_net.encoder.6.weight f4 [10, 10]
0	0x3d136e99	0.035994146
1	0x3ddfaff4	0.10922232
2	0x3b0aa7f9	0.0021157248
3	0xbc3e12c8	-0.0116011575
4	0xbe38297f	-0.1798458
5	0xbec6da89	-0.38838604
6	0x3dbf56f2	0.093427554
7	0xbecb8fd4	-0.3975817
8	0xbedef774	-0.43548167
9	0xbe459dd1	-0.19298483
10	0xbec9d5f8	-0.39421058
11	0x3e25e157	0.16199242
12	0x3eb1e907	0.34748098
13	0x3ecd9463	0.40152273
14	0xbea5ff78	-0.3242147
15	0x3e9d6497	0.30740806
16	0x3ebe8c48	0.372164
17	0xbb831664	-0.004000472
18	0x3e8ac1b6	0.27100915
19	0x3e838b95	0.2569243
20	0x3efa8df4	0.48936427
21	0x3e58e59d	0.2118134
22	0x3e8cbaa4	0.27486145
23	0xbe258acc	-0.16166228
24	0xbea17517	-0.31534645
25	0xbe5aba1f	-0.21360062
26	0x3ecdf003	0.40222177
27	0xbd91847c	-0.071053475
28	0x3dd11beb	0.10210403
29	0xbf114f75	-0.56761867
30	0xbd05e08b	-0.032684844
31	0xbe80dc66	-0.2516815
32	0xbe72043e	-0.23634431
33	0x3ed61215	0.4181067
34	0xbeca200d	-0.39477578
35	0xbe585d6b	-0.21129386
36	0xbc917436	-0.017755609
37	0xbf081dce	-0.5317048
38	0x3e96b25c	0.29432952
39	0xbe645710	-0.22298837
40	0x3e56da1d	0.20981641
41	0x3ed5923b	0.41713127
42	0x3ebe065f	0.37114236
43	0x3d9d4d74	0.07680789
44	0x3eb11bdb	0.34591565
45	0x3f0b78ae	0.5448102
46	0x3e1f9ed1	0.15587927
47	0xbd9ce1cd	-0.076602556
48	0xbe39ccd8	-0.18144548
49	0x3dde4df6	0.108547136
50	0x3dd4d880	0.103928566
51	0xbee64768	-0.44976354
52	0x3ec0e0f7	0.37671635
53	0x3e113700	0.14181137
54	0xbeefa31f	-0.4680414
55	0x3e3a2aa9	0.18180336
56	0x3ec13ba0	0.37740803
57	0x3decc40c	0.115608305
58	0x3ec29f9e	0.38012403
59	0x3dc48ebb	0.09597536
60	0xbeddc571	-0.43314698
61	0xbd440ac3	-0.047861826
62	0x3ebd55e0	0.3697958
63	0xbe8172c4	-0.25282872
64	0x3e419bd6	0.18907103
65	0x3e3002db	0.1718859
66	0xbd412ccf	-0.047161873
67	0x3c226dfb	0.009913917
68	0x3e3d98b3	0.18515281
69	0xbec49fd6	-0.38403195
70	0x3ea6dd5c	0.3259076
71	0x3ea3e1c8	0.32008195
72	0x3ec3249e	0.38113874
73	0x3efc1fb7	0.49242947
74	0x3d4bd97f	0.049767967
75	0xbf05de75	-0.5229257
76	0x3d8b4688	0.06800562
77	0xbe1dff4a	-0.15429416
78	0x3e23cb44	0.15995508
79	0x3eec9147	0.46204588
80	0xbe9209f0	-0.28523207
81	0x3db881b5	0.09009115
82	0x3f1a9f71	0.6039954
83	0xbeca69a0	-0.3953371
84	0xbd62e958	-0.055398315
85	0x3ee7e777	0.4529378
86	0x3ebb2a2b	0.3655561
87	0x3e45497f	0.19266318
88	0xbea67ddf	-0.32517907
89	0x3ccc0e14	0.024909057
90	0xbee9e183	-0.45679864
91	0xbeeeef3b	-0.46666893
92	0xbf071b10	-0.5277567
93	0x3f00ee5c	0.5036371
94	0x3ecae970	0.39631224
95	0x3e74c313	0.2390254
96	0xbe09b4c8	-0.13447869
97	0x3f060f0b	0.52366704
98	0xbe371591	-0.1787932
99	0x3ecee4f5	0.40409055

GRN_net.encoder.6.bias f4 [10]
0	0x3d0ebb7e	0.034846775
1	0x3e7fdc5f	0.24986409
2	0x3db02378	0.08600515
3	0xbe05e23e	-0.13074586
4	0x3e8c05c1	0.2734814
5	0xbcbbc013	-0.022918737
6	0x3e4e2a25	0.20133264
7	0x3d9d70e9	0.076875515
8	0x3e85cfe8	0.26135182
9	0x3e3375a3	0.17525344

GRN_net.decoder.0.weight f4 [6, 10]
0	0x3ca264ba	0.01982342
1	0xbeab29dd	-0.33430377
2	0xbe38d9e3	-0.18051867
3	0xbe5af73f	-0.2138338
4	0xbf06fa64	-0.52725816
5	0x3e288baa	0.16459528
6	0xbe4fab39	-0.2028016
7	0x3e812972	0.25226933
8	0x3ed220e8	0.4104073
9	0xbda39b0a	-0.07988556
10	0x3e6e1cab	0.23253123
11	0x3e4c940e	0.19978353
12	0x3ec1adbb	0.37827858
13	0xbe93157a	-0.28727323
14	0xbe5ef340	-0.2177248
15	0xbe363c1c	-0.17796367
16	0x3efe334d	0.49648514
17	0xbf2d2cb7	-0.67646354
18	0xbed20e04	-0.41026318
19	0x3d8e581a	0.06950398
20	0x3f06e5e6	0.5269455
21	0x3ea2ae13	0.31773433
22	0xbf1f5460	-0.6223812
23	0xbed9f8e5	-0.42572704
24	0x3f0d8bb8	0.5529132
25	0x3c258160	0.010101646
26	0xbf0eee29	-0.55832154
27	0xbe69d5a4	-0.22835404
28	0x3e6ba0b1	0.23010518
29	0xbdc8f428	-0.09812194
30	0xbee467d7	-0.44610474
31	0xbeb9747c	-0.36221683
32	0xbe98cf48	-0.29845643
33	0x3c9320d6	0.017959993
34	0x3e492775	0.19643958
35	0x3e8c1f16	0.27367467
36	0xbea0e741	-0.31426433
37	0xbe497c15	-0.1967624
38	0xbef17c28	-0.47165036
39	0x3eebf150	0.46082544
40	0x3f19fc65	0.6015075
41	0x3f1ca381	0.6118699
42	0x3e695dd5	0.227897
43	0xbd6f9088	-0.058487445
44	0xbdedaf51	-0.116057046
45	0x3e6e3a60	0.23264456
46	0xbeff0a94	-0.49812758
47	0x3ca4d978	0.020123228
48	0xbefe648b	-0.49686083
49	0xbf14d61d	-0.5813921
50	0x3d68d9ea	0.056848444
51	0xbc9194e0	-0.017771184
52	0xbee9cb9d	-0.45663157
53	0x3e50f364	0.20405346
54	0x3e2c250e	0.1681101
55	0x3d456044	0.04818751
56	0xbebf182c	-0.3732313
57	0xbf014a8b	-0.5050437
58	0xbd028727	-0.031867173
59	0xbe4636bf	-0.19356821

GRN_net.decoder.0.bias f4 [6]
0	0x3defc8d1	0.117082246
1	0xbe9ab799	-0.302182
2	0x3e5660a9	0.2093531
3	0x3d94a601	0.07258225
4	0xbd0ad78f	-0.03389698
5	0x3df0f0a5	0.11764649

BRD_net.encoder.0.weight f4 [8, 7]
0	0xbe42f34b	-0.19038121
1	0x3ed9ae85	0.4251596
2	0x3e13ed65	0.14446028
3	0x3f1871ca	0.5954863
4	0x3c6528c7	0.013986773
5	0xbef6a5f0	-0.48173475
6	0x3e2cf142	0.16888908
7	0xbee8d712	-0.45476586
8	0x3e6dd8f5	0.23227294
9	0xbf0f2580	-0.55916595
10	0x3e7499fe	0.23886868
11	0xbf1d2d1f	-0.61396974
12	0x3f11cbe5	0.56951743
13	0x3f0d862e	0.55282867
14	0x3ec59c78	0.3859594
15	0x3e94263c	0.2893542
16	0x3e4028be	0.18765542
17	0xbee3e2c5	-0.4450895
18	0xbe93db61	-0.2887831
19	0xbd419328	-0.04725948
20	0xbf1a4055	-0.6025441
21	0x3f15b65e	0.58481395
22	0xbe9788ad	-0.29596463
23	0x3ef07200	0.46961975
24	0x3e250a7c	0.1611728
25	0x3ea29233	0.31752166
26	0xbeae9516	-0.3409812
27	0xbf173f0b	-0.5908057
28	0x3edcd55a	0.43131524
29	0xbd12ea63	-0.03586806
30	0x3ee6f0bf	0.4510555
31	0xbef783d4	-0.48342764
32	0x3e2922d2	0.16517189
33	0xbf176f68	-0.5915437
34	0xbe3fc458	-0.18727243
35	0xbc59a405	-0.013283734
36	0xbe848f4d	-0.2589058
37	0xbf30f296	-0.69120157
38	0xbe9d0906	-0.30670947
39	0x3e8b1c98	0.27170253
40	0x3f401ce5	0.7504409
41	0xbe957d0a	-0.2919696
42	0xbd0d20bf	-0.034455057
43	0xbf5517ec	-0.83239627
44	0xbebf6ebd	-0.37389174
45	0xbea47d46	-0.32126826
46	0x3e952883	0.2913247
47	0x3d83c69d	0.06434367
48	0x3c552d58	0.013011299
49	0x3f339e30	0.7016325
50	0xbea2bd86	-0.3178522
51	0x3f4ae62d	0.7925747
52	0x3f409bd2	0.7523776
53	0x3f5ab1e3	0.85427684
54	0x3e708a58	0.23490274
55	0xbec364fa	-0.38162977

BRD_net.encoder.0.bias f4 [8]
0	0x3eab36e5	0.3344032
1	0xbe63197c	-0.2217769
2	0xbe8e2846	-0.277651
3	0xbe716a00	-0.23575592
4	0x3e764a84	0.24051863
5	0xbd59cb8e	-0.05317264
6	0xbdbe4cc5	-0.092919864
7	0xbce6ab5b	-0.02815788

BRD_net.encoder.2.weight f4 [8, 8]
0	0xbeb4bcbb	-0.3530024
1	0xbec5a8d0	-0.38605356
2	0x3e5ff764	0.21871716
3	0x3e7bc0b7	0.24585234
4	0x3e659505	0.22420128
5	0xbee99570	-0.45621824
6	0xbee37136	-0.4442231
7	0x3ef2bd7b	0.47410187
8	0xbeb2614e	-0.34839863
9	0xbf01a653	-0.50644416
10	0x3d810f98	0.063018024
11	0xbe1404d9	-0.14454974
12	0xbd842f0f	-0.06454288
13	0x3eabb8fd	0.33539572
14	0x3e8b6e30	0.27232504
15	0xbf0f6893	-0.5601894
16	0xbeb98914	-0.36237395
17	0xbe5e0906	-0.2168313
18	0x3f0b0557	0.5430502
19	0x3ea64dda	0.3248127
20	0x3e8d5058	0.2760036
21	0x3f2ac3a8	0.667048
22	0x3eacce5a	0.33751184
23	0xbf324bac	-0.69646716
24	0x3ef95690	0.48698854
25	0xbe71e71c	-0.23623317
26	0xbe4d4647	-0.2004634
27	0xbe800690	-0.25005007
28	0x3ebcbfc4	0.36865056
29	0xbe6d796a	-0.23190847
30	0xbee477e4	-0.4462272
31	0xbeaa45a4	-0.33256257
32	0xbe75bfa5	-0.23998888
33	0x3f0954ca	0.53645
34	0x3f15d82e	0.5853299
35	0x3ef487af	0.47759768
36	0x3e03bfd6	0.12866148
37	0xbd63b64e	-0.05559378
38	0xbda9a871	-0.08284081
39	0xbed87c44	-0.42282307
40	0x3e978e3d	0.29600707
41	0xbef87160	-0.48523998
42	0x3be4ad86	0.0069786934
43	0x3eb62ac3	0.355795
44	0x3f0fce4e	0.5617417
45	0xbf17d7a5	-0.5931342
46	0x3ef12ee0	0.47106075
47	0xbeb27aa8	-0.34859204
48	0xbeb30abb	-0.34969124
49	0x3f287b96	0.6581358
50	0x3ee9f474	0.45694315
51	0xbe4c925e	-0.1997771
52	0x3e90cf72	0.28283268
53	0xbefce469	-0.49393013
54	0x3f072935	0.5279725
55	0x3efb7436	0.491121
56	0xbe9ae2f9	-0.3025129
57	0x3e3464b6	0.17616543
58	0x3e45de3b	0.19323055
59	0xbea61406	-0.32437152
60	0xbea7ad82	-0.32749563
61	0xbcae8136	-0.021301847
62	0xbedff83b	-0.43744072
63	0xbf13b436	-0.57696855

BRD_net.encoder.2.bias f4 [8]
0	0x3c76c368	0.015061237
1	0x3e7b5cef	0.2454717
2	0xbcb62a36	-0.022236925
3	0xbdd462e6	-0.10370426
4	0xbdc34509	-0.09534652
5	0x3ed873a3	0.42275724
6	0x3e0fab03	0.1403008
7	0xbe14c775	-0.14529212

BRD_net.decoder.weight f4 [1, 8]
0	0x3e26a99a	0.16275635
1	0xbef26c68	-0.47348332
2	0xbf0ec4fe	-0.55769336
3	0x3db74c0f	0.08950054
4	0xbf1b5289	-0.60672814
5	0x3f59f165	0.85133964
6	0xbe5ffa9b	-0.21872942
7	0xbf126b60	-0.5719509
