example/Embryogenesis/Output/ckpt_itr5300.pth (torch, 8074 bytes, 15 tensors)

GRN_net.encoder.0.weight f4 [10, 6]
00000000: b792 fcbd b5ba 56be e590 153d 398d f73d
00000010: 094c a73e 53b6 223e 7e83 7d3e 410b 833e
00000020: 27ea 593e eebe 353d 44ca 0ebe cbeb f13e
00000030: 39fa f93d 0afe fc3e a1fd 213f e965 2dbe
00000040: 5db1 0f3f 4651 66bd a37b fd3e 92ce 333f
00000050: 1f77 efbe 3dc7 cc3c 2647 e5be 78e4 f9be
00000060: 1649 68be 31f9 7fbe fee0 2abe 61eb 12bf
00000070: ea9a b1be e18a 18bd 8c7c 80bd eebb 913e
00000080: f561 c23e ba78 9e3e 81d6 fa3e 9365 0dbf
00000090: 3162 0d3f acca 40bf 557e adbd 43ca af3e
000000a0: fdc4 983e 5d02 d8be ec9d 89be d85f 04bf
000000b0: c3de 8fbe 8033 07be cbcd 633f b1f9 0abe
000000c0: 564c d6bd f9eb e7be b139 5f3f 6aa9 8bbe
000000d0: 1594 1fbf c9e7 e43e a16e dabd 4565 0f3f
000000e0: d268 21bf 6bcc f6be 7dd5 abbe 4963 993e
-0.12332671 -0.2096966 0.036515135 0.12087483 0.32675198 0.15889864 0.24757192 0.25594524
0.21280728 0.044371538 -0.13944346 0.47250208 0.12205929 0.49412566 0.6327763 -0.16933407
0.5613001 -0.056229852 0.4950839 0.70237076 -0.4677057 0.024997348 -0.44780844 -0.4880712
-0.2268413 -0.24997403 -0.1668739 -0.5739041 -0.34688503 -0.03724182 -0.062737554 0.2846369
0.3796536 0.30951482 0.48991778 -0.55233115 0.55227953 -0.7530925 -0.084713615 0.34334
0.2983779 -0.42189303 -0.26878297 -0.51708746 -0.2809964 -0.1320324 0.8898589 -0.13571812
-0.10463779 -0.4529722 0.87197405 -0.2727769 -0.6233533 0.44708088 -0.10665632 0.560139
-0.6305057 -0.48202834 -0.33561316 0.2995856

GRN_net.encoder.0.bias f4 [10]
00000000: 9cd6 a1be 908b 9b3e 0478 a73e 528f 8e3e
00000010: 1e74 96be 5f28 18be 4b25 19bd 9d25 a03d
00000020: 8df7 8bbe 4f65 90be
-0.31609046 0.30379915 0.32708752 0.2784372 -0.29385465 -0.1485915 -0.03738908 0.07819674
-0.27337304 -0.28202292

GRN_net.encoder.2.weight f4 [10, 10]
00000000: 9a8e aebd a263 cebe 948e 573e 4eb3 29bd
00000010: 1033 2c3e 88ba 94be ff87 fbbe d249 993e
00000020: a3e4 c0be fd99 cf3e 8eb7 de3e b72d e7be
00000030: ee7d 12bf c373 9f3d d5c3 7abe e333 623d
00000040: 210c 8bbe 9793 41be f8d3 03bf f571 c83e
00000050: ae89 d5be b1f7 bfbe 3045 44bd 083c adbe
00000060: 7e44 00bf 8855 c73e 0cf2 1cbe 36cd 7d3e
00000070: 9225 b23e d6d7 d9be f28c 15bf 9eef 1dbe
00000080: 112e ad3e 0e57 483d f575 61be adaf bc3e
00000090: 1ef0 0b3f 82d1 a93e 75d3 f0be c2b2 dbbd
000000a0: ae85 8cbe 462c d93e ea87 91be 17ad 62be
000000b0: b979 913c aebc 2abd b298 d83e 4f3f 663d
000000c0: 7f15 e3be f298 df3e 3f63 cb3e ecc2 a13d
000000d0: 2714 09bf ee22 723e 854b cb3e f38b 2c3e
000000e0: ab13 44be d973 ac3d 55ba a9be 44c8 0e3f
000000f0: 1463 fd3e 4a0f 12be 9f38 e9be aa64 c33e
00000100: c342 b23e 300e 8c3e 7dfd adbe 1157 5e3e
00000110: 6c8b 52be f9ea fdbe 4aa4 96be 877d 3e3e
00000120: 43e0 7d3e ca2d 0abf 1751 823e 31a0 8e3e
00000130: dc97 003f c0b7 f33e 84ae 86be 337b 833e
00000140: 7b7e 283f 8ead fe3d a3e3 ccbe c0b4 1ebe
00000150: 0fcb f73e f182 ae3e 971c f73e 9a36 e0bd
00000160: 1e31 9bbc 5382 e3be ad59 83be 56d6 b13e
00000170: b61c 04bf e5be 75be 4d7e 023e 7156 a0be
00000180: 290c 4d3d 1b94 bf3c cb89 943e e196 c8be
-0.08523293 -0.4031039 0.21050483 -0.041430764 0.16816354 -0.29048562 -0.49127194 0.29939133
-0.37674436 0.4054717 0.43499416 -0.45152065 -0.57223403 0.07785752 -0.24488766 0.055225264
-0.2715769 -0.18903957 -0.51495314 0.39149442 -0.41706604 -0.3749366 -0.047917545 -0.33834863
-0.5010451 0.38932443 -0.15326709 0.24785313 0.3479429 -0.42547482 -0.5841819 -0.15423438
0.33824208 0.048911147 -0.22017653 0.3685278 0.54663265 0.33167654 -0.4703633 -0.10727455
-0.2744574 0.4241659 -0.28424007 -0.22136341 0.017758237 -0.041683845 0.42303997 0.05621272
-0.44352338 0.43671376 0.39724156 0.078985065 -0.53546375 0.23646137 0.39706054 0.16850261
-0.19148128 0.08420534 -0.33149973 0.5577433 0.49489653 -0.14263645 -0.4555101 0.38162738
0.3481656 0.27354574 -0.3398246 0.217129 -0.20560998 -0.49593332 -0.29422218 0.18602572
0.2479258 -0.5397612 0.25452492 0.2785659 0.5023172 0.47601128 -0.2630502 0.2567993
0.65817994 0.12435447 -0.40017423 -0.15498638 0.4839711 0.34084275 0.48264 -0.109479144
-0.01894432 -0.44435367 -0.25654355 0.34733838 -0.5160631 -0.23998602 0.12743492 -0.3131595
0.050060425 0.023386052 0.29011378 -0.3917761

GRN_net.encoder.2.bias f4 [10]
00000000: dc3f 91bd 9026 2a3d e7fd b03d 3854 c83d
00000010: b66a a73e d163 7c3e 517f 1e3e 792e ea3b
00000020: e5cc 87be 0271 863e
-0.07092258 0.041540682 0.08642178 0.097816885 0.326986 0.24647452 0.15478255 0.0071466533
-0.2652351 0.26258093

GRN_net.encoder.4.weight f4 [10, 10]
00000000: 4a63 8d3c 5718 f9be bfce 943e 225b 033f
00000010: df4a 13be b591 843d 13cb 8dbe 1e40 f0be
00000020: 18cd 9ebe 043a 42be 9578 0e3e 11dd a03d
00000030: 9d4b 8d3d 6de0 cabe 123e c2be ea98 cdbe
00000040: 3293 b4be a2c7 ee3e 1b33 523e 9df7 0cbf
00000050: 31ef d1bd 4020 603d 17b5 ca3e d12b 073f
00000060: 2539 9ebe ef53 ba3e 8e0c c2bd 7ae4 773d
00000070: 5d92 8bbe 8b83 9a3d f149 f23e 0b30 c23e
00000080: b5d0 b73e 62b7 69be a83d 5ebd 1804 0d3e
00000090: 2118 c23e 188d 01bf 562e 80be c855 d63b
000000a0: 8396 97be 2dae 273e 896d aabc 6c63 17be
000000b0: b58f 333e 2e45 b63e a4f1 013f cdd2 9a3e
000000c0: 66e7 213c 39aa d73e 03b0 f63e 5d13 17bf
000000d0: 79c0 8f3e 9049 adba 1769 a7be 0ec4 dabd
000000e0: 8ab8 ecbd d308 79be 2f8f 34be d31b ef3d
000000f0: 01e3 033e f8ca 963d a212 0abf 4417 983e
00000100: 9673 a6bd 53de db3e aa39 03bf 9a11 11be
00000110: fa38 d23e 3b7e 813e 542a 88be d505 f7be
00000120: 25a4 853d 844f 2f3e 4460 1abf ddc2 efbe
00000130: abc2 27bb 8623 dcbd 78c3 c43e a60e 0abf
00000140: a6d7 28be 6083 dcbe 4d3c f0bc 857b 49be
00000150: 3b6b 273e e2bf 0abf 6d70 e5be 3bdc aebe
00000160: 197c 09bf d1cf ef3e 4df7 fabd 46b6 b8be
00000170: db4f 2a3e ff72 c2bd 1847 753e 9606 3cbe
00000180: bbfe 08bf 2b75 8b3e bdfc ed3e f099 12bf
0.017259259 -0.48651382 0.29063985 0.5131093 -0.1438403 0.06473104 -0.27693996 -0.46923918
-0.3101585 -0.18967444 0.13913186 0.07854665 0.06899188 -0.39624348 -0.3793798 -0.40155727
-0.3526855 0.46636683 0.20527308 -0.5506533 -0.102507 0.054718256 0.39591286 0.52801234
-0.30902973 0.3639216 -0.09475051 0.060520627 -0.27260104 0.07544621 0.47322038 0.3792728
0.35901418 -0.22823861 -0.05425802 0.13771093 0.37909034 -0.50605917 -0.25035352 0.0065409876
-0.2960702 0.16375037 -0.020804184 -0.1478402 0.17535289 0.35599655 0.5075934 0.30238953
0.00988183 0.42122057 0.4818116 -0.5901392 0.28076532 -0.0013220776 -0.32697365 -0.10681926
-0.115586355 -0.24319772 -0.17632745 0.11675229 0.12879564 0.07362932 -0.5393468 0.2970525
-0.08127515 0.42943057 -0.51259863 -0.1416687 0.41059095 0.2529162 -0.26594794 -0.48246637
0.06525449 0.17120177 -0.6030314 -0.46828356 -0.002559821 -0.10748963 0.3843038 -0.539286
-0.16488513 -0.4306898 -0.029325629 -0.19676025 0.16349499 -0.5419904 -0.44812337 -0.34152398
-0.53704983 0.4683824 -0.122542 -0.36076564 0.16632025 -0.0949459 0.23952901 -0.18361887
-0.5351369 0.2723783 0.46481887 -0.5726614

GRN_net.encoder.4.bias f4 [10]
00000000: fc36 dabb e5b1 263d 451e 8a3e c65f b13d
00000010: b962 36be 9a87 3dbe 32a6 81be b27d 813e
00000020: 5bc3 2d3d 5d13 c33d
-0.0066593867 0.040696997 0.2697622 0.086608455 -0.17811097 -0.18508759 -0.2532211 0.2529121
0.042422634 0.09525178

GRN_net.encoder.6.weight f4 [10, 10]
00000000: 28a7 cc3d 63a9 3c3d 1bb3 803c 3d32 82bd
00000010: 159c 22be 5411 cabe 6715 123e 795d ffbe
00000020: c637 e7be a5d4 2ebe 00d2 b4be 4b97 f43d
00000030: ecf6 bc3e 710a de3e 8130 94be 62b6 ae3e
00000040: fb2f cb3e e03f 00bd 06bc 813e a28b 913e
00000050: ae1b 033f f152 3f3e e78d 983e 3eba dbbd
00000060: b19b 87be acb7 62be 5987 c03e ba93 41bd
00000070: ab7a 083e 3991 19bf aa7f deb9 ff13 82be
00000080: 81f5 80be 550f e33e 51a7 d7be 48fc 56be
00000090: e802 24bd bc7e 00bf a067 943e 7fe1 9cbe
000000a0: 1ea2 833e f73d e53e bddc bb3e 98b3 19be
000000b0: c0ef a73e 8990 113f 69af 1d3e 6c12 a8bd
000000c0: fbf3 4ebe f682 173e b109 e33d ded0 c1be
000000d0: a0ee aa3e f772 bb3d 1886 0ebf 018e 653e
000000e0: afb8 ae3e be10 263e a065 d33e f438 513e
000000f0: 1c12 dabe f6c3 6dbd b1f5 d03e 1b51 57be
00000100: 37c9 333e 2f9c 373e 62a9 f8bd 94c6 d53b
00000110: b115 573e 971f ccbe ba09 ab3e 08e2 ab3e
00000120: 318a 5a3e db49 f63e 65a4 1a3d 1929 17bf
00000130: 51fb 5b3d fc1b 0cbe 9ba6 2e3e 1f88 e63e
00000140: 77cf 68be ffdd c83d 73be 153f b4b0 d6be
00000150: 1a16 aabd 4b3a cc3e 8a66 023f ba6b 693e
00000160: f505 91be 0795 163d ef26 f6be 8df7 87be
00000170: 99c0 0abf 65c0 f83e 2d28 b83e 40da 793e
00000180: 6162 59be ba19 053f b593 24be ce5a ce3e
0.0999282 0.046059977 0.015710404 -0.063572384 -0.15879853 -0.39466345 0.14265977 -0.49876
-0.4515974 -0.17073305 -0.35316467 0.11942919 0.36907136 0.4336734 -0.28943256 0.34123522
0.39685044 -0.031310916 0.25338763 0.28426844 0.5121411 0.18683983 0.29795763 -0.10728882
-0.2648597 -0.22140378 0.37603262 -0.047260024 0.13328044 -0.5998722 -0.00042438257 -0.2540588
-0.25187305 0.44347635 -0.4211984 -0.20994675 -0.040041834 -0.5019338 0.2898531 -0.3064079
0.25709623 0.44773838 0.36691847 -0.15009916 0.32800102 0.5686117 0.15398945 -0.08206639
-0.20210259 0.14796051 0.11085833 -0.37854666 0.3338518 0.09152787 -0.5567336 0.22417451
0.34125277 0.16217324 0.4128847 0.20431882 -0.4259194 -0.05804821 0.40812448 -0.21027033
0.17557226 0.17930673 -0.12141682 0.0065239165 0.21004368 -0.3986785 0.33405858 0.33570886
0.21341778 0.48103222 0.037754435 -0.59047085 0.05370647 -0.1368255 0.17055742 0.45025727
-0.22735392 0.098079674 0.5849373 -0.4193169 -0.08304997 0.39888224 0.5093771 0.22795
-0.28324857 0.036763217 -0.4807658 -0.26556054 -0.5420013 0.48584285 0.35968152 0.24399662
-0.21228935 0.5199238 -0.16071971 0.40303653

GRN_net.encoder.6.bias f4 [10]
00000000: d61d 043c 572a 633e c165 db3d 8928 82bd
00000010: f050 843e 308b cf3b cec7 623e 9546 b53d
00000020: c2e9 693e 5205 4e3e
0.008063754 0.2218412 0.107127674 -0.06355388 0.25843 0.006333731 0.22146532 0.08851353
0.22843078 0.20119217

GRN_net.decoder.0.weight f4 [6, 10]
00000000: 733a 423c 3092 babe 8ccc 32be 8b0f 70be
00000010: 870e 15bf 34e6 003e 23f6 37be e77a 5c3e
00000020: 84e2 e63e e6fb d4bd d869 723e 7834 713e
00000030: 7ba7 393e 4691 8abe 0511 32be c413 853e
00000040: 73b8 023f d1cb 1bbf 9b16 d3be 2f95 ef3d
00000050: 45a1 043f 55e5 863e 38e2 1dbf fc2e fdbe
00000060: f9c2 1f3f 7aa9 1d3c 5a0a 14bf 2098 54be
00000070: 91a1 843e bd89 f9bd cd25 e2be f4d6 b1be
00000080: 0ba6 a8be 3057 e63c 3187 533e c60e 483e
00000090: a885 9bbe c7d0 53be 8d2c f7be 7244 e33e
000000a0: b2fe 5b3f 363b 1b3f 5885 723e ca84 59bd
000000b0: 9d70 24be ce56 c43e 777d f7be 729b 583c
000000c0: 2608 f6be b05d 0dbf 4fba a23d 7766 debc
000000d0: 88aa e9be ee9d 883e ab8a 1b3e 6b8e 3f3d
000000e0: 24de c6be d846 02bf d98f 0bbb d596 4abe
0.011854756 -0.36439657 -0.17460841 -0.23443429 -0.5822529 0.12587816 -0.17964987 0.21531259
0.45094693 -0.10399608 0.23673189 0.23555171 0.18130295 -0.2706396 -0.17389305 0.25991642
0.510627 -0.60857874 -0.41228184 0.116983764 0.5180858 0.2634684 -0.6167331 -0.4944991
0.6240688 0.009622926 -0.57828295 -0.20761156 0.25904515 -0.121844746 -0.44169465 -0.3473431
-0.3293918 0.028117746 0.2065704 0.19536886 -0.3037541 -0.20685111 -0.48276177 0.44388157
0.8593551 0.60637224 0.23683679 -0.053105153 -0.16058584 0.38347477 -0.4833791 0.013220655
-0.48053092 -0.5522108 0.07945692 -0.027148468 -0.45637918 0.2668299 0.15189616 0.04676668
-0.38841355 -0.5088935 -0.0021295457 -0.197841

GRN_net.decoder.0.bias f4 [6]
00000000: 8e3b 033e 8d28 9fbe 9d56 3f3e 9880 be3d
00000010: 3348 edbc 3f0f d73d
0.12815687 -0.31085625 0.18685384 0.09301871 -0.028965091 0.10500955

BRD_net.encoder.0.weight f4 [8, 7]
00000000: b5c9 4fbe 14b5 c83e 01da 243e 29bf 073f
00000010: d608 223d 58fa efbe 4f62 1b3e de22 e3be
00000020: 8566 803f 1879 0dbf 5c9c 873e 1bf4 16bf
00000030: 3070 0b3f 8eac 163f 98be cc3e c853 a93e
00000040: d206 593e ffa2 c6be 946e 9dbe b681 9d3d
00000050: 1165 16bf 9e14 0d3f 47e2 babe b9ba e63e
00000060: 1a39 283e e337 c83e 3aa3 90be 6dbe 35bf
00000070: 7b49 c53e 328e 95be 74bb e63e 24bd fcbe
00000080: b999 683e 1651 0ebf 2983 6dbe 35d5 b7bb
00000090: 6145 4abe 7507 3ebf cdc6 86be cb99 7b3e
000000a0: 3dfc 313f 882e 8bbe 7935 5aba 1669 53bf
000000b0: 666c c1be 3f6c 9bbe 5220 ffbf eea3 593e
000000c0: cfaf febc b2a4 3c3f d033 0bbf 2ee6 583f
000000d0: 9edd 343f 1d30 573f 4f1c 913e 75bd b7be
-0.20291789 0.39200652 0.16098787 0.5302606 0.039559208 -0.46870685 0.1517422 -0.4436254
1.0031286 -0.552629 0.2648648 -0.58966225 0.5446806 0.5885705 0.39989161 0.33071733
0.21194008 -0.3879623 -0.30748427 0.07690756 -0.58747965 0.55109584 -0.3650076 0.45064333
0.16428033 0.39105138 -0.28249532 -0.7099369 0.38532624 -0.2921005 0.4506489 -0.49363053
0.2271489 -0.5559248 -0.23194565 -0.005610133 -0.19753028 -0.7423013 -0.26323548 0.24570386
0.6952551 -0.27183938 -0.0008324008 -0.82582223 -0.37778014 -0.30356023 -1.9931738 0.2125394
-0.031089691 0.73688805 -0.54375935 0.84726226 0.7065066 0.8405779 0.2834191 -0.35886732

BRD_net.encoder.0.bias f4 [8]
00000000: c26d af3e 24a9 63be 68ef 91be 1975 dbbe
00000010: ddd1 6e3e 2005 80bd bb3a 70bd 18d7 1c3d
0.34263426 -0.22232491 -0.28502965 -0.42862776 0.23322244 -0.062509775 -0.05864976 0.038291067

BRD_net.encoder.2.weight f4 [8, 8]
00000000: 341d ccbe 0870 cebe db19 823e 76df 6e3e
00000010: 0285 533e 4914 cbbe 950d c1be 863d ef3e
00000020: 2467 8dbe b2b8 fcbe f6d0 643d f722 17be
00000030: 946b 92bd 067c 9e3e c959 6d3e b183 11bf
00000040: a450 05be d976 57be ecdc 0e3f 3de0 ab3e
00000050: 692b 8c3e 7662 273f 6864 953e d159 33bf
00000060: c3d4 ea3e 7c75 2dbe 0e13 8bbe 77d2 a6be
00000070: 8c70 9c3e 1721 29be fb21 e0be 53fe c8be
00000080: 2001 1fbe edc9 0c3f ac6d 113f ed55 f13e
00000090: c05b ef3d f43c 90bd a65c d9bd 7de7 dcbe
000000a0: 35f3 7d3e 3d43 00bf 4840 a53d e231 b93e
000000b0: 1626 0e3f 04fa 08bf a2c8 033f e08c afbe
000000c0: 7a2d 9fbe c067 2a3f 5159 e93e c6b7 49be
000000d0: 5530 903e db66 05bf 4ab8 f83e 281b fa3e
000000e0: cafa 84be e9c6 453e 56b3 163e 93b6 a7be
000000f0: 7769 aabe 1118 71bd 5b8a f6be b0a5 16bf
-0.3986603 -0.40319848 0.2541035 0.23327431 0.20656207 -0.39663914 -0.37705675 0.46726626
-0.27617753 -0.4935966 0.055863343 -0.14759432 -0.07149425 0.30953997 0.23178782 -0.5684157
-0.13019043 -0.2104143 0.5580585 0.33569518 0.2737687 0.65384614 0.29178166 -0.70058924
0.4586545 -0.16939348 -0.27162975 -0.32582447 0.30554616 -0.16516529 -0.43775925 -0.39256534
-0.15527773 0.54995614 0.5680797 0.4713587 0.11687422 -0.07042876 -0.106133744 -0.43145362
0.24799807 -0.501026 0.08068901 0.3617087 0.55526865 -0.53506494 0.51478016 -0.34287167
-0.31089383 0.6656456 0.45575956 -0.1969901 0.28161874 -0.5211007 0.485781 0.48848844
-0.25972587 0.1931416 0.14716849 -0.3275648 -0.33283588 -0.058860842 -0.48152432 -0.5884657

BRD_net.encoder.2.bias f4 [8]
00000000: e689 a33c f0fa 693e 9168 20bd e8ea 26be
00000010: 763f e6bd f205 df3e ecca 033e 6944 2abe
0.019963216 0.22849631 -0.039162222 -0.16300547 -0.11242573 0.43559223 0.12870377 -0.16627659

BRD_net.decoder.weight f4 [1, 8]
00000000: f5a0 2b3e 4cad d7be 4cda 05bf c1bd 4ebe
00000010: 82a1 1cbf 5d4b 5d3f 009f 31be cea5 16bf
0.16760619 -0.42124403 -0.5228622 -0.20189573 -0.6118394 0.8644312 -0.1734581 -0.5884675
