example/Embryogenesis/Output/ckpt_itr3300.pth (torch, 8074 bytes, 15 tensors)

GRN_net.encoder.0.weight f4 [10, 6]
000000 2c e5 fc bd f4 1c 57 be 92 d8 11 3d 02 09 f2 3d
       -0.123483986 -0.21007138 0.03560693 0.11818124
000010 3c fc a3 3e ab d3 29 3e e0 73 8c 3e 21 8c 84 3e
       0.32028377 0.16584651 0.27432156 0.2588816
000020 f7 00 59 3e 09 20 2d 3d 4c 09 74 bd 74 73 f3 3e
       0.21191774 0.04226688 -0.05957918 0.4754902
000030 a5 94 08 3e 97 22 f9 3e 8f 6f 22 3f b4 80 3b be
       0.13337953 0.48659202 0.63451475 -0.18310815
000040 2d 77 11 3f b5 63 6b bd 37 3c fc 3e a8 a9 33 3f
       0.5682247 -0.057468135 0.4926469 0.7018075
000050 58 24 ed be bc fb 6f 3d 2b c5 e6 be 46 03 e6 be
       -0.4631679 0.058589682 -0.45072302 -0.44924372
000060 96 54 61 be e1 6c 7c be d2 20 2d be 99 b0 14 bf
       -0.22004923 -0.24650909 -0.16907051 -0.58081967
000070 2f 71 ad be 12 1a 03 bd e9 7d 94 bd e1 55 94 3e
       -0.33875415 -0.032007284 -0.07250578 0.2897177
000080 46 da bc 3e 99 6e 9a 3e 4d 51 f9 3e 1e 49 0b bf
       0.3688528 0.30162504 0.4869484 -0.5440844
000090 9f 85 0b 3f 57 1d 41 bf 58 e4 b8 bd f2 95 89 3e
       0.54500765 -0.75435394 -0.09027928 0.26872212
0000a0 ac 93 9e 3e 19 b3 cc be a2 d3 8d be fc d3 ff be
       0.3097204 -0.3998039 -0.27700526 -0.4996642
0000b0 f1 ed 8b be 99 27 0d be 3a 51 64 3f 7c b1 00 be
       -0.27329972 -0.13784637 0.8918644 -0.12567705
0000c0 0d d2 89 bd e8 24 f8 be e3 65 53 3f 85 5c 8a be
       -0.06729517 -0.48465657 0.8257734 -0.27023712
0000d0 9d c0 21 bf 65 2f e5 3e 4e 74 e3 bd 6e e5 28 3f
       -0.6318453 0.44762722 -0.11106168 0.6597508
0000e0 84 70 1a bf 92 83 f7 be f6 58 a9 be 3b ed 96 3e
       -0.60327935 -0.48342568 -0.33075684 0.29477867

GRN_net.encoder.0.bias f4 [10]
000000 5c fc a1 be 16 ac a7 3e ff 1d ac 3e c7 26 92 3e
       -0.31637847 0.3274848 0.33616635 0.2854521
000010 7e 61 95 be 1a a1 2a be 55 9b dd bc b4 4f ba 3d
       -0.29175943 -0.16663018 -0.027051607 0.090972334
000020 c7 31 93 be 50 97 92 be
       -0.28748915 -0.28631067

GRN_net.encoder.2.weight f4 [10, 10]
000000 05 ea d5 bd 35 31 d3 be 30 52 56 3e 9f bb 9c bc
       -0.10445026 -0.4124848 0.2092979 -0.019132433
000010 2d b3 30 3e d1 f9 90 be 9e 15 fc be 2e 8e 94 3e
       0.1725585 -0.28315595 -0.49235243 0.29014724
000020 59 00 c3 be b9 c0 d2 3e e6 12 e0 3e a5 10 e6 be
       -0.38086203 0.4116266 0.43764418 -0.44934574
000030 9e ff 0a bf 85 49 a5 3d b9 9e 8e be 69 13 5b 3d
       -0.5429629 0.08070663 -0.2785547 0.053485308
000040 cb 9b 8b be ff 06 44 be 75 b9 03 bf d2 ad c3 3e
       -0.27267298 -0.19143294 -0.5145486 0.38218552
000050 90 11 d8 be f4 16 c0 be ef eb 46 bd 3b d8 bf be
       -0.422009 -0.37517512 -0.048564848 -0.37469658
000060 b8 fe f3 be 2f 04 bb 3e 56 30 2d be 9a 28 78 3e
       -0.47655272 0.3652663 -0.1691297 0.24234238
000070 c1 76 b4 3e 87 8a c8 be 7f 2d fd be a2 0e 1c be
       0.35246852 -0.39168188 -0.49448773 -0.15239957
000080 a2 54 b1 3e 9b 30 49 3b c0 46 62 be 36 8a be 3e
       0.34634882 0.0030699137 -0.22097301 0.37214822
000090 99 1e 0a 3f 39 54 bc 3e 80 8f e7 be 28 50 e3 bd
       0.5395294 0.36783007 -0.4522667 -0.11099273
0000a0 0d 78 95 be b0 b8 d7 3e f7 51 8f be b2 3b 48 be
       -0.29193154 0.42133093 -0.27992222 -0.19554022
0000b0 83 65 2b 3c c9 d8 f9 bc 9c 57 d3 3e 5f 8c 63 3d
       0.010461214 -0.030498879 0.41277778 0.05555379
0000c0 65 64 e7 be 83 85 dd 3e c0 ae cc 3e a6 53 9c 3d
       -0.45193782 0.43265924 0.39977074 0.07633142
0000d0 61 5d f2 be 48 34 76 3e 58 13 ca 3e 1d 1d 3a 3e
       -0.47336867 0.24043381 0.39467883 0.18175168
0000e0 90 40 46 be 06 c7 ad 3d 68 8b b0 be 84 18 0c 3f
       -0.19360566 0.08485226 -0.3448136 0.5472491
0000f0 b3 e3 fe 3e 78 31 0d be f1 a1 ec be 7c 04 ac 3e
       0.49783096 -0.13788402 -0.462173 0.3359717
000100 e4 63 ae 3e 0e 87 8b 3e 6d 44 b2 be b0 5a 57 3e
       0.34060585 0.27251476 -0.3481783 0.21030688
000110 c4 ec 41 be 79 f7 fc be 04 25 96 be ef 63 5c 3e
       -0.18937975 -0.49407557 -0.29325116 0.21522497
000120 9f 7f 91 3e 77 f2 0a bf b4 59 8b 3e 7d 2b 88 3e
       0.2841768 -0.5427622 0.27216876 0.2659568
000130 b2 9d 00 3f 02 ac f4 3e 19 ab 58 be 5d 37 8e 3e
       0.50240624 0.47787482 -0.21159019 0.27776614
000140 ac a9 14 3f bf 16 2f 3e 13 78 ca be eb ea 1f be
       0.580714 0.1709852 -0.39544734 -0.15616958
000150 cd 97 fa 3e 9f 7c ab 3e a1 ed f7 3e 3b 04 d8 bd
       0.4894394 0.33493516 0.48423484 -0.10547682
000160 b6 57 84 bc 01 c2 e2 be ac 4c 80 be 8c 51 ad 3e
       -0.016155105 -0.44288638 -0.25058496 0.33851278
000170 c3 70 04 bf 4b a9 8a be 9a 4f f1 3d 6a 2e 8e be
       -0.5173456 -0.27082285 0.11782761 -0.27769786
000180 03 9b 47 3d 09 d6 be 3c d7 7b 92 3e 9c cb cb be
       0.048731815 0.02329542 0.28610107 -0.3980378

GRN_net.encoder.2.bias f4 [10]
000000 6d a7 a2 bd 1f 63 27 3d e9 6d a3 3d 46 30 d0 3d
       -0.0794209 0.040866014 0.07979948 0.101654574
000010 8e f1 a7 3e 16 7b 79 3e 7c bb 1e 3e 68 f2 7b 3b
       0.3280148 0.2436336 0.15501207 0.0038444046
000020 94 04 84 be 90 83 86 3e
       -0.25784743 0.2627225

GRN_net.encoder.4.weight f4 [10, 10]
000000 19 bb 93 3c 2f 0b fb be 55 7a 97 3e 2f b5 02 3f
       0.018033551 -0.4903197 0.2958552 0.51057714
000010 c5 66 19 be 39 3d 7e 3d ce c2 8a be cb 76 f1 be
       -0.1498061 0.062070105 -0.2710175 -0.47160944
000020 7d d3 9b be d3 33 4e be 1a 3d 12 3e 89 c9 29 3d
       -0.3043479 -0.20136957 0.14281121 0.041451965
000030 63 2d 39 3d f5 e5 cb be c3 d2 ba be c7 6e d5 be
       0.0452093 -0.3982388 -0.36488923 -0.4168608
000040 53 0f bc be ec d7 ee 3e 4a 57 55 3e 2d d5 0c bf
       -0.3673044 0.4664911 0.2083408 -0.5501278
000050 b2 52 d7 bd 12 73 19 3d e4 67 c4 3e 96 d9 07 3f
       -0.1051382 0.037463255 0.38360512 0.53066385
000060 04 90 43 be 21 12 b8 3e 06 c8 10 be 6e 32 89 3d
       -0.19097906 0.3595133 -0.14138803 0.06699072
000070 60 4f 8d be 34 f9 97 3d 91 c3 f0 3e 73 9f c0 3e
       -0.2759962 0.074205786 0.47024205 0.3762165
000080 4d 0b b8 3e c0 ee 6f be 20 e4 66 bd 81 55 09 3e
       0.35946122 -0.2343092 -0.0563699 0.13411523
000090 04 0e bf 3e 6f 8e 04 bf 66 74 82 be ac 33 c5 3c
       0.3731538 -0.51779836 -0.2547943 0.02407249
0000a0 cc b1 91 be 95 64 25 3e cc f3 cd bc 53 d2 1a be
       -0.2845596 0.1615165 -0.025140665 -0.15119295
0000b0 4e 52 37 3e 9f c0 bc 3e f3 9f 00 3f 76 b0 9e 3e
       0.1790249 0.36865708 0.50244063 0.30994004
0000c0 cc 7f d2 3b ba 3e da 3e a0 6c f7 3e fa e0 0b bf
       0.006423926 0.42625982 0.48325062 -0.5464016
0000d0 5d 68 8f 3e fd 91 73 3b 90 0b a8 be 22 11 d2 bd
       0.2800931 0.0037165873 -0.3282132 -0.10257174
0000e0 0c 45 ee bd 1f b9 70 be 9c 5a 33 be af 1e d2 3d
       -0.116342634 -0.23508118 -0.17515033 0.10259759
0000f0 33 00 27 3e e8 ab 5d 3d 26 7e 0b bf cf 2b 9a 3e
       0.1630867 0.05411902 -0.5448936 0.30111548
000100 01 7f 98 bd 9c 98 d6 3e da 94 01 bf c5 66 06 be
       -0.07446099 0.41913307 -0.50617754 -0.13125141
000110 b6 f8 d5 3e 6a 8d 79 3e 3c f2 89 be 7c b1 f9 be
       0.41791314 0.24370351 -0.26942623 -0.48768222
000120 4c bd 64 3d 07 f3 2b 3e 2b 82 14 bf 99 d8 ef be
       0.05584459 0.16791926 -0.5801112 -0.46844938
000130 53 1d 0a bc 99 8d e1 bd 36 a4 c1 3e d0 11 08 bf
       -0.008429843 -0.11013336 0.37820596 -0.5315218
000140 b7 61 26 be 89 30 d3 be 59 6a 01 bd 13 6a 61 be
       -0.16248213 -0.41247967 -0.03159556 -0.2201312
000150 13 8d 26 3e 02 df 08 bf 80 d5 df be f2 72 af be
       0.16264753 -0.5346528 -0.43717575 -0.34267384
000160 b8 b3 06 bf fa 7d f1 3e bc eb f4 bd 69 a5 b9 be
       -0.5261798 0.47166425 -0.11959025 -0.3625901
000170 bc 02 2a 3e d9 14 c2 bd 3d f2 72 3e 48 17 3d be
       0.16602606 -0.094766326 0.23725219 -0.18465912
000180 c9 07 09 bf ab 71 90 3e 07 5c ea 3e 85 b1 12 bf
       -0.53527504 0.28211722 0.45773336 -0.57302123

GRN_net.encoder.4.bias f4 [10]
000000 4b 2a 1d bc 4a b7 15 3d 74 66 90 3e b1 49 b3 3d
       -0.009592603 0.03655175 0.28203166 0.0875429
000010 57 f4 30 be f5 0b 3f be 3d 89 85 be cf fb 84 3e
       -0.17280708 -0.18656905 -0.26081267 0.25973365
000020 0b 89 22 3d ad b6 b8 3d
       0.039681476 0.09019218

GRN_net.encoder.6.weight f4 [10, 10]
000000 1a ba 9c 3d e9 bd 32 3d 55 38 99 3c 40 48 32 bd
       0.076526836 0.043638144 0.018703619 -0.043525934
000010 86 86 14 be 83 22 ce be da 7e 0a 3e 06 44 ed be
       -0.14504442 -0.40260705 0.13524953 -0.4634096
000020 ce c7 e9 be 6d 4f 32 be a3 b6 b6 be 9d 0a ec 3d
       -0.4566025 -0.17413111 -0.35686216 0.11525462
000030 28 6e bc 3e 78 07 e0 3e 72 57 91 be 70 5e aa 3e
       0.36802793 0.43755698 -0.28387028 0.33275175
000040 90 70 cd 3e 1a 26 d8 bc e8 52 80 3e 39 40 8e 3e
       0.4012494 -0.026385356 0.25063252 0.27783373
000050 a8 e3 fe 3e 12 fb 3d 3e a5 0a 96 3e 83 56 d7 bd
       0.49783063 0.18552807 0.29304996 -0.10514548
000060 68 d7 83 be 42 a2 5f be 4b 28 c2 3e 4c a7 6d bd
       -0.2575028 -0.2183924 0.37921366 -0.058020875
000070 d2 ed 07 3e 68 a9 1a bf c3 03 2f 3d c4 59 77 be
       0.13274315 -0.60414743 0.042728197 -0.24155337
000080 72 e7 74 be 23 e9 e1 3e 96 b5 e7 be 53 bd 52 be
       -0.23916414 0.44123182 -0.45255727 -0.20580034
000090 0c 18 40 bd 79 85 fb be b8 89 96 3e e4 51 89 be
       -0.046897933 -0.4912527 0.29401946 -0.2682029
0000a0 b5 bb 88 3e f5 6f e7 3e 5e 26 b9 3e 03 39 14 be
       0.2670571 0.45202604 0.36162084 -0.14474873
0000b0 01 3b a2 3e a7 21 12 3f fa 46 24 3e 10 80 ae bd
       0.3168564 0.570826 0.160427 -0.0852052
0000c0 e5 63 50 be 7f 35 1c 3e 03 80 de 3d 9f bb d0 be
       -0.20350607 0.15254782 0.1086426 -0.40768144
0000d0 76 5d ae 3e bb 4c c5 3d 13 23 fe be 1d de 5d 3e
       0.3405568 0.09633776 -0.49636135 0.2166676
0000e0 17 f6 ab 3e 8d a2 23 3e ab 65 d5 3e 1c 28 1a 3e
       0.3358619 0.15979977 0.4167913 0.15054363
0000f0 63 09 de be 93 2e 76 bd f5 d8 cd 3e 24 d6 5a be
       -0.43366536 -0.06010301 0.40204588 -0.2137075
000100 cf b3 1a 3e 13 7a 34 3e 65 1c d8 bd 55 2b a4 bb
       0.15107654 0.17624693 -0.10552291 -0.0050100484
000110 21 6b 62 3e 2c 7c cc be 77 fa aa 3e 51 3b ac 3e
       0.22111179 -0.39938486 0.33394215 0.33639005
000120 b2 a1 08 3e 0c ac f5 3e 8e 16 08 3d 1c 56 0a bf
       0.13342932 0.47982824 0.033224635 -0.5403764
000130 09 87 66 3d 03 19 0c be e7 a6 30 3e ea 3a e7 3e
       0.056281123 -0.13681416 0.17251168 0.45162135
000140 83 b4 75 be 57 20 dc 3d 18 62 14 3f 1b 62 d8 be
       -0.23994641 0.10748356 0.5796218 -0.4226235
000150 af 89 b9 bd 71 d9 c1 3e 43 1b 09 3f ac 62 6b 3e
       -0.09059464 0.37861207 0.53557223 0.22986859
000160 d2 5d 95 be c6 b3 38 3d 66 61 fe be 3d 75 8c be
       -0.29173142 0.04509332 -0.49683684 -0.27433196
000170 c1 73 0d bf 44 83 04 3f c1 22 bb 3e 9b 0a 86 3e
       -0.5525475 0.51762795 0.36549953 0.26179966
000180 b3 03 4a be 8a d0 01 3f c1 c4 22 be f3 db c9 3e
       -0.19727974 0.5070883 -0.15895368 0.3942562

GRN_net.encoder.6.bias f4 [10]
000000 13 79 98 3b 4b 5c 5e 3e 48 14 dd 3d e4 03 a5 bd
       0.004653105 0.21714894 0.10794884 -0.08057383
000010 2a 05 82 3e 2e b0 52 3c f3 cc 68 3e d7 33 b7 3d
       0.25394565 0.012859387 0.22734432 0.089454345
000020 99 01 63 3e e0 44 4e 3e
       0.22168578 0.20143461

GRN_net.decoder.0.weight f4 [6, 10]
000000 37 12 f2 3b f0 d7 be be 53 cd 43 be 9f 3c 77 be
       0.0073874253 -0.37274122 -0.19121294 -0.24144219
000010 5c ed 14 bf d5 33 db 3d 1b b6 2d be 44 5e 59 3e
       -0.5817468 0.107032456 -0.16963999 0.21227366
000020 79 f1 e3 3e 96 2d 9a bd 70 ba 76 3e 69 69 51 3e
       0.44520167 -0.07528226 0.24094558 0.20450367
000030 96 4c 4f 3e ea 19 89 be ab 44 42 be ec a5 61 3e
       0.20244059 -0.26777583 -0.18971507 0.2203595
000040 40 5d 07 3f 9e 13 1c bf d2 c6 d6 be f3 5a ee 3d
       0.52876663 -0.60967433 -0.41948563 0.11638441
000050 73 2d 07 3f c9 fb 81 3e 39 16 23 bf c6 14 fc be
       0.52803725 0.2538741 -0.63705784 -0.492346
000060 77 8b 1b 3f 79 64 b7 bc 77 8e 14 bf 8c a0 72 be
       0.6075968 -0.022386776 -0.58029884 -0.23694056
000070 42 60 83 3e 78 82 f5 bd 8c f6 e4 be 33 04 b1 be
       0.25659376 -0.119877756 -0.4471935 -0.34573516
000080 86 57 a3 be 2b 7e 13 3d 99 67 48 3e 2b 01 54 3e
       -0.31902713 0.036008995 0.1957077 0.2070357
000090 a1 b1 96 be d2 88 61 be 2e e3 fb be 29 b9 ed 3e
       -0.29432395 -0.22024849 -0.49196762 0.46430328
0000a0 9d 69 45 3f fa 9e 18 3f 98 cf 66 3e 81 f6 68 bd
       0.7711428 0.5961758 0.22540128 -0.05687571
0000b0 03 87 3a be 8a c6 a7 3e 9b a5 d5 be d2 b8 12 bc
       -0.18215565 0.3276866 -0.4172791 -0.008955197
0000c0 13 54 fa be 54 d3 0a bf 95 79 9d 3d f3 77 12 bd
       -0.4889227 -0.5422871 0.076892056 -0.035758924
0000d0 62 86 e9 be 21 c5 59 3e 15 22 30 3e 71 a7 4b 3d
       -0.45610338 0.21266605 0.17200501 0.04972023
0000e0 db 2d c8 be 12 06 f8 be db 15 07 3d 26 3e 54 be
       -0.39097485 -0.4844213 0.032979827 -0.20726833

GRN_net.decoder.0.bias f4 [6]
000000 a8 3b 0a 3e 74 e7 9a be e5 b6 3a 3e 2f 0c c0 3d
       0.1349932 -0.3025471 0.18233831 0.09377324
000010 c4 e7 3c bd 62 71 d5 3d
       -0.046119466 0.10422017

BRD_net.encoder.0.weight f4 [8, 7]
000000 e9 18 51 be 88 4d c8 3e f5 f3 1f 3e 40 be 0b 3f
       -0.20419659 0.39121652 0.15620406 0.54587173
000010 3e 68 48 3d 8e 46 f5 be 0a f6 1b 3e d4 50 e6 be
       0.048927538 -0.4790539 0.15230575 -0.44983542
000020 96 3d 74 3f 05 91 0c bf e2 8d 88 3e 64 5b 20 bf
       0.9540647 -0.5490878 0.26670748 -0.6263945
000030 eb b3 10 3f 24 0b 15 3f 4b 72 cd 3e c1 cf aa 3e
       0.56524533 0.58220124 0.4012626 0.3336163
000040 30 17 52 3e 1a 93 d0 be 3e c6 b1 be af a9 f6 ba
       0.20516658 -0.4073723 -0.3472156 -0.001881888
000050 fb 61 16 bf 3e 22 10 3f 15 69 b2 be 38 c8 ef 3e
       -0.58743256 0.5630225 -0.34845796 0.46832442
000060 ab 38 23 3e 7f 6a d6 3e 46 03 a5 be 9b 37 28 bf
       0.15939586 0.41878125 -0.3222906 -0.6570985
000070 a7 24 cb 3e 2c 96 6f be 7b c2 e4 3e 17 82 00 bf
       0.396764 -0.2339713 0.44679627 -0.501985
000080 4a 74 66 3e 67 f3 15 bf 43 1f 67 be 12 58 64 bb
       0.22505298 -0.5857453 -0.22570519 -0.0034842533
000090 f9 e5 4f be a8 ee 3a bf c0 70 8a be c1 18 78 3e
       -0.20302571 -0.7302041 -0.27039146 0.24228193
0000a0 52 f3 37 3f 0a f4 89 be bd ef b8 3b f1 c5 55 bf
       0.7185565 -0.26944 0.0056438134 -0.8350516
0000b0 32 d2 b5 be 1c f7 9c be 53 d4 7e bf bd ca 0c 3e
       -0.3551193 -0.3065728 -0.9954273 0.13749214
0000c0 cd af 9f 3c 08 c8 39 3f f0 50 e1 be 6a 74 51 3f
       0.019493008 0.7257085 -0.44007063 0.8181826
0000d0 dd a1 37 3f 5a aa 5d 3f c1 db 8b 3e 68 2a c2 be
       0.7173136 0.8658806 0.27316096 -0.37922978

BRD_net.encoder.0.bias f4 [8]
000000 3d 4e ae 3e c5 60 63 be 05 56 90 be b9 b9 a5 be
       0.34044066 -0.22204883 -0.28190628 -0.32368258
000010 a1 e0 6c 3e 44 2d 6b bd 0e 09 47 bd 37 ed 3d 3c
       0.23132564 -0.057416216 -0.04859262 0.011592201

BRD_net.encoder.2.weight f4 [8, 8]
000000 06 4a cb be f2 91 cd be c8 74 85 3e 0e 55 71 3e
       -0.39704913 -0.4015041 0.2606566 0.23567602
000010 5c 68 56 3e 99 87 cd be c5 f9 cc be 50 03 ef 3e
       0.20938247 -0.40142515 -0.4003431 0.46682215
000020 0e f4 8c be d7 a9 fe be b9 2f 7c 3d b4 ca 13 be
       -0.2752995 -0.49738953 0.06156895 -0.14432794
000030 a2 04 8c bd 5b 90 9b 3e c9 38 77 3e 24 f1 10 bf
       -0.06836821 0.30383572 0.24142756 -0.5661795
000040 f2 57 f9 bd 5c d8 5e be c8 0f 10 3f f3 74 ad 3e
       -0.12174977 -0.21762222 0.5627408 0.33878288
000050 71 93 8f 3e 20 fd 23 3f e1 8a 9b 3e a4 ea 31 bf
       0.28042176 0.64058113 0.30379394 -0.6949866
000060 69 10 ea 3e ac a6 37 be 03 0c 85 be 95 1c a2 be
       0.45715645 -0.17934674 -0.25985727 -0.3166243
000070 ba 67 a0 3e 85 b1 30 be a6 6d d0 be 07 67 c6 be
       0.31329137 -0.17255218 -0.40708655 -0.3875048
000080 03 7a d8 bd 5c c9 0b 3f 9f 57 12 3f 61 f4 f2 3e
       -0.10570147 0.54604125 0.5716495 0.4745207
000090 37 5d f7 3d a0 fc b2 bd af 20 de bd 4e 7d db be
       0.12078326 -0.08739591 -0.10846078 -0.42869037
0000a0 26 f1 82 3e 28 ca 01 bf af 57 0f 3e 53 4f bb 3e
       0.25574607 -0.5069909 0.13998292 0.36583957
0000b0 df 96 10 3f a8 d2 0c bf 89 6d 00 3f a0 1e af be
       0.5648021 -0.55008936 0.5016714 -0.34203053
0000c0 7c d9 a1 be ba 74 2a 3f ec 44 ee 3e 36 00 49 be
       -0.3161124 0.6658436 0.46536958 -0.19628987
0000d0 44 0e 90 3e 8a e6 04 bf b1 f3 ff 3e eb 46 f9 3e
       0.28135884 -0.51914275 0.4999061 0.4868692
0000e0 63 08 88 be 08 21 47 3e c5 f5 1b 3e a1 f0 a7 be
       -0.265689 0.19446194 0.15230472 -0.32800773
0000f0 6d 90 ab be 06 e1 5b bd 4a 43 ef be 4f 59 16 bf
       -0.33508626 -0.053681396 -0.46731025 -0.58730024

BRD_net.encoder.2.bias f4 [8]
000000 02 0f 78 3c ff 39 6f 3e 1a be f7 bc 30 19 1b be
       0.015140297 0.23361968 -0.030242015 -0.15146327
000010 83 10 dc bd 20 6d dd 3e cf 06 05 3e 9b a0 24 be
       -0.10745337 0.43247318 0.12990879 -0.16076891

BRD_net.decoder.weight f4 [1, 8]
000000 95 4b 2b 3e 49 2b d9 be 2a 5c 05 bf 22 9c 2a be
       0.16728051 -0.42415836 -0.52093756 -0.16661122
000010 b8 96 1b bf 2b 68 5c 3f 8c 4a 3d be fb 84 15 bf
       -0.60776854 0.8609645 -0.18485469 -0.5840604
