example/Embryogenesis/Output/ckpt_itr700.pth (torch, 8054 bytes, 15 tensors)

GRN_net.encoder.0.weight f4 [10, 6]
-0.083547354 -0.26525888 0.061658558 0.16978511 0.35771468 0.15852438 0.23805405 0.30015996
0.22430779 0.023301767 -0.16938837 0.4752517 0.085636236 0.5211344 0.6180012 -0.16855241
0.50942534 -0.045843277 0.51694673 0.66790724 -0.4270739 0.06802746 -0.3945697 -0.32809454
-0.14665441 -0.15597989 -0.16783436 -0.5679764 -0.34729528 -0.041519847 -0.1252277 0.31831083
0.37322402 0.31379613 0.46984422 -0.5567232 0.45200205 -0.71190184 -0.0950034 -0.51504
0.25500783 -0.3902567 -0.35601145 -0.34765598 -0.355075 -0.3271108 0.73287994 -0.11758712
0.17588374 -0.47361562 0.8102435 -0.24855953 -0.6088282 0.4232274 -0.11249992 0.69607896
-0.5290637 -0.44923243 -0.3644607 0.30465493
00000000: e01a abbd 03d0 87be af8d 7c3d 26dc 2d3e
00000010: 6126 b73e 3754 223e 71c4 733e 91ae 993e
00000020: f1b0 653e 59e3 be3c 2574 2dbe 3154 f33e
00000030: 0d62 af3d 1069 053f 5435 1e3f 0199 2cbe
00000040: b369 023f 29c6 3bbd 9f56 043f f8fb 2a3f
00000050: 6ea9 dabe fb51 8b3d 0a05 cabe 02fc a7be
00000060: 932c 16be 31b9 1fbe c5dc 2bbe e766 11bf
00000070: b0d0 b1be b710 2abd b13b 00be a3f9 a23e
00000080: 3817 bf3e e3a9 a03e 6c8f f03e 6985 0ebf
00000090: d06c e73e 333f 36bf 2591 c2bd a9d9 03bf
000000a0: 6390 823e bacf c7be 2247 b6be f7ff b1be
000000b0: 64cc b5be 117b a7be 059e 3b3f 84d1 f0bd
000000c0: de1a 343e bf7d f2be 1e6c 4f3f 6486 7ebe
000000d0: 2adc 1bbf 43b1 d83e 5c66 e6bd 3b32 323f
000000e0: b870 07bf cb01 e6be 989a babe bbfb 9b3e

GRN_net.encoder.0.bias f4 [10]
-0.27280387 0.26296678 0.25353178 0.32211348 -0.25913915 -0.14069419 -0.082140975 0.0005604875
-0.30413404 -0.2728905
00000000: f3ac 8bbe 95a3 863e ebce 813e 0fec a43e
00000010: e3ad 84be 2312 10be 8739 a8bd aeed 123a
00000020: 75b7 9bbe 4eb8 8bbe

GRN_net.encoder.2.weight f4 [10, 10]
-0.11640776 -0.40880674 0.14766291 0.030898485 0.1643741 -0.29446605 -0.47132242 0.24777472
-0.33602977 0.40763676 0.43002406 -0.41693556 -0.3114263 0.10054353 -0.5142493 0.06978092
-0.20303844 -0.1913493 -0.5104226 0.2566261 -0.4045921 -0.4068339 -0.092779435 -0.23448941
-0.49269778 0.3225497 -0.19047734 0.26867867 0.34505838 -0.3126086 -0.2645115 -0.21386106
0.30816957 -0.080691785 -0.18613057 0.36082223 0.48551014 0.46583962 -0.44494176 -0.070657864
-0.15551428 0.39322063 -0.3198966 -0.29379684 0.03682268 -0.08226169 0.32243255 0.08148636
-0.40288997 0.4513789 0.3750397 0.09311796 -0.5197078 0.2823187 0.36707526 0.16541092
-0.22496042 0.05840134 -0.34828913 0.53198975 0.50930107 -0.12949562 -0.44687942 0.34689686
0.3081829 0.28169858 -0.33181942 0.2167119 -0.24048814 -0.50926894 -0.34519535 0.22965479
0.222558 -0.4966146 0.26835 0.28419402 0.45652494 0.42450023 0.023154601 0.28617954
0.46578634 0.23742767 -0.3633462 -0.15848377 0.46695003 0.3545846 0.422825 -0.15179996
-0.023577537 -0.47835046 -0.2623236 0.34335706 -0.50976634 -0.21327034 0.15102924 -0.31966513
0.08092259 0.014442857 0.2708064 -0.40440303
00000000: 3167 eebd 1e4f d1be f234 173e d21e fd3c
00000010: af51 283e 41c4 96be 2c51 f1be a8b8 7d3e
00000020: 180c acbe c4b5 d03e 1d2c dc3e 9478 d5be
00000030: 4573 9fbe c4e9 cd3d d8a5 03bf 4de9 8e3d
00000040: 4fe9 4fbe 12f1 43be 0eab 02bf 7f64 833e
00000050: b226 cfbe 884c d0be 2503 bebd fe1d 70be
00000060: e242 fcbe 3c25 a53e 7e0c 43be 4090 893e
00000070: 7eab b03e 3c0e a0be 0d6e 87be 65fe 5abe
00000080: 67c8 9d3e bc41 a5bd 0399 3ebe b1bd b83e
00000090: c994 f83e 8882 ee3e 68cf e3be 12b5 90bd
000000a0: 233f 1fbe 3754 c93e 7dc9 a3be 8a6c 96be
000000b0: 61d3 163d d178 a8bd e115 a53e 52e2 a63d
000000c0: 9847 cebe 231b e73e 3405 c03e a1b4 be3d
000000d0: 920b 05bf 148c 903e 4af1 bb3e 7b61 293e
000000e0: 065c 66be 3e36 6f3d f452 b2be 7b30 083f
000000f0: 8e61 023f 809a 04be 61cd e4be 779c b13e
00000100: 26ca 9d3e cc3a 903e 3ce4 a9be b9e9 5d3e
00000110: 8642 76be 735f 02bf 72bd b0be a02a 6b3e
00000120: 3fe6 633e 4544 febe 2c65 893e e181 913e
00000130: a3bd e93e 1858 d93e b8ae bd3c 2086 923e
00000140: 8c7b ee3e 3d20 733e 8308 babe 9249 22be
00000150: 1314 ef3e 1d8c b53e 857c d83e 7371 1bbe
00000160: ae25 c1bc 5aea f4be 474f 86be 7fcc af3e
00000170: 0c80 02bf 8a63 5abe 69a7 1a3e 26ab a3be
00000180: beba a53d bca1 6c3c 23a7 8a3e ea0d cfbe

GRN_net.encoder.2.bias f4 [10]
-0.07650175 0.10515972 0.043278527 0.06180476 0.30237618 0.27172017 0.19471619 0.011560546
-0.21432976 0.21906334
00000000: f3ac 9cbd fb5d d73d d344 313d fd26 7d3d
00000010: 0dd1 9a3e e81e 8b3e ae63 473e 7268 3d3c
00000020: 4379 5bbe 2452 603e

GRN_net.encoder.4.weight f4 [10, 10]
0.038712148 -0.5048001 0.3066852 0.48366323 -0.13667905 0.07505604 -0.29553035 -0.39263707
-0.29904202 -0.21923254 0.07983824 -0.08126019 0.025681715 -0.412636 -0.3666476 -0.4903359
-0.4052864 0.45303753 0.18969503 -0.52893966 -0.07116667 0.084229276 0.3257027 0.51257455
0.1249042 0.39159602 -0.14532535 0.04571848 -0.30906144 0.08504235 0.48719522 0.37481588
0.3598935 -0.20234135 -0.030022794 0.14741616 0.39208153 -0.48242638 -0.2309674 0.03575914
-0.29624057 0.19688904 -0.027296223 -0.12173756 0.20405762 0.39221835 0.52031684 0.27217004
0.014036981 0.41021964 0.4668232 -0.28204602 0.25492892 0.028166033 -0.34835178 -0.10949261
-0.1008126 -0.2943189 -0.174769 0.11191072 0.38944516 0.047615413 -0.5459826 0.28505933
-0.13369615 0.46750268 -0.51471287 -0.13634327 0.407009 0.24734789 -0.2506065 -0.4677197
0.062157772 0.20719047 -0.5448747 -0.4517365 0.007202204 -0.083853215 0.38663253 -0.5518768
-0.14010902 -0.45738184 -0.062328417 -0.15655293 0.2158483 -0.51157624 -0.46882656 -0.30478603
-0.49970192 0.44558835 -0.08336809 -0.3486698 0.2615653 -0.085067905 0.2476883 -0.15242448
-0.51795524 0.2303487 0.3691913 -0.58262986
00000000: a190 1e3d 943a 01bf d805 9d3e b5a2 f73e
00000010: 98f5 0bbe fbb6 993d c14f 97be ba07 c9be
00000020: 091c 99be 7f7e 60be 3b82 a33d be6b a6bd
00000030: 7662 d23c 0745 d3be 3cb9 bbbe 4f0d fbbe
00000040: b381 cfbe 89f4 e73e 6a3f 423e 9768 07bf
00000050: d5bf 91bd 6680 ac3d 81c2 a63e 1638 033f
00000060: c6cd ff3d 467f c83e 2bd0 14be 4d43 3b3d
00000070: 4d3d 9ebe af2a ae3d a771 f93e dee7 bf3e
00000080: f643 b83e 9232 4fbe 5df2 f5bc 43f4 163e
00000090: e9be c83e 9700 f7be b882 6cbe 2d78 123d
000000a0: d8ac 97be 489d 493e 549c dfbc 8b51 f9bd
000000b0: 7bf4 503e d8d0 c83e 7c33 053f df59 8b3e
000000c0: 5efb 653c 4f08 d23e 7303 ef3e 5668 90be
000000d0: 0b86 823e 74bc e63c 2a5b b2be a93d e0bd
000000e0: d676 cebd f8b0 96be a5f6 32be 7331 e53d
000000f0: 5b65 c73e 6108 433d 84c5 0bbf 4cf3 913e
00000100: a5e7 08be 835c ef3e 39c4 03bf 929d 0bbe
00000110: 7c63 d03e c448 7d3e 7f4f 80be f578 efbe
00000120: 2699 7e3d bd29 543e e97c 0bbf 024a e7be
00000130: 7700 ec3b 3cbb abbd b3f4 c53e cc47 0dbf
00000140: bd78 0fbe f42d eabe 154c 7fbd 694f 20be
00000150: 5607 5d3e a9f6 02bf 090a f0be ea0c 9cbe
00000160: eed8 ffbe 2824 e43e e4bc aabd d984 b2be
00000170: e3eb 853e 1538 aebd 00a2 7d3e 2a15 1cbe
00000180: b798 04bf 88e0 6b3e a406 bd3e 3b27 15bf

GRN_net.encoder.4.bias f4 [10]
-0.033791326 0.10241169 0.25143418 0.0707756 -0.13193049 -0.1705029 -0.265293 0.24610226
0.0132199675 0.049996417
00000000: c668 0abd 38bd d13d fbbb 803e ccf2 903d
00000010: c918 07be 5098 2ebe 7cd4 87be 3b02 7c3e
00000020: 9098 583c 0bc9 4c3d

GRN_net.encoder.6.weight f4 [10, 10]
0.035342388 0.10891431 0.0049566273 -0.0064466116 -0.17748782 -0.3856925 0.08886317 -0.3927843
-0.43518198 -0.19968396 -0.3951464 0.16219968 0.3513006 0.40493754 -0.3208219 0.3063067
0.36893815 0.0010844278 0.26808748 0.26052603 0.4811248 0.21432064 0.27456632 -0.17086187
-0.31017813 -0.21913652 0.40534666 -0.0763588 0.09534721 -0.5615006 -0.03012709 -0.24176492
-0.24460997 0.41007128 -0.40363458 -0.21380189 -0.011313816 -0.53323764 0.29669702 -0.20576522
0.2184287 0.41124687 0.38030887 0.07825335 0.34596473 0.5426191 0.15739745 -0.07134951
-0.18561472 0.108611725 0.107017726 -0.44085842 0.373785 0.14284566 -0.46891573 0.1919613
0.3749818 0.119472235 0.3843369 0.089639455 -0.43560082 -0.04916647 0.37269342 -0.25804216
0.18799016 0.16045949 -0.04577 0.008513188 0.18256596 -0.37689877 0.3298264 0.33570728
0.37546268 0.48560786 0.043617036 -0.51889783 0.068813235 -0.15319042 0.16753696 0.47541696
-0.28369257 0.08928135 0.5950186 -0.39886677 -0.0635328 0.4480092 0.37222728 0.18420228
-0.31564057 0.02307405 -0.45594665 -0.4711698 -0.5210804 0.5034335 0.39732504 0.23453884
-0.13316408 0.52102417 -0.18062009 0.40597564
00000000: 2ec3 103d 770e df3d 346b a23b 193e d3bb
00000010: 5ebf 35be 7d79 c5be e5fd b53d 061b c9be
00000020: 2cd0 debe f479 4cbe a150 cabe ac17 263e
00000030: acdd b33e f953 cf3e c542 a4be 3bd4 9c3e
00000040: 76e5 bc3e 5c23 8e3a c342 893e ab63 853e
00000050: fd55 f63e df76 5b3e f593 8c3e 6af6 2ebe
00000060: abcf 9ebe 5365 60be 9989 cf3e 0162 9cbd
00000070: 6645 c33d 81be 0fbf 16cd f6bc 3991 77be
00000080: 097b 7abe ddf4 d13e 31a9 cebe e2ee 5abe
00000090: 955d 39bc 4382 08bf ace8 973e 1eb4 52be
000000a0: c6ab 5f3e f38e d23e d8b7 c23e 4b43 a03d
000000b0: 4a22 b13e 16e9 0a3f cc2c 213e b11f 92bd
000000c0: c911 3ebe d36f de3d 1c2c db3d 32b8 e1be
000000d0: bf60 bf3e 2246 123e b915 f0be 8191 443e
000000e0: 9dfd bf3e dcad f43d cec7 c43e e494 b73d
000000f0: 1207 dfbe c862 49bd acd1 be3e 1a1e 84be
00000100: 7e80 403e 7e4f 243e 5379 3bbd e67a 0b3c
00000110: 92f2 3a3e e0f8 c0be 02df a83e d3e1 ab3e
00000120: a53c c03e 98a1 f83e c7a7 323d 7dd6 04bf
00000130: f4ed 8c3d f3dd 1cbe cf8e 2b3e da69 f33e
00000140: 2740 91be 24d9 b63d 2453 183f 4438 ccbe
00000150: 7c1d 82bd 7661 e53e 9394 be3e 869f 3c3e
00000160: a49b a1be ca05 bd3c d771 e9be 2b3d f1be
00000170: 8665 05bf 05e1 003f 306e cb3e f32a 703e
00000180: 2a5c 08be d761 053f 79f4 38be 0adc cf3e

GRN_net.encoder.6.bias f4 [10]
0.034750003 0.24743713 0.08282089 -0.1311112 0.27112415 -0.022538913 0.20188911 0.0784571
0.26740935 0.175301
00000000: 0556 0e3d 2960 7d3e 009e a93d 0442 06be
00000010: c9d0 8a3e 87a3 b8bc 05bc 4e3e 1eae a03d
00000020: e1e9 883e 1b82 333e

GRN_net.decoder.0.weight f4 [6, 10]
0.01235609 -0.31382623 -0.18177089 -0.19329816 -0.51919043 0.16639751 -0.19740102 0.24977016
0.39619988 -0.0768868 0.2398822 0.18762961 0.37086445 -0.29121572 -0.20895441 -0.18467516
0.4970159 -0.6696114 -0.40805084 0.07563787 0.52512676 0.32577267 -0.6232609 -0.42374304
0.56985366 0.017432265 -0.55588514 -0.21858223 0.23067074 -0.094747 -0.45147365 -0.3617727
-0.3059387 0.013146449 0.21217743 0.27371204 -0.3156427 -0.20163494 -0.47152698 0.46905142
0.5979937 0.6126397 0.22185183 -0.0597628 -0.106340416 0.22984648 -0.4988889 0.016442772
-0.50262827 -0.5787746 0.056687333 -0.01947258 -0.45563778 0.20945352 0.15209262 0.048209257
-0.37294656 -0.5107026 -0.04385978 -0.18900701
00000000: 3371 4a3c d5ad a0be 2622 3abe f4ef 45be
00000010: aae9 04bf 1c64 2a3e 7e23 4abe c0c3 7f3e
00000020: b6da ca3e d476 9dbd aea3 753e fa21 403e
00000030: f2e1 bd3e 3a1a 95be 25f8 55be 7c1b 3dbe
00000040: de78 fe3e a76b 2bbf 0aec d0be 07e8 9a3d
00000050: b56e 063f adcb a63e 078e 1fbf d9f4 d8be
00000060: eee1 113f 1cce 8e3c 7d4e 0ebf 05d4 5fbe
00000070: f334 6c3e b70a c2bd 8e27 e7be 453a b9be
00000080: ffa3 9cbe 3464 573c 0a45 593e fc23 8c3e
00000090: ec9b a1be 6479 4ebe fc6b f1be 8227 f03e
000000a0: 1d16 193f f5d5 1c3f 202d 633e d6c9 74bd
000000b0: 01c9 d9bd e05c 6b3e 5e6e ffbe feb2 863c
000000c0: 3fac 00bf 922a 14bf fa30 683d f684 9fbc
000000d0: 5b49 e9be fc7a 563e 2bbe 1b3e 1277 453d
000000e0: daf2 bebe 68bd 02bf 50a6 33bd 0e8b 41be

GRN_net.decoder.0.bias f4 [6]
0.12158669 -0.30288997 0.21014282 0.06948765 -0.03566408 0.11891864
00000000: 7102 f93d 6514 9bbe ae2f 573e 8b4f 8e3d
00000010: 8014 12bd 9e8b f33d

BRD_net.encoder.0.weight f4 [8, 7]
-0.18574835 0.37617594 0.18128875 0.6249279 0.008014663 -0.4888655 0.158583 -0.46521223
0.23878187 -0.55875003 0.22878979 -0.6289835 0.57104784 0.5439503 0.37466398 0.36606017
0.12265734 -0.4632726 -0.276621 -0.082460865 -0.5927913 0.61045533 -0.27886277 0.4627632
0.16618909 0.33149603 -0.3471934 -0.57372636 0.45875168 -0.034214072 0.45009303 -0.4685166
0.1832288 -0.5932492 -0.16759206 -0.01664349 -0.24283554 -0.7056236 -0.32491854 0.27257237
0.7511335 -0.29397398 -0.051155344 -0.786811 -0.39384103 -0.328506 0.34033552 0.0485411
0.060852397 0.6899418 -0.28179696 0.77537066 0.7306964 0.84622943 0.22205275 -0.405981
00000000: d134 3ebe 229a c03e c2a3 393e 46fb 1f3f
00000010: ef4f 033c 944c fabe 9563 223e 4c30 eebe
00000020: 3c83 743e 3e0a 0fbf df47 6a3e 1005 21bf
00000030: 3130 123f 5440 0b3f f5d3 bf3e 3d6c bb3e
00000040: c533 fb3d 1132 edbe 45a1 8dbe 3ee1 a8bd
00000050: 2cc1 17bf cd46 1c3f 1ac7 8ebe 4cef ec3e
00000060: 792d 2a3e d9b9 a93e 55c3 b1be bbdf 12bf
00000070: 80e1 ea3e 0e24 0cbd 9872 e63e 68e1 efbe
00000080: 55a0 3b3e 2edf 17bf 419d 2bbe ee57 88bc
00000090: e1a9 78be c0a3 34bf b95b a6be 9b8e 8b3e
000000a0: 494a 403f c283 96be 4488 51bd 726c 49bf
000000b0: 88a5 c9be f031 a8be 7540 ae3e 08d3 463d
000000c0: 5d40 793d 07a0 303f b147 90be b17e 463f
000000d0: eb0e 3b3f 7ea2 583f cc61 633e bedc cfbe

BRD_net.encoder.0.bias f4 [8]
0.31245026 -0.2134311 -0.26725018 -0.23439945 0.24030733 -0.045612328 -0.09213586 -0.06970542
00000000: 7bf9 9f3e af8d 5abe 04d5 88be 6906 70be
00000010: 2013 763e fed3 3abd bab1 bcbd b7c1 8ebd

BRD_net.encoder.2.weight f4 [8, 8]
-0.35920966 -0.40639186 0.2443479 0.33756512 0.25848237 -0.48606393 -0.4579858 0.48550665
-0.33240765 -0.5087365 0.04940934 -0.15404217 -0.061201844 0.35116264 0.2709671 -0.55874807
-0.32824314 -0.21653654 0.52372754 0.31097865 0.27655527 0.67837864 0.33581525 -0.70029867
0.5045062 -0.27644977 -0.18790364 -0.18301347 0.40990108 -0.3083674 -0.45369625 -0.30560607
-0.22356686 0.5345776 0.5833746 0.46957415 0.13258173 -0.035447467 -0.08830075 -0.42289475
0.2947091 -0.48884338 0.0030979416 0.37020245 0.56322366 -0.6122839 0.47304344 -0.34536967
-0.32181695 0.6533334 0.43269816 -0.20925231 0.28909793 -0.49079862 0.52290606 0.4971604
-0.2726609 0.17800508 0.159638 -0.34948885 -0.32844302 -0.016507963 -0.4437512 -0.57140666
00000000: 54ea b7be 9812 d0be 5636 7a3e 56d5 ac3e
00000010: cd57 843e 5fdd f8be 1d7d eabe 5494 f83e
00000020: 5631 aabe 8e3c 02bf 7361 4a3d 3bbd 1dbe
00000030: c9ae 7abd 97cb b33e 33bc 8a3e 1d0a 0fbf
00000040: 7c0f a8be c1bb 5dbe 0213 063f 9838 9f3e
00000050: a798 8d3e 39aa 2d3f faef ab3e c646 33bf
00000060: 5127 013f d38a 8dbe d069 40be e267 3bbe
00000070: 8ede d13e 55e2 9dbe e04a e8be 6678 9cbe
00000080: b6ee 64be 14da 083f 0a58 153f 066c f03e
00000090: 81c3 073e 5d31 11bd 06d7 b4bd a985 d8be
000000a0: 1ce4 963e ae49 fabe d606 4b3b 2d8b bd3e
000000b0: 6d2f 103f a3be 1cbf c032 f23e 4bd4 b0be
000000c0: 31c5 a4be dc40 273f 9d8a dd3e 3d46 56be
000000d0: a504 943e f549 fbbe 2cdd 053f cf8b fe3e
000000e0: 369a 8bbe f746 363e 2578 233e 34f0 b2be
000000f0: af29 a8be b53b 87bc 5b33 e3be b547 12bf

BRD_net.encoder.2.bias f4 [8]
0.00808396 0.25627163 -0.014321805 -0.104078196 -0.08540075 0.41681308 0.1572098 -0.12662151
00000000: 9672 043c 0936 833e 01a6 6abc f326 d5bd
00000010: 97e6 aebd 8668 d53e 9bfb 203e 12a9 01be

BRD_net.decoder.weight f4 [1, 8]
0.1648223 -0.4903382 -0.5505657 0.08388265 -0.59467703 0.8458746 -0.21085653 -0.56775284
00000000: 2dc7 283e 9c0d fbbe e0f1 0cbf abca ab3d
00000010: c13c 18bf 3d8b 583f c6ea 57be 4058 11bf
