example/Embryogenesis/Output/ckpt_itr3000.pth (torch, 8074 bytes, 15 tensors)

GRN_net.encoder.0.weight f4 [10, 6]
0	0xbdfd5b40	-0.1237092
1	0xbe55e2c1	-0.20887281
2	0x3d106b8e	0.035258822
3	0x3dee8269	0.116459675
4	0x3ea3ad4f	0.3196816
5	0x3e2b9b54	0.16758472
6	0x3e8e120c	0.27748144
7	0x3e845fd3	0.25854358
8	0x3e588bab	0.21147029
9	0x3d2ace9e	0.04170095
10	0xbd53dcf8	-0.051724404
11	0x3ef3f5ab	0.47648367
12	0x3e0845d2	0.13307884
13	0x3ef8493c	0.48493373
14	0x3f230e0d	0.63693315
15	0xbe3c20b9	-0.18371858
16	0x3f115dcd	0.56783754
17	0xbd705925	-0.058678765
18	0x3efc2861	0.49249557
19	0x3f33beda	0.7021309
20	0xbeecf60a	-0.46281463
21	0x3d7a984d	0.0611804
22	0xbee658ba	-0.44989568
23	0xbee0839d	-0.43850413
24	0xbe5e9e2a	-0.21740022
25	0xbe7decdd	-0.24797387
26	0xbe2de6d0	-0.16982579
27	0xbf157bfe	-0.5839232
28	0xbeacf0b9	-0.33777407
29	0xbcfcaf33	-0.03084526
30	0xbd979a3f	-0.07402467
31	0x3e9441f1	0.2895656
32	0x3ebc5956	0.36786908
33	0x3e99d5c3	0.300459
34	0x3ef75d7e	0.48313516
35	0xbf0b1344	-0.5432627
36	0x3f0bf84b	0.5467574
37	0xbf41533f	-0.7551765
38	0xbdb984c5	-0.09058527
39	0x3e839e72	0.25706822
40	0x3e9eb4fb	0.30997452
41	0xbecd0fd2	-0.40051132
42	0xbe8e5699	-0.27800444
43	0xbeff7d22	-0.49900156
44	0xbe8bbfcf	-0.27294776
45	0xbe17ca62	-0.14823297
46	0x3f638d7f	0.8888778
47	0xbdfb98dc	-0.12285015
48	0xbd7e49cf	-0.062082108
49	0xbef9ffcc	-0.4882797
50	0x3f537bbd	0.82610685
51	0xbe896c9f	-0.26840684
52	0xbf21e84a	-0.6324507
53	0x3ee59c76	0.44845933
54	0xbde5e472	-0.11225213
55	0x3f2a6cc8	0.66572237
56	0xbf1977b3	-0.5994827
57	0xbef7fc19	-0.48434523
58	0xbea945e1	-0.33061126
59	0x3e96755a	0.29386407

GRN_net.encoder.0.bias f4 [10]
0	0xbea1aaf4	-0.3157574
1	0x3ea9f17f	0.3319206
2	0x3eac4714	0.33647978
3	0x3e920cd4	0.28525412
4	0xbe93c626	-0.28862113
5	0xbe29243d	-0.1651773
6	0xbccbe603	-0.024889952
7	0x3dbd51d7	0.09244125
8	0xbe926ecf	-0.28600165
9	0xbe931268	-0.2872498

GRN_net.encoder.2.weight f4 [10, 10]
0	0xbdcfafe8	-0.10140973
1	0xbed40679	-0.41411188
2	0x3e558ece	0.20855257
3	0xbc954c9e	-0.01822501
4	0x3e322eb0	0.17400622
5	0xbe907c02	-0.2821961
6	0xbefd31b7	-0.49451992
7	0x3e9408e1	0.28913024
8	0xbec2f516	-0.3807761
9	0x3ed3ff20	0.41405582
10	0x3edfabe8	0.43685842
11	0xbee5dd75	-0.4489552
12	0xbf06cf3f	-0.5265998
13	0x3dac1005	0.08401493
14	0xbe94b078	-0.29040885
15	0x3d5bfc5b	0.05370746
16	0xbe8a73a6	-0.27041358
17	0xbe44016b	-0.19141166
18	0xbf040ac5	-0.51578933
19	0x3ec3031f	0.3808832
20	0xbed87533	-0.42276916
21	0xbebfee67	-0.37486574
22	0xbd46e4ae	-0.04855793
23	0xbec27c7a	-0.37985593
24	0xbef295f9	-0.47380045
25	0x3eb93fb9	0.3618143
26	0xbe33900c	-0.17535418
27	0x3e769995	0.24082024
28	0x3eb4f23e	0.35341066
29	0xbec5d3f9	-0.38638285
30	0xbef677ca	-0.48138267
31	0xbe1d2506	-0.15346155
32	0x3eb137b8	0.34612823
33	0xba78f78a	-0.00094973354
34	0xbe621770	-0.22079253
35	0x3ebeed0e	0.37290233
36	0x3f0a2879	0.53968006
37	0x3ebdd73e	0.3707828
38	0xbee77a30	-0.4521041
39	0xbde3f112	-0.11129965
40	0xbe925622	-0.2858134
41	0x3ed78f5a	0.42101556
42	0xbe8ea805	-0.27862564
43	0xbe4af2d5	-0.19819196
44	0x3c211322	0.009831222
45	0xbceac412	-0.028657947
46	0x3ed0adab	0.40757498
47	0x3d64d78e	0.05586963
48	0xbee71529	-0.4513333
49	0x3edd4acf	0.43221137
50	0x3ecc96f2	0.39958912
51	0x3d9aa77e	0.07551478
52	0xbef0df77	-0.4704549
53	0x3e77650c	0.2415964
54	0x3eca7888	0.39545083
55	0x3e3b3ded	0.18285342
56	0xbe45c333	-0.19312744
57	0x3dae4623	0.08509471
58	0xbeb1e6ff	-0.3474655
59	0x3f0c236f	0.5474157
60	0x3f002f87	0.5007252
61	0xbe0a7c29	-0.13523926
62	0xbeed0dae	-0.462995
63	0x3ea7116b	0.32630476
64	0x3eae26f7	0.34014103
65	0x3e8b0ecf	0.27159736
66	0xbeb321d6	-0.34986752
67	0x3e56f5a4	0.20992142
68	0xbe3f9237	-0.1870812
69	0xbefc9d77	-0.49338886
70	0xbe96da48	-0.2946341
71	0x3e5b0b27	0.21390973
72	0x3e8f7762	0.2802077
73	0xbf0ac39c	-0.54204726
74	0x3e8d7432	0.27627712
75	0x3e86e9bf	0.2635021
76	0x3f009368	0.50224924
77	0x3ef4c908	0.47809625
78	0xbe4d2d56	-0.20036826
79	0x3e8f100c	0.2794193
80	0x3f0e2430	0.5552397
81	0x3e33e957	0.17569481
82	0xbeca6367	-0.39528963
83	0xbe1f1f63	-0.15539317
84	0x3efb2f1e	0.49059385
85	0x3eaaeb7c	0.33382785
86	0x3ef7c033	0.48388824
87	0xbdda4d44	-0.106592685
88	0xbc7a1d3e	-0.015265761
89	0xbee2ae1a	-0.44273454
90	0xbe7e6005	-0.24841316
91	0x3eadcba2	0.33944422
92	0xbf04a8e7	-0.51820225
93	0xbe8c901f	-0.27453706
94	0x3dedc232	0.116093054
95	0xbe8cf877	-0.27533314
96	0x3d471980	0.048608303
97	0x3ce977f9	0.02849959
98	0x3e91ac37	0.28451702
99	0xbecb2f50	-0.39684534

GRN_net.encoder.2.bias f4 [10]
0	0xbda70bca	-0.081565455
1	0x3d2b7f73	0.041869592
2	0x3da096c4	0.07841256
3	0x3dcfac07	0.101402335
4	0x3ea797e1	0.32733062
5	0x3e79196c	0.24326104
6	0x3e1e7fce	0.15478441
7	0x3bd0ff2b	0.0063780746
8	0xbe831b24	-0.25606644
9	0x3e851836	0.25995034

GRN_net.encoder.4.weight f4 [10, 10]
0	0x3c9144c4	0.017732985
1	0xbefb8532	-0.49125057
2	0x3e985664	0.2975341
3	0x3f02a20d	0.5102852
4	0xbe1ac451	-0.15113951
5	0x3d7b3f42	0.061339624
6	0xbe8a7260	-0.27040386
7	0xbef1bc22	-0.47213846
8	0xbe9abc52	-0.30221802
9	0xbe530399	-0.20606841
10	0x3e1312f7	0.14362703
11	0x3d1d7b27	0.038447525
12	0x3d2c9e93	0.042143416
13	0xbecbe885	-0.39825836
14	0xbeb96cf3	-0.36215934
15	0xbed4995e	-0.4152326
16	0xbebc1835	-0.36737218
17	0x3eee82a1	0.46584037
18	0x3e552a14	0.20816833
19	0xbf0ce3ea	-0.5503527
20	0xbdd6cb12	-0.10487951
21	0x3d18da62	0.03731764
22	0x3ec3636d	0.38161793
23	0x3f080097	0.531259
24	0xbe28132b	-0.16413562
25	0x3eb83eb9	0.35985354
26	0xbe0f3794	-0.13986045
27	0x3d8a2211	0.06744779
28	0xbe8d3d87	-0.27586004
29	0x3d961f7e	0.073302254
30	0x3ef08d81	0.4698296
31	0x3ec0535d	0.375636
32	0x3eb84cdc	0.3599614
33	0xbe710f0a	-0.23540893
34	0xbd693f6b	-0.056945246
35	0x3e089c28	0.13340819
36	0x3ebe4483	0.37161645
37	0xbf04f2cc	-0.5193298
38	0xbe8309a3	-0.2559329
39	0x3cce1f91	0.025161536
40	0xbe8ffb21	-0.28121284
41	0x3e251d39	0.16124429
42	0xbcd7d2cc	-0.026345633
43	0xbe1b77d6	-0.15182433
44	0x3e381d03	0.17979817
45	0x3ebeb9d3	0.37251148
46	0x3f007741	0.5018197
47	0x3e9e1e82	0.3088265
48	0x3babe88b	0.005246227
49	0x3edb0d52	0.427836
50	0x3ef7995f	0.483592
51	0xbf0aff3c	-0.54295707
52	0x3e8f0973	0.27936897
53	0x3b6e07e1	0.0036320614
54	0xbea8701c	-0.32898033
55	0xbdd1191c	-0.10209867
56	0xbdefeeb6	-0.117154524
57	0xbe7036dc	-0.23458427
58	0xbe32ca24	-0.17459923
59	0x3dd31001	0.10305787
60	0x3e2c7277	0.1684054
61	0x3d59c62d	0.05316751
62	0xbf0ba52f	-0.54548925
63	0x3e9a8495	0.30179277
64	0xbd92aa76	-0.07161419
65	0x3ed71f44	0.4201604
66	0xbf01185d	-0.504278
67	0xbe0589b7	-0.13040815
68	0x3ed6b3cc	0.4193405
69	0x3e78306f	0.24237226
70	0xbe8a51ec	-0.27015626
71	0xbefa56f5	-0.48894468
72	0x3d605ae7	0.05477419
73	0x3e2bef01	0.16790392
74	0xbf1391ea	-0.5764452
75	0xbef03076	-0.46911973
76	0xbc151ce3	-0.009101125
77	0xbde1cf73	-0.11025896
78	0x3ec0e252	0.3767267
79	0xbf07bfa4	-0.53026795
80	0xbe26469f	-0.16237877
81	0xbed22f04	-0.41051495
82	0xbd005698	-0.031332582
83	0xbe61ffec	-0.22070283
84	0x3e272255	0.1632169
85	0xbf08bb4f	-0.5341081
86	0xbedf1bec	-0.4357599
87	0xbeaf5f10	-0.34252214
88	0xbf068106	-0.52540624
89	0x3ef0fd57	0.47068283
90	0xbdf5215b	-0.11969253
91	0xbeb9eac5	-0.36311927
92	0x3e36c015	0.17846711
93	0xbdc31ade	-0.09526609
94	0x3e719ed1	0.2359574
95	0xbe3db0b1	-0.18524434
96	0xbf091c36	-0.5355867
97	0x3e8fb95f	0.28071114
98	0x3ee92db7	0.4554269
99	0xbf128987	-0.572411

GRN_net.encoder.4.bias f4 [10]
0	0xbc2519a5	-0.010076915
1	0x3d14adc5	0.036298532
2	0x3e90ea62	0.2830382
3	0x3db36daf	0.08761155
4	0xbe307502	-0.17232135
5	0xbe3f740e	-0.18696615
6	0xbe851fb6	-0.26000756
7	0x3e85b8d8	0.26117587
8	0x3d22132a	0.039569058
9	0x3db712d0	0.08939135

GRN_net.encoder.6.weight f4 [10, 10]
0	0x3d99650d	0.07489977
1	0x3d314753	0.04328091
2	0x3c9f2d0b	0.019430658
3	0xbd3b0265	-0.04565658
4	0xbe13a0ba	-0.14416781
5	0xbecfbef6	-0.4057538
6	0x3e0a8508	0.1352731
7	0xbeecabf9	-0.46224955
8	0xbeea3546	-0.4574377
9	0xbe31b096	-0.17352518
10	0xbeb70f28	-0.3575375
11	0x3decedb6	0.11568777
12	0x3ebc607c	0.36792362
13	0x3edfe8bc	0.4373225
14	0xbe91b0de	-0.2845525
15	0x3ea8bf55	0.32958475
16	0x3ece5207	0.40296957
17	0xbce49b4f	-0.027906088
18	0x3e7fdc72	0.24986437
19	0x3e8edd30	0.27903128
20	0x3efe2443	0.4963704
21	0x3e3d984c	0.18515128
22	0x3e95f659	0.2928951
23	0xbdd72cf2	-0.105066195
24	0xbe8347eb	-0.25640807
25	0xbe605be5	-0.21910055
26	0x3ec24b07	0.37947866
27	0xbd780065	-0.06054725
28	0x3e06e742	0.13174155
29	0xbf1abfa1	-0.6044865
30	0x3d47842d	0.048710037
31	0xbe74919c	-0.2388367
32	0xbe748d4b	-0.23882024
33	0x3ee1e112	0.44117028
34	0xbee9d295	-0.45668474
35	0xbe508eef	-0.20367025
36	0xbd4b432b	-0.049624603
37	0xbef9df02	-0.48802954
38	0x3e973d3a	0.295389
39	0xbe85cbf0	-0.26132154
40	0x3e89df8f	0.26928374
41	0x3ee7b747	0.45257017
42	0x3eb88b18	0.3604362
43	0xbe10b392	-0.14131
44	0x3ea12b8e	0.31478542
45	0x3f1278af	0.572154
46	0x3e252550	0.16127515
47	0xbdae14c4	-0.085000545
48	0xbe4f9340	-0.20271015
49	0x3e1c95b5	0.15291484
50	0x3de25550	0.11051428
51	0xbed0fbc8	-0.40817094
52	0x3eaee9dc	0.34162796
53	0x3dc4c756	0.09608333
54	0xbefdac63	-0.49545583
55	0x3e5cf348	0.2157718
56	0x3eabb2d2	0.33534867
57	0x3e23afc0	0.15985012
58	0x3ed5ac3e	0.41732973
59	0x3e19ff38	0.15038764
60	0xbee08698	-0.43852687
61	0xbd7ac8c3	-0.061226618
62	0x3ecd9751	0.40154508
63	0xbe5ab6e3	-0.21358828
64	0x3e206510	0.15663552
65	0x3e326827	0.17422543
66	0xbdd2a81a	-0.10285969
67	0xbc0ab3d6	-0.008465728
68	0x3e626d82	0.22112086
69	0xbecd14ee	-0.4005503
70	0x3eab4031	0.33447412
71	0x3eabce87	0.33556005
72	0x3e025db1	0.12731053
73	0x3ef5b08b	0.47986254
74	0x3d063cd6	0.03277286
75	0xbf08d2d5	-0.53446704
76	0x3d661cb9	0.056179736
77	0xbe0bfb26	-0.13670024
78	0x3e30ea5d	0.17276902
79	0x3ee6f8fa	0.4511183
80	0xbe774708	-0.2414819
81	0x3ddb973f	0.10722207
82	0x3f1438ec	0.57899356
83	0xbed85c4c	-0.42257917
84	0xbdb73274	-0.0894517
85	0x3ec204b9	0.37894228
86	0x3f0828c1	0.53187186
87	0x3e6bab73	0.23014621
88	0xbe96095a	-0.2930401
89	0x3d383127	0.04496875
90	0xbeff8187	-0.4990351
91	0xbe8e8471	-0.2783542
92	0xbf0dcb4b	-0.55388325
93	0x3f062960	0.52406883
94	0x3ebb926a	0.36635143
95	0x3e87b985	0.26508728
96	0xbe479e4b	-0.19493978
97	0x3f012d78	0.50460005
98	0xbe222190	-0.15833116
99	0x3ec8ce8a	0.39220077

GRN_net.encoder.6.bias f4 [10]
0	0x3b9994de	0.004686936
1	0x3e5dca3a	0.21659175
2	0x3dddb739	0.108259626
3	0xbdacbab4	-0.08434048
4	0x3e81b285	0.25331512
5	0x3c61da13	0.013784903
6	0x3e697709	0.22799315
7	0x3db7c78f	0.0897361
8	0x3e61d369	0.22053303
9	0x3e4e5610	0.20150018

GRN_net.decoder.0.weight f4 [6, 10]
0	0x3c0263d5	0.007958372
1	0xbebfaf68	-0.37438512
2	0xbe45caf8	-0.19315708
3	0xbe77c29c	-0.24195331
4	0xbf1510c8	-0.5822873
5	0x3dd3c4f3	0.103402995
6	0xbe2c7504	-0.16841513
7	0x3e58b9b5	0.21164592
8	0x3ee3124a	0.4434989
9	0xbd92c394	-0.0716621
10	0x3e78421b	0.24243967
11	0x3e4f4697	0.20241772
12	0x3e576d91	0.2103789
13	0xbe88cb3f	-0.26717564
14	0xbe45224b	-0.19251363
15	0x3e56c1fb	0.20972435
16	0x3f07d4f8	0.5305934
17	0xbf1bc702	-0.60850537
18	0xbed6e8ea	-0.41974574
19	0x3de58b40	0.112082005
20	0x3f07ec27	0.53094715
21	0x3e81d6bd	0.25359145
22	0xbf22f790	-0.63659
23	0xbefaed8c	-0.4900936
24	0x3f1a3915	0.6024335
25	0xbce2daf1	-0.02769229
26	0xbf14a38b	-0.58062047
27	0xbe7b0d67	-0.24516831
28	0x3e830f72	0.2559772
29	0xbdf59862	-0.11991955
30	0xbee62e6f	-0.449573
31	0xbeb0222d	-0.34401074
32	0xbea26188	-0.31715035
33	0x3d15cbfc	0.036571488
34	0x3e4a490c	0.19754428
35	0x3e5854d3	0.21126108
36	0xbe962f61	-0.29333022
37	0xbe62126e	-0.22077343
38	0xbefc2165	-0.49244228
39	0x3eecfeeb	0.46288237
40	0x3f43b9ec	0.7645557
41	0x3f186c72	0.59540474
42	0x3e638eb5	0.22222407
43	0xbd6fc90d	-0.058541346
44	0xbe366458	-0.17811716
45	0x3ea40882	0.3203774
46	0xbedcd314	-0.4312979
47	0xbbe472bb	-0.0069716848
48	0xbef9cb3d	-0.4878787
49	0xbf0ab112	-0.5417644
50	0x3d9b4139	0.075807996
51	0xbd169d5f	-0.036771175
52	0xbeea0bee	-0.45712227
53	0x3e4ef963	0.20212321
54	0x3e34d58a	0.17659584
55	0x3d4c41e4	0.049867526
56	0xbec881d0	-0.3916154
57	0xbef6d3c8	-0.4820845
58	0x3d26b795	0.04070242
59	0xbe53dd0c	-0.20689791

GRN_net.decoder.0.bias f4 [6]
0	0x3e0a8851	0.13528563
1	0xbe9aa72b	-0.30205664
2	0x3e39c8b7	0.18142973
3	0x3dc0eb46	0.09419875
4	0xbd3f3346	-0.046679758
5	0x3dd50df2	0.104030505

BRD_net.encoder.0.weight f4 [8, 7]
0	0xbe51761f	-0.20455216
1	0x3ec7f376	0.39052933
2	0x3e1de210	0.15418267
3	0x3f0c73ca	0.5486418
4	0x3d56409a	0.052307703
5	0xbef8414e	-0.48487324
6	0x3e1be2c5	0.15223224
7	0xbee5e664	-0.44902337
8	0x3f6b328c	0.91874003
9	0xbf0c2306	-0.5474094
10	0x3e88c495	0.2671248
11	0xbf218241	-0.63089377
12	0x3f11f1d1	0.5700961
13	0x3f1529c7	0.5826687
14	0x3ecd4c8d	0.40097466
15	0x3eac816c	0.3369249
16	0x3e537f81	0.20654108
17	0xbed208bb	-0.41022286
18	0xbeb84ad3	-0.35994586
19	0x3ab1442d	0.0013524346
20	0xbf16684d	-0.587529
21	0x3f107e40	0.5644264
22	0xbeaf1db2	-0.34202343
23	0x3ef00e01	0.46885684
24	0x3e21a25e	0.15784594
25	0x3ed52d5e	0.41636175
26	0xbea79dfa	-0.32737714
27	0xbf279173	-0.6545631
28	0x3ecac125	0.39600483
29	0xbe5cc94d	-0.21561165
30	0x3ee414b9	0.4454706
31	0xbf00d9cc	-0.5033233
32	0x3e64d17d	0.22345538
33	0xbf17219d	-0.59035665
34	0xbe67a724	-0.22622353
35	0xbb38c345	-0.0028192562
36	0xbe4f66f5	-0.20254119
37	0xbf3a137e	-0.7268599
38	0xbe8bcb54	-0.27303565
39	0x3e7469f3	0.23868541
40	0x3f3a5e67	0.72800297
41	0xbe899da5	-0.26878086
42	0x3bb93bd4	0.005652884
43	0xbf54a92b	-0.8307063
44	0xbeb7be84	-0.3588754
45	0xbe9f931d	-0.31166926
46	0xbf832ab8	-1.0247412
47	0x3dfef8ff	0.12449836
48	0x3c9740f7	0.018463595
49	0x3f395e3e	0.7240943
50	0xbedc7218	-0.43055797
51	0x3f4fd9f2	0.81191933
52	0x3f380985	0.71889526
53	0x3f5ec926	0.8702568
54	0x3e8661d2	0.26246506
55	0xbec3d08c	-0.38245046

BRD_net.encoder.0.bias f4 [8]
0	0x3eadf7ad	0.33978024
1	0xbe61b598	-0.22041929
2	0xbe904c8d	-0.28183404
3	0xbea7f37d	-0.32802954
4	0x3e6ac261	0.22925712
5	0xbd65d1db	-0.056108337
6	0xbd5066cb	-0.05087928
7	0x3c018325	0.007904802

BRD_net.encoder.2.weight f4 [8, 8]
0	0xbecad3ec	-0.3961481
1	0xbecd303f	-0.4007587
2	0x3e86159b	0.2618836
3	0x3e73d4c2	0.2381163
4	0x3e568aa4	0.20951325
5	0xbece52a6	-0.4029743
6	0xbecdfab8	-0.40230346
7	0x3eee78e5	0.4657661
8	0xbe8f387d	-0.27972785
9	0xbefee3f3	-0.49783286
10	0x3d82319d	0.06357119
11	0xbe13a30e	-0.14417669
12	0xbd8b1cbe	-0.067925915
13	0x3e9bfd0a	0.3046649
14	0x3e786415	0.24256928
15	0xbf10c003	-0.56542987
16	0xbe17cd5d	-0.14824434
17	0xbe5f481b	-0.2180485
18	0x3f10633c	0.5640142
19	0x3ead661c	0.33866966
20	0x3e8fcd87	0.28086492
21	0x3f242722	0.6412221
22	0x3e9c4f29	0.30529144
23	0xbf31b984	-0.694237
24	0x3ee81530	0.45328665
25	0xbe37d73e	-0.17953202
26	0xbe83f97b	-0.25776276
27	0xbea25021	-0.31701759
28	0x3ea075d9	0.3133991
29	0xbe2f1b7a	-0.17100325
30	0xbecf3921	-0.40473273
31	0xbec5ff55	-0.38671365
32	0xbde05387	-0.109534316
33	0x3f0b9bca	0.5453459
34	0x3f12ddc4	0.5736964
35	0x3ef34339	0.47512224
36	0x3df90827	0.12159758
37	0xbdb42fb5	-0.08798162
38	0xbdde0546	-0.108408496
39	0xbedb03f3	-0.4277645
40	0x3e83900f	0.25695845
41	0xbf01a972	-0.5064918
42	0x3e1d19e9	0.15341915
43	0x3ebc0f64	0.36730492
44	0x3f10aeb6	0.5651659
45	0xbf0d664e	-0.5523423
46	0x3f0017d7	0.50036377
47	0xbeafbc9e	-0.3432359
48	0xbea2d604	-0.31803906
49	0x3f2a83f4	0.66607594
50	0x3eef141c	0.4669503
51	0xbe4987e5	-0.19680746
52	0x3e8ff513	0.28116664
53	0xbf04a0e0	-0.51807976
54	0x3f005527	0.5012993
55	0x3ef954e8	0.4869759
56	0xbe88b6ca	-0.26701957
57	0x3e46af26	0.19402751
58	0x3e1b9cc9	0.15196528
59	0xbea85784	-0.3287927
60	0xbeab83af	-0.33498904
61	0xbd56e3b0	-0.052463233
62	0xbeee8bf5	-0.46591154
63	0xbf160d9e	-0.5861453

BRD_net.encoder.2.bias f4 [8]
0	0x3c5ef110	0.0136072785
1	0x3e706677	0.23476587
2	0xbcee2685	-0.029071102
3	0xbe197943	-0.14987664
4	0xbdd9a3fb	-0.1062698
5	0x3edc8785	0.43072143
6	0x3e058d82	0.13042262
7	0xbe22d7d0	-0.15902638

BRD_net.decoder.weight f4 [1, 8]
0	0x3e2ae132	0.16687468
1	0xbed9947b	-0.42496094
2	0xbf056fe8	-0.5212388
3	0xbe204756	-0.15652213
4	0xbf1b6b18	-0.6071029
5	0x3f5c44c9	0.8604246
6	0xbe408eaf	-0.1880443
7	0xbf1547dc	-0.58312774
