example/Embryogenesis/Output/ckpt_itr300.pth (torch, 8054 bytes, 15 tensors)

GRN_net.encoder.0.weight f4 [10, 6]
-0.12470067 -0.30096406 0.08704264 0.17972863 0.36312193 0.16259322 0.23951681 0.34557894
0.22010025 0.04565909 -0.19211559 0.4767979 0.09498647 0.46136293 0.5483798 -0.1843368
0.4873648 -0.046562657 0.47956595 0.6249999 -0.37313527 0.051055085 -0.3635267 -0.34410238
-0.15024394 -0.14383064 -0.17372696 -0.56181014 -0.36375695 -0.037482686 -0.2162286 0.29740715
0.4398622 0.29965872 0.36711645 -0.50279725 0.44881937 -0.6973138 -0.10382948 -0.5331111
0.21902856 -0.32527104 -0.3691771 -0.33710626 -0.293979 -0.2995933 0.6248347 -0.059620705
0.2066172 -0.43182734 0.7026669 -0.22436485 -0.62616694 0.42744705 -0.12903897 0.6148224
-0.46694604 -0.5170402 -0.33142135 0.27838936
00000000: 1163 ffbd f617 9abe 6943 b23d c80a 383e
00000010: 1eeb b93e d67e 263e e543 753e b9ef b03e
00000020: f661 613e 0705 3b3d f3b9 44be db1e f43e
00000030: 4488 c23d c337 ec3e 9e62 0c3f c9c2 3cbe
00000040: e187 f93e 7cb8 3ebd ab89 f53e feff 1f3f
00000050: 960b bfbe 231f 513d 2c20 babe 302e b0be
00000060: 8cd9 19be 5748 13be 7be5 31be cad2 0fbf
00000070: 5a3e babe 7287 19bd 086b 5dbe c045 983e
00000080: 9e35 e13e de6c 993e b0f6 bb3e 52b7 00bf
00000090: a7cb e53e 2883 32bf 8da4 d4bd f879 08bf
000000a0: 0649 603e ed89 a6be c804 bdbe 3199 acbe
000000b0: 6a84 96be 4b64 99be 2bf5 1f3f d734 74bd
000000c0: 7693 533e 7918 ddbe fae1 333f e6bf 65be
000000d0: 7a4c 20bf 57da da3e cb22 04be 0065 1d3f
000000e0: 8d13 efbe bf5c 04bf 0fb0 a9be 0d89 8e3e

GRN_net.encoder.0.bias f4 [10]
-0.27193528 0.27862513 0.25607666 0.3110672 -0.24865939 -0.122451134 -0.062023386 0.015346516
-0.2918568 -0.29509416
00000000: 1a3b 8bbe f4a7 8e3e 7b1c 833e 3344 9f3e
00000010: 91a0 7ebe a9c7 fabd 3c0c 7ebd f46f 7b3c
00000020: 416e 95be 9516 97be

GRN_net.encoder.2.weight f4 [10, 10]
-0.096715026 -0.44691616 0.14148724 0.024238814 0.18855031 -0.27214897 -0.43327275 0.288592
-0.35391137 0.41284293 0.43965578 -0.42129284 -0.2918341 0.089712866 -0.5183069 0.09908346
-0.17665973 -0.18109728 -0.5004401 0.23695527 -0.40662777 -0.4026716 -0.10684904 -0.23791888
-0.49033198 0.3036548 -0.20128042 0.26491913 0.36807865 -0.29916516 -0.26062727 -0.20587824
0.31557393 -0.08363593 -0.19287688 0.35653806 0.4801669 0.45696986 -0.41805306 -0.10324382
-0.14175998 0.4045919 -0.32179928 -0.29802644 0.033363372 -0.09224999 0.27559215 0.066810064
-0.35464072 0.4321093 0.40656558 0.0782032 -0.4946825 0.228144 0.37335622 0.18399578
-0.21545953 0.103389956 -0.3144708 0.50817335 0.5192196 -0.12685472 -0.43732923 0.31647938
0.29911706 0.29129118 -0.38798162 0.22019939 -0.24330331 -0.49451447 -0.36674154 0.23472786
0.21860923 -0.48724902 0.26883438 0.26950747 0.46004686 0.39530063 0.031188 0.29000387
0.47036988 0.23124133 -0.38347173 -0.22816755 0.4852707 0.34055123 0.38990545 -0.10998707
-0.02106849 -0.46256062 -0.26059577 0.3454628 -0.48728007 -0.2047322 0.136947 -0.2970099
0.09009973 0.0054386966 0.22409752 -0.41280657
00000000: 8712 c6bd 32d2 e4be 08e2 103e 7a90 c63c
00000010: 5513 413e 1c57 8bbe edd5 ddbe 55c2 933e
00000020: df33 b5be 2660 d33e 901a e13e b2b3 d7be
00000030: 476b 95be 61bb b73d c3af 04bf 45ec ca3d
00000040: 4ae6 34be 9171 39be d81c 00bf 67a4 723e
00000050: 8431 d0be f92a cebe abd3 dabd 02a1 73be
00000060: cb0c fbbe a478 9b3e 741c 4ebe 7ba3 873e
00000070: ce74 bc3e 2d2c 99be f070 85be bfd1 52be
00000080: e892 a13e 5149 abbd 8481 45be 288c b63e
00000090: 70d8 f53e f4f7 e93e 0d0b d6be 7f71 d3bd
000000a0: 8729 11be ab26 cf3e e0c2 a4be ec96 98be
000000b0: 08a8 083d 90ed bcbd 6a1a 8d3e b7d3 883d
000000c0: 7893 b5be 6e3d dd3e 5d29 d03e 0029 a03d
000000d0: 0647 fdbe 959e 693e 8c28 bf3e 6469 3c3e
000000e0: 6ca1 5cbe 1dbe d33d 5102 a1be a617 023f
000000f0: 93eb 043f 34e6 01be 9ee9 dfbe 9609 a23e
00000100: df25 993e 1e24 953e 87a5 c6be f37b 613e
00000110: 8124 79be 0031 fdbe 8cc5 bbbe 805c 703e
00000120: 19db 5f3e b478 f9be a9a4 893e e2fc 893e
00000130: 438b eb3e d864 ca3e fa7d ff3c 637b 943e
00000140: 52d4 f03e 87ca 6c3e 6856 c4be c1a4 69be
00000150: 6775 f83e bb5c ae3e b0a1 c73e e740 e1bd
00000160: d397 acbc bfd4 ecbe cf6c 85be 80e0 b03e
00000170: c67c f9be 51a5 51be d63b 0c3e ae11 98be
00000180: 3586 b83d 1837 b23b d279 653e 625b d3be

GRN_net.encoder.2.bias f4 [10]
-0.10462957 0.109611824 0.038741108 0.06720951 0.29715505 0.27657753 0.1983462 0.021441815
-0.19305353 0.22275579
00000000: 0748 d6bd 2a7c e03d ffae 1e3d 24a5 893d
00000010: b524 983e 929b 8d3e 441b 4b3e bfa6 af3c
00000020: d3af 45be 181a 643e

GRN_net.encoder.4.weight f4 [10, 10]
0.03571831 -0.5090748 0.3181718 0.48129338 -0.15215687 0.068551734 -0.291175 -0.3961249
-0.2945376 -0.21654017 0.07798387 -0.08616933 -0.008020551 -0.40239602 -0.33819526 -0.49184215
-0.41122192 0.46285334 0.19970591 -0.5309746 -0.073112324 0.06519813 0.27123165 0.5048222
0.14985213 0.3891052 -0.16397458 0.035034426 -0.3084125 0.089584194 0.50315726 0.40808964
0.36627436 -0.20206387 -0.042376224 0.15927126 0.39963204 -0.48352247 -0.23205245 0.010815671
-0.29412258 0.20456842 -0.032136295 -0.12065395 0.23391268 0.39709482 0.51580036 0.2798261
0.0019528032 0.4089263 0.467789 -0.2744279 0.24950844 0.047610406 -0.32212543 -0.10384145
-0.10237526 -0.27363577 -0.17721918 0.1108539 0.39467496 0.050807092 -0.5506864 0.30573913
-0.13862465 0.46929353 -0.50863904 -0.11316711 0.42289433 0.23380488 -0.24453548 -0.46190077
0.037195012 0.19538294 -0.49405748 -0.44047907 -0.0032774834 -0.08904039 0.36211193 -0.5519064
-0.116288394 -0.42230904 -0.10117864 -0.2127248 0.19705752 -0.4719778 -0.46864647 -0.3298742
-0.5133059 0.36424163 -0.07274711 -0.34435028 0.25857392 -0.10722777 0.25447083 -0.13853295
-0.5132882 0.21490243 0.361767 -0.5650297
00000000: 5d4d 123d ba52 02bf 6ae7 a23e 166c f63e
00000010: 03cf 1bbe da64 8c3d e414 95be e2d0 cabe
00000020: a2cd 96be b5bc 5dbe 02b6 9f3d 8c79 b0bd
00000030: a168 03bc da06 cebe ee27 adbe bcd2 fbbe
00000040: ae8b d2be 1dfb ec3e b57f 4c3e f4ed 07bf
00000050: eabb 95bd 9986 853d e0de 8a3e 073c 013f
00000060: d672 193e cc38 c73e f4e8 27be 4280 0f3d
00000070: 3ee8 9dbe eb77 b73d eace 003f 20f1 d03e
00000080: 5088 bb3e d5e9 4ebe b192 2dbd 0118 233e
00000090: 929c cc3e 4290 f7be 289f 6dbe 3634 313c
000000a0: 3c97 96be 627a 513e 59a1 03bd 6b19 f7bd
000000b0: ce86 6f3e 0350 cb3e 7e0b 043f 5e45 8f3e
000000c0: 34f5 ff3a ca5e d13e 0a82 ef3e d081 8cbe
000000d0: 247f 7f3e 2103 433d a0ed a4be d3aa d4bd
000000e0: 1faa d1bd fd19 8cbe f278 35be 5f07 e33d
000000f0: d612 ca3e 191b 503d c9f9 0cbf d789 9c3e
00000100: 9ff3 0dbe 3e47 f03e 2b36 02bf 28c4 e7bd
00000110: 9b85 d83e 8c6a 6f3e 8267 7abe 427e ecbe
00000120: cc59 183d 7712 483e 1af5 fcbe 7986 e1be
00000130: 0ccb 56bb cf5a b6bd bc66 b93e bd49 0dbf
00000140: 9c28 eebd e438 d8be bf36 cfbd 88d4 59be
00000150: 72c9 493e 13a7 f1be 6ef2 efbe 45e5 a8be
00000160: 0468 03bf e17d ba3e 70fc 94bd ae4e b0be
00000170: cd63 843e 3c9a dbbd 004a 823e 95db 0dbe
00000180: db66 03bf 620f 5c3e 8639 b93e c9a5 10bf

GRN_net.encoder.4.bias f4 [10]
-0.034510095 0.10130679 0.24746615 0.054003645 -0.12638822 -0.1664823 -0.27313873 0.24983221
-0.026379017 0.044778287
00000000: 755a 0dbd ef79 cf3d c467 7d3e ed32 5d3d
00000010: ea6b 01be 567a 2abe d7d8 8bbe 04d4 7f3e
00000020: cf18 d8bc 7069 373d

GRN_net.encoder.6.weight f4 [10, 10]
0.030021653 0.08795146 0.021867005 -0.012351921 -0.15671906 -0.4050436 0.089555696 -0.37115863
-0.44585708 -0.18754059 -0.39983532 0.15482949 0.3561017 0.40209806 -0.3120501 0.2935899
0.38918588 0.007021012 0.24556354 0.2904596 0.4813014 0.23415734 0.268045 -0.17840175
-0.34068316 -0.21890953 0.4184591 -0.09916209 0.07694423 -0.5452725 0.010499447 -0.14972298
-0.27028474 0.39646474 -0.46190497 -0.19185455 -0.037087522 -0.48528516 0.32266995 -0.18264757
0.23115206 0.39566192 0.42385674 0.073318414 0.34359843 0.5035353 0.14979447 -0.058022674
-0.19082765 0.11759899 0.10447809 -0.44528657 0.36694032 0.15155813 -0.4609394 0.20866515
0.37096587 0.12682876 0.38295576 0.058278903 -0.43134737 -0.021017259 0.37424582 -0.26510397
0.17042828 0.150493 -0.041327506 -0.008112412 0.18460478 -0.35419694 0.33694348 0.38363257
0.3372893 0.48536977 0.012259261 -0.48544994 0.0817744 -0.16955858 0.18652292 0.48991936
-0.2859884 0.08481557 0.54657525 -0.40891612 -0.07261012 0.4855354 0.3828531 0.17037475
-0.26555187 0.01592625 -0.46390742 -0.46694618 -0.5131767 0.51542854 0.3963435 0.23993063
-0.12523241 0.4809038 -0.18590085 0.4062039
00000000: f8ef f53c e51f b43d 6f22 b33c b65f 4abc
00000010: f67a 20be e061 cfbe fa68 b73d 8108 bebe
00000020: 6147 e4be a40a 40be 37b7 ccbe 9f8b 1e3e
00000030: f652 b63e ccdf cd3e 08c5 9fbe 6a51 963e
00000040: 5f43 c73e 8410 e63b 0275 7b3e 1fb7 943e
00000050: 236d f63e f1c6 6f3e 323d 893e f3ae 36be
00000060: 066e aebe d229 60be 4540 d63e 7e15 cbbd
00000070: f094 9d3d fb96 0bbf df05 2c3c fb50 19be
00000080: c362 8abe 6dfd ca3e cf7e ecbe 8575 44be
00000090: 16e9 17bd 4c77 f8be ff34 a53e f707 3bbe
000000a0: 20b3 6c3e 3394 ca3e c003 d93e f727 963d
000000b0: 22ec af3e b0e7 003f b963 193e 2fa9 6dbd
000000c0: 5368 43be bdd7 f03d 9cf8 d53d 9afc e3be
000000d0: 9adf bb3e 0e32 1b3e 4000 ecbe 51ac 553e
000000e0: 3def bd3e 66df 013e c712 c43e dcb5 6e3d
000000f0: 90d9 dcbe 632c acbc 269d bf3e b5bb 87be
00000100: c084 2e3e d61a 1a3e 0847 29bd ece9 04bc
00000110: 0909 3d3e 4d59 b5be db83 ac3e 7d6b c43e
00000120: 2fb1 ac3e 6382 f83e 11db 483c e58c f8be
00000130: 5679 a73d c4a0 2dbe ddff 3e3e b6d6 fa3e
00000140: 126d 92be c9b3 ad3d 5bec 0b3f 745d d1be
00000150: 9db4 94bd 1998 f83e 5205 c43e b876 2e3e
00000160: 6af6 87be c477 823c 4685 edbe 9213 efbe
00000170: 8c5f 03bf 20f3 033f 89ed ca3e 60b0 753e
00000180: ed3c 00be 0639 f63e cb5c 3ebe f5f9 cf3e

GRN_net.encoder.6.bias f4 [10]
0.03442144 0.2315121 0.07205276 -0.12097861 0.28176272 -0.02534032 0.2028389 0.06873419
0.27220777 0.17104253
00000000: 7ffd 0c3d 8211 6d3e 6690 933d a2c3 f7bd
00000010: 3443 903e 8196 cfbc 00b5 4f3e 83c4 8c3d
00000020: d15e 8b3e c625 2f3e

GRN_net.decoder.0.weight f4 [6, 10]
0.005685079 -0.30565733 -0.2050573 -0.11710598 -0.55528605 0.16036613 -0.19765234 0.21735682
0.35295266 -0.059056725 0.27810624 0.15729065 0.3645794 -0.31523827 -0.115632735 -0.20300019
0.49817237 -0.6364222 -0.38436738 0.07937708 0.53355515 0.31859076 -0.6269479 -0.4359825
0.5880963 0.022046158 -0.53771436 -0.20180394 0.24734132 -0.08895451 -0.4117517 -0.36041647
-0.3292775 0.01980497 0.26597616 0.2414128 -0.32681984 -0.18246314 -0.47168574 0.49014887
0.59861654 0.57966775 0.20680809 -0.104072265 -0.085657604 0.21557951 -0.5034816 -0.00692667
-0.49796057 -0.5667093 0.022607362 -0.108610824 -0.45977953 0.14028688 0.103815034 0.054070048
-0.35231307 -0.54828125 -0.03506547 -0.16505285
00000000: e649 ba3b 1e7f 9cbe 8afa 51be 43d5 efbd
00000010: 3a27 0ebf 0537 243e 6065 4abe c992 5e3e
00000020: 36b6 b43e 77e5 71bd f163 8e3e cd10 213e
00000030: 27aa ba3e e966 a1be dbd0 ecbd 48df 4fbe
00000040: 7310 ff3e 91ec 22bf cdcb c4be 7390 a23d
00000050: 1297 083f 541e a33e a87f 20bf 1939 dfbe
00000060: 7b8d 163f 259a b43c a6a7 09bf b1a5 4ebe
00000070: 0b47 7d3e c82d b6bd 1ed1 d2be 8288 b8be
00000080: 0f97 a8be 083e a23c 072e 883e eb34 773e
00000090: ee54 a7be 9ed7 3abe cb80 f1be cbf4 fa3e
000000a0: ef3e 193f 1b65 143f 80c5 533e d723 d5bd
000000b0: 416d afbd e0c0 5c3e 2ce4 00bf 1ff9 e2bb
000000c0: b0f4 febe dc13 11bf 1333 b93c 5a6f debd
000000d0: 3968 ebbe 5da7 0f3e fa9c d43d 8e78 5d3d
000000e0: 6162 b4be 295c 0cbf cfa0 0fbd 9d03 29be

GRN_net.decoder.0.bias f4 [6]
0.11235469 -0.3049803 0.21695766 0.06357221 -0.040682595 0.13528545
00000000: 371a e63d 6126 9cbe 262a 5e3e 2632 823d
00000010: cba2 26bd 4588 0a3e

BRD_net.encoder.0.weight f4 [8, 7]
-0.14629069 0.26602048 0.21970136 0.5863912 -0.00487261 -0.488814 0.16147704 -0.45581284
0.2707722 -0.55648714 0.23889695 -0.62981427 0.576574 0.5580242 0.3458892 0.5218852
0.05593102 -0.3590331 -0.22382416 -0.140566 -0.5891999 0.60433614 -0.2608151 0.46242595
0.19644926 0.3530281 -0.35276374 -0.5507404 0.46020442 -0.037652608 0.45176616 -0.44097403
0.20231482 -0.59676784 -0.14870875 -0.0349942 -0.21191435 -0.7233539 -0.31271586 0.27519402
0.75000924 -0.3062019 -0.14006187 -0.6232854 -0.42843914 -0.2987249 0.39229885 -0.01819366
0.016540518 0.6769578 -0.22571371 0.7583527 0.6724834 0.8084871 0.19411698 -0.43171448
00000000: 3acd 15be d633 883e 65f9 603e bc1d 163f
00000010: 6aaa 9fbb d445 fabe 3d5a 253e 4d60 e9be
00000020: a7a2 8a3e f175 0ebf 67a1 743e 823b 21bf
00000030: 5b9a 133f adda 0e3f 6418 b13e 459a 053f
00000040: ed17 653d 30d3 b7be 2932 65be 89f0 0fbe
00000050: ced5 16bf c6b5 1a3f 8f89 85be 18c3 ec3e
00000060: ff29 493e 19c0 b43e 739d b4be 53fd 0cbf
00000070: ea9f eb3e 9f39 1abd e54d e73e 59c7 e1be
00000080: 9e2b 4f3e c7c5 18bf 1b47 18be 1456 0fbd
00000090: 1300 59be b92d 39bf 4b1c a0be 3be6 8c3e
000000a0: 9b00 403f 7fc6 9cbe 616c 0fbe a28f 1fbf
000000b0: 605c dbbe 78f2 98be 65db c83e df0a 95bc
000000c0: fb7f 873c 1b4d 2d3f 7f21 67be 6723 423f
000000d0: df27 2c3f 03f9 4e3f 9ac6 463e ae09 ddbe

BRD_net.encoder.0.bias f4 [8]
0.2820849 -0.18740587 -0.24560398 -0.24631192 0.2283359 -0.03360742 -0.12469354 -0.14399712
00000000: 6f6d 903e 53e7 3fbe 9c7f 7bbe 3139 7cbe
00000010: e3d0 693e efa7 09bd 545f ffbd fb73 13be

BRD_net.encoder.2.weight f4 [8, 8]
-0.3768242 -0.40073395 0.26518306 0.39565057 0.24520932 -0.54298097 -0.465796 0.49371532
-0.25071666 -0.5018112 0.020368183 -0.18017627 -0.06599028 0.35910326 0.26986954 -0.5675649
-0.18478651 -0.21132003 0.4686155 0.27933663 0.27060908 0.6493639 0.32974622 -0.7072068
0.45827475 -0.32849115 -0.14589229 -0.07675 0.47175744 -0.4377473 -0.47716865 -0.26160875
-0.09050053 0.54242 0.5466555 0.44341153 0.12568386 -0.06471441 -0.09933785 -0.42890042
0.24337006 -0.49235785 0.028678859 0.39383304 0.56270885 -0.6270921 0.47719732 -0.34247237
-0.2124003 0.648552 0.3959352 -0.2237596 0.2974493 -0.5216614 0.5155372 0.49780896
-0.16965581 0.17763826 0.071425736 -0.38771018 -0.32711497 -0.012637927 -0.45481202 -0.56340843
00000000: 1aef c0be 002d cdbe 13c6 873e b692 ca3e
00000010: 2718 7b3e cd00 0bbf d07c eebe 41c8 fc3e
00000020: ef5d 80be b376 00bf 2ddb a63c 2180 38be
00000030: e925 87bd 62dc b73e 572c 8a3e ef4b 11bf
00000040: ad38 3dbe 4764 58be 5fee ef3e 3605 8f3e
00000050: 468d 8a3e b63c 263f 7fd4 a83e 810b 35bf
00000060: fda2 ea3e fe2f a8be ca64 15be 1b2f 9dbd
00000070: 318a f13e 6a20 e0be 734f f4be 95f1 85be
00000080: 5858 b9bd 0adc 0a3f 9df1 0b3f d606 e33e
00000090: 45b3 003e fd88 84bd a571 cbbd d698 dbbe
000000a0: 0036 793e 5416 fcbe edef ea3c 7ca4 c93e
000000b0: b00d 103f 1c89 20bf 3553 f43e 8a58 afbe
000000c0: 777f 59be 8107 263f 05b8 ca3e 3d21 65be
000000d0: 464b 983e 9a8b 05bf 3ffa 033f d1e0 fe3e
000000e0: 41ba 2dbe cee6 353e a847 923d f381 c6be
000000f0: 9d7b a7be 4f0f 4fbc 1fdd e8be 893b 10bf

BRD_net.encoder.2.bias f4 [8]
-0.012055192 0.26326644 0.0019482805 -0.09754487 -0.07431537 0.4067744 0.17109436 -0.09686324
00000000: 2483 45bc dcca 863e 725d ff3a 9bc5 c7bd
00000010: a832 98bd bc44 d03e 5c33 2f3e 3c60 c6bd

BRD_net.decoder.weight f4 [1, 8]
0.17351969 -0.49648342 -0.5032368 0.051635493 -0.5671958 0.8396968 -0.18327044 -0.56624097
00000000: 25af 313e 1333 febe 20d4 00bf bd7f 533d
00000010: be33 11bf 5ff6 563f 3fab 3bbe 2bf5 10bf
