example/Embryogenesis/Output/ckpt_itr1200.pth (torch, 8074 bytes, 15 tensors)

GRN_net.encoder.0.weight f4 [10, 6]
00000000: 9884 a8bd 53b0 83be a5f7 833d a23e 223e
00000010: 76ff ae3e fa18 213e d5d4 6f3e b71d 993e
00000020: 2921 6a3e 7499 c93b a5c1 3cbe a530 eb3e
00000030: 25e7 b33d f49e 063f fc59 1f3f aa35 33be
00000040: ebac 083f d6a1 36bd f79d 083f 5127 2d3f
00000050: 870d e1be 8dac b63d ff96 d5be f266 b8be
00000060: 3601 15be af88 27be c2a7 16be be20 13bf
00000070: f840 b0be e33a 4cbd 2718 e5bd cca7 a83e
00000080: 3dcb cc3e 5aeb a33e 1e95 f43e 2572 11bf
00000090: d586 f53e 1c24 3abf 5211 c8bd 8fa8 06bf
000000a0: aab7 8e3e 1419 e9be 278d b0be 2e8d c7be
000000b0: 4aaa a7be 7461 afbe e7e3 4a3f 8552 0dbe
000000c0: a6d4 253e de0e e2be 6b44 4d3f 7545 78be
000000d0: 8bce 1dbf 1e38 d93e 6052 e9bd e125 2c3f
000000e0: a735 0dbf e63a ebbe 12a9 b7be 3e03 a43e
-0.08228415 -0.25720462 0.06443719 0.15844205 0.34179276 0.15732184 0.23421033 0.29905483
0.22864212 0.0061523262 -0.18433245 0.4593555 0.08784322 0.52586293 0.6224668 -0.1750094
0.5338885 -0.044587933 0.53366035 0.6763812 -0.43955633 0.0891963 -0.41716763 -0.3601604
-0.14551243 -0.16360734 -0.14712432 -0.57471836 -0.34424567 -0.049860846 -0.11186247 0.3294052
0.39998809 0.32015496 0.47770017 -0.56814796 0.4795443 -0.7271135 -0.097689286 -0.5260095
0.278745 -0.45526946 -0.3448269 -0.389749 -0.32747108 -0.34254038 0.79254 -0.1380101
0.161944 -0.44151968 0.8018252 -0.24245246 -0.61643285 0.42425627 -0.11392665 0.672453
-0.5515999 -0.45943373 -0.35871178 0.32033724

GRN_net.encoder.0.bias f4 [10]
00000000: ab30 8cbe 80fa 863e 7aee 803e 45b4 a43e
00000010: 7798 81be 65d8 06be f17d a3bd aa62 fc3b
00000020: 0931 9fbe ba89 88be
-0.2738088 0.2636299 0.25181943 0.32168785 -0.25311634 -0.13168485 -0.07983006 0.0077021914
-0.31092098 -0.26667577

GRN_net.encoder.2.weight f4 [10, 10]
00000000: 766c d0bd 0073 c8be bf79 233e 24ea b93c
00000010: a26f 1b3e 8f29 9fbe 2d92 f1be e086 833e
00000020: 97c9 afbe 7620 cc3e de25 d93e 68f4 d3be
00000030: 1c72 a4be 0899 d83d d4c3 02bf e751 393d
00000040: 947f 5abe db85 45be ab16 febe 3430 893e
00000050: 42ed cebe bb02 cfbe bb19 b0bd a883 6ebe
00000060: a17d fdbe 5569 aa3e c71c 46be a38c 833e
00000070: 9ced a83e 73ce 9fbe 672e 85be 4e2f 61be
00000080: edce 9d3e 0ce9 acbd 8866 3abe 65bc bc3e
00000090: e533 013f 78f5 f23e 28a7 e2be 0259 98bd
000000a0: 2545 1ebe 5aaf c13e 462b a2be 4d1a 97be
000000b0: 7b7a 223d 3cb1 58bd 7f3b ad3e 04c1 d23d
000000c0: 91de eebe e3a3 ea3e 4af2 be3e 52ae c23d
000000d0: 7de2 07bf c4c7 8d3e 2ef1 bf3e ebfc 213e
000000e0: 1297 71be c96f 6f3d 4168 a4be c7f1 083f
000000f0: e984 003f 3e50 07be e673 e4be 6c9d b53e
00000100: 6231 9f3e 0306 913e 8c52 a7be e305 5d3e
00000110: fab8 6ebe 5a87 03bf d694 b1be 7b15 6b3e
00000120: e08b 653e 21ef ffbe b5d4 8b3e 2e90 913e
00000130: 5b36 ec3e cd6c de3e 4f79 433d 5245 933e
00000140: a4b3 e63e ea8c 7d3e 146a b6be 861f 0bbe
00000150: 82e9 ef3e ad33 b73e c6ff df3e 95db 2cbe
00000160: f366 afbc 089d f1be 9fb3 8abe 48d0 ad3e
00000170: 5fcf 04bf e64b 5abe 9e86 213e a611 a9be
00000180: f999 9d3d 9ead 893c 969b 953e 87cf cbbe
-0.10176937 -0.39150238 0.15964411 0.022694655 0.15179303 -0.31086394 -0.47181836 0.2568884
-0.34333488 0.39868516 0.42411703 -0.41397405 -0.3211831 0.105760634 -0.5108006 0.045244124
-0.2133773 -0.19289343 -0.4962667 0.2679459 -0.40415388 -0.4043177 -0.08598658 -0.2329241
-0.4950991 0.33283487 -0.19346915 0.25693235 0.32993782 -0.31212196 -0.26011965 -0.21990702
0.30821934 -0.08442888 -0.18203175 0.36862484 0.5046981 0.47452903 -0.44268155 -0.07438852
-0.15456064 0.37829095 -0.3167364 -0.29512253 0.039667588 -0.0529034 0.33834454 0.10290721
-0.4665418 0.4582816 0.37294227 0.09505905 -0.5307997 0.27691472 0.37488693 0.15819137
-0.23592785 0.058456216 -0.3211079 0.5349392 0.50202805 -0.13214204 -0.44619673 0.35471666
0.31092364 0.283249 -0.32680166 0.21584277 -0.2331275 -0.51378405 -0.34683865 0.22957413
0.2241664 -0.49987128 0.2731072 0.28430313 0.4613522 0.43442383 0.04772311 0.28763825
0.4505893 0.24760786 -0.35627806 -0.13586244 0.4685784 0.35781613 0.43749827 -0.16880639
-0.021411395 -0.47190118 -0.27090165 0.33947968 -0.51878923 -0.21318015 0.15774009 -0.33021277
0.076953836 0.01680642 0.29220265 -0.39806768

GRN_net.encoder.2.bias f4 [10]
00000000: d818 7cbd d564 d53d 5acd 2d3d 7f2e 6a3d
00000010: ad49 983e d105 8a3e 3e83 483e ea5b 333c
00000020: dc10 62be 626e 603e
-0.06154713 0.10419623 0.042432167 0.05717325 0.2974371 0.26957563 0.19581315 0.010947207
-0.22076744 0.21917108

GRN_net.encoder.4.weight f4 [10, 10]
00000000: 2b9b 173d 7bbd ffbe ff44 9c3e 727c 003f
00000010: 0619 05be 6bae 963d ff3c 97be 1ce5 cbbe
00000020: f754 99be 888e 62be 6ebd a33d 0e2f b1bd
00000030: aabf 9f3c 938d d5be 0861 bcbe b7c4 fabe
00000040: 87dd d1be 397b e43e 9a04 3b3e 18f6 04bf
00000050: 6f2c 8abd f1a4 b13d 4e79 ad3e 65f1 023f
00000060: 1580 e03d 8cbf ca3e 003c 10be 9c52 433d
00000070: 95f0 9cbe 04b4 b13d 96ab f83e 0e22 c83e
00000080: 7f02 b33e 0035 50be c387 cbbc 4d49 163e
00000090: 69bf c93e afe9 fcbe fb9d 6dbe af8c dc3c
000000a0: 1c49 98be a7d2 453e 818c e1bc 137e 06be
000000b0: 204c 493e d954 c83e fb32 053f 11d4 893e
000000c0: 2740 663c 7bd1 d23e 7864 ee3e a1ee 93be
000000d0: bff6 813e 3294 433c d169 b5be 2b93 e5bd
000000e0: c797 d2bd 391c 95be e52c 35be 88ed f03d
000000f0: a9e6 c63e af62 2a3d 6213 0cbf 2de3 903e
00000100: e410 0bbe 7d55 ee3e ac82 04bf 4ac2 0bbe
00000110: c45b cf3e c666 823e 11a8 81be 614c f0be
00000120: 5012 893d 6b87 493e 8602 11bf ee22 e8be
00000130: 3a0b 0f3c 2dfc c3bd f43e c73e 0015 0dbf
00000140: 4f42 0ebe 4a3f e6be eb5f 57bd e7d7 f9bd
00000150: 054f 5b3e 0837 03bf 0fad ebbe 7092 9ebe
00000160: fac9 fcbe 6935 e33e a137 aebd 76a1 aebe
00000170: 74dc 7d3e 554e 99bd 9366 843e 89ad 1cbe
00000180: b265 04bf 0400 773e 00e2 c03e 225c 1abf
0.037013214 -0.4994925 0.3052139 0.5018989 -0.12997827 0.07357486 -0.29538724 -0.39823234
-0.29947636 -0.22124684 0.07995115 -0.08651553 0.019500572 -0.41709575 -0.3679278 -0.48978207
-0.40989324 0.4462526 0.18263474 -0.5193801 -0.06746756 0.08674038 0.3388161 0.5114959
0.1096193 0.39599264 -0.14085388 0.047686204 -0.306523 0.086769134 0.4856841 0.39088482
0.34962842 -0.20332718 -0.02484501 0.146764 0.39403847 -0.49397036 -0.23204796 0.026922552
-0.29743278 0.19318639 -0.027532818 -0.13134031 0.19657946 0.39127234 0.52030915 0.26919606
0.014053381 0.41175446 0.46561027 -0.28892997 0.25383565 0.011937188 -0.35432294 -0.11209711
-0.102828555 -0.29123095 -0.17692907 0.117640555 0.38847855 0.04159802 -0.54717076 0.2829832
-0.13580662 0.46549597 -0.5176189 -0.13648334 0.404997 0.25469035 -0.25323537 -0.46933272
0.06692946 0.19680564 -0.56644475 -0.4533915 0.008730704 -0.09569583 0.38915217 -0.5511017
-0.13892482 -0.4497016 -0.05258171 -0.12199383 0.21416862 -0.51255846 -0.4603047 -0.30971098
-0.49372846 0.44376686 -0.08506704 -0.3410756 0.24791127 -0.07485644 0.25859508 -0.15300573
-0.51717675 0.241211 0.37672424 -0.60296834

GRN_net.encoder.4.bias f4 [10]
00000000: 043b fbbc 4190 d63d e3e4 7d3e b6c8 953d
00000010: 6f23 08be 58ce 2dbe dd7b 86be 8632 793e
00000020: 9ea8 7a3c 934e 433d
-0.03066779 0.10476733 0.24794345 0.07313673 -0.13294767 -0.16973245 -0.26266375 0.2433568
0.0152989905 0.047682356

GRN_net.encoder.6.weight f4 [10, 10]
00000000: a40a 0f3d f5e3 e13d 88e4 90b8 ef5a 68bc
00000010: 3393 38be 020f c7be 4494 c53d 338a cdbe
00000020: 5bda debe b736 43be 8f0f cabe b7f3 263e
00000030: c4c7 b03e 28c2 cc3e 8ebf a6be e9cc 9d3e
00000040: d3de bf3e d18a fbbb 1c47 8b3e 5a63 833e
00000050: 4330 fd3e 5002 573e 8910 8d3e d300 1fbe
00000060: 4466 a3be 2c4b 58be c3e1 cd3e 583f 8fbd
00000070: ec4a d43d 5912 12bf acf3 fdbc 0da3 82be
00000080: 3ca4 6dbe 69a8 d73e 719e c9be 4697 57be
00000090: e408 b5bc d14c 07bf cc65 963e d3ea 68be
000000a0: 0b78 503e fd1d d73e e862 bc3e d3db 9a3d
000000b0: bc5d b13e 4949 0b3f c7b2 1d3e 64bc 9fbd
000000c0: 34a8 37be aa6f df3d 0fce cf3d ff99 e5be
000000d0: 8ce8 c03e 9282 103e 1e5a efbe d191 363e
000000e0: a2a3 c13e 3937 ea3d 3a56 c13e b95f d43d
000000f0: 1491 dcbe ec9a 4fbd cf58 bd3e ad00 7fbe
00000100: 6825 423e 7843 343e 886b 3fbd 7917 103c
00000110: 2051 3e3e 582f c7be 8d53 a73e 7ac3 9f3e
00000120: ff62 c43e 0a6b fd3e 89c3 4e3d 91fe 05bf
00000130: 3cc6 8a3d d9a2 1dbe 8946 213e e938 ea3e
00000140: 0834 91be eedc b53d 5981 1b3f 6e49 cabe
00000150: 5a41 56bd 4db0 ea3e 2604 ba3e 67d7 493e
00000160: f03d a7be 83eb cd3c b12d eabe 56e0 eebe
00000170: a546 07bf 1a16 013f 9fe7 ca3e 70ab 723e
00000180: 916f 0abe c451 063f 2fa8 36be c4df cd3e
0.034922257 0.110298075 -6.909022e-05 -0.0141818365 -0.18024902 -0.38878638 0.0964742 -0.401445
-0.43525967 -0.19063841 -0.39464995 0.16303907 0.3452741 0.3999188 -0.3256802 0.30820397
0.3747469 -0.0076764603 0.2720269 0.25661737 0.49450883 0.20996976 0.27551678 -0.15527658
-0.3191396 -0.21122426 0.40211305 -0.06994504 0.10365853 -0.57059246 -0.03099998 -0.25515023
-0.23207182 0.42120674 -0.39378694 -0.210538 -0.022098966 -0.5285159 0.2937454 -0.22745828
0.20358293 0.42015067 0.3679421 0.075614594 0.34641826 0.544087 0.1540023 -0.077996045
-0.17935258 0.1090997 0.101467244 -0.44844052 0.3767742 0.14112309 -0.4674844 0.17829062
0.37820154 0.11436314 0.37761098 0.1036982 -0.43079436 -0.050684854 0.36981818 -0.24902602
0.18959582 0.17603862 -0.04673341 0.008794659 0.18585634 -0.38903308 0.32680932 0.31203824
0.38356778 0.49495727 0.050479446 -0.5234156 0.067760915 -0.15394153 0.15749563 0.45746544
-0.2836001 0.088800296 0.60744244 -0.39509147 -0.052308418 0.45837632 0.3633129 0.19711076
-0.32664442 0.025136715 -0.45737985 -0.4665553 -0.5284217 0.5042435 0.39629838 0.2369821
-0.13519122 0.52468514 -0.17837594 0.40209782

GRN_net.encoder.6.bias f4 [10]
00000000: cad1 0e3d 686f 803e b304 b13d 9346 05be
00000010: 7738 8d3e 2b98 bfbc e74a 4d3e 156b 9b3d
00000020: fe0b 843e be8e 333e
0.03486804 0.25084996 0.086434744 -0.13015203 0.27582142 -0.023387989 0.20048104 0.07588784
0.257904 0.1753492

GRN_net.decoder.0.weight f4 [6, 10]
00000000: 639c ba3c f8f9 afbe 6f1b 39be 70eb 62be
00000010: 3b4b 08bf c691 273e 0615 53be 8285 803e
00000020: f570 d43e d919 a6bd 5c73 6d3e 96cf 513e
00000030: 8177 c33e 6d23 91be 1cce 5fbe 0e34 34be
00000040: bcf4 fd3e 89a6 2dbf 8181 d2be e79b 883d
00000050: 7d04 073f 1af1 a13e af97 1fbf e3cb dabe
00000060: 94a9 0b3f 18f2 883b e6de 0ebf 5614 71be
00000070: 6a6a 6b3e 0831 cbbd 5631 e2be 846d babe
00000080: 5ea6 99be ed45 963c cbb0 453e df30 883e
00000090: 3d23 a1be 51b0 46be bb1d f1be c701 ec3e
000000a0: 7a6d 1a3f 84ac 1c3f 5bd8 6a3e 4b1e 73bd
000000b0: f271 eebd 8701 6e3e 942b ffbe 0b9f ad3c
000000c0: 75f7 fcbe 7c03 15bf 5556 683d 7035 8dbc
000000d0: 1e65 eabe 610e 4e3e 7b26 333e 496d 403d
000000e0: 0dfb bebe fdd1 00bf d579 dfbc ab8d 47be
0.02277965 -0.343704 -0.18076871 -0.22160125 -0.5323979 0.16364202 -0.20613489 0.25101858
0.4149243 -0.08110399 0.23188537 0.20489344 0.38177112 -0.2834734 -0.21855968 -0.17597982
0.4960078 -0.6783224 -0.4111443 0.06670361 0.52741224 0.31629258 -0.62340826 -0.42733678
0.5455563 0.0041792504 -0.55808866 -0.23542914 0.22989812 -0.09921461 -0.44178265 -0.3641168
-0.3000974 0.01834389 0.19305722 0.26599786 -0.31472197 -0.19403197 -0.47092995 0.46095106
0.603233 0.6120074 0.22934096 -0.05935506 -0.11642827 0.2324277 -0.49837935 0.021194002
-0.49407545 -0.5820844 0.056722958 -0.017237395 -0.4578027 0.20122673 0.17495148 0.046979222
-0.37300912 -0.50320417 -0.027279774 -0.19487636

GRN_net.decoder.0.bias f4 [6]
00000000: 933a e93d 43d4 9abe 63d0 563e 80cf 973d
00000010: b2da 07bd 2a55 f03d
0.11388125 -0.30240068 0.2097793 0.07412624 -0.03316755 0.11734994

BRD_net.encoder.0.weight f4 [8, 7]
00000000: 5f04 47be cb81 e43e ddc4 f53d d9e0 133f
00000010: c148 843c bedf f7be c894 313e 849e e5be
00000020: 2604 663e 3403 0fbf c3df 763e 4cbb 1abf
00000030: 42aa 113f ecab 0e3f 8e17 c93e c72b 803e
00000040: 2f82 6b3e 25e8 dcbe 4cfa 94be 9719 8ebc
00000050: c458 1bbf e00b 123f 157c 9abe cec1 f23e
00000060: bf82 283e c2b2 9e3e 4ecd abbe a495 19bf
00000070: d6d5 d43e 9c85 0cbd c0cd e63e 3a09 f9be
00000080: 4d31 203e 6c3c 17bf 04e3 49be 4a34 25bc
00000090: 0cd2 88be 1b6f 2ebf 6487 97be 1f73 8b3e
000000a0: fd62 403f 3d28 94be 0f12 c2bc 9a87 57bf
000000b0: 00cb b8be 4d7a 9dbe 68c0 893e 8417 9d3d
000000c0: 2d76 adbb 7445 363f bca1 a9be 6395 4c3f
000000d0: 8c60 423f 1b65 5b3f a0b4 733e 87da bebe
-0.19435261 0.44630274 0.12000439 0.57764965 0.016147973 -0.4841289 0.17341912 -0.448475
0.2246252 -0.5586426 0.24108796 -0.6044204 0.5690042 0.5573108 0.39275783 0.250334
0.2299888 -0.43145862 -0.2909721 -0.017346187 -0.6068232 0.5704937 -0.30172792 0.47413486
0.16456126 0.30995756 -0.33555073 -0.5999396 0.41569394 -0.034307107 0.4507885 -0.48639852
0.15643807 -0.5907657 -0.19715506 -0.010083267 -0.26722753 -0.68138283 -0.29595482 0.27236268
0.75151044 -0.2893695 -0.023690252 -0.84191287 -0.36092377 -0.3075737 0.26904607 0.07670501
-0.0052936287 0.7119973 -0.33131206 0.79915446 0.7592857 0.8570115 0.23799372 -0.37276098

BRD_net.encoder.0.bias f4 [8]
00000000: 6181 b03e 1312 68be 3f4f 91be e9c8 73be
00000010: 0148 763e fa3f 67bd ee37 bcbd 63b9 bbbb
0.34473708 -0.22663145 -0.28380772 -0.2380711 0.24050905 -0.056457497 -0.09190355 -0.005728887

BRD_net.encoder.2.weight f4 [8, 8]
00000000: 369c b7be 71ea babe d606 5e3e 4f8e 413e
00000010: 8a84 483e 4ffe dcbe 2dab dfbe 8463 eb3e
00000020: 7f3d b7be 5159 01bf 27c6 953d 2b54 0ebe
00000030: 9954 87bd a414 a83e 26a2 8b3e b3b9 0fbf
00000040: 8c8a c4be 761f 5fbe fce9 0e3f 37ec aa3e
00000050: 7190 8d3e d5bd 293f 52aa ac3e 6c87 31bf
00000060: f3f2 f43e b638 63be 642c 57be 201f 8dbe
00000070: cc95 b43e 8dd7 4bbe e674 debe 0404 b0be
00000080: d554 7fbe 1874 093f 21d4 163f 2d73 f73e
00000090: 25ea 013e 84d9 86bd aa92 a4bd 2559 d8be
000000a0: 6bef 983e e0ea f6be b3b8 c63b d127 b13e
000000b0: 4634 0f3f c953 15bf cc77 f03e 7143 b3be
000000c0: a0a0 babe 8928 293f ccee f13e af87 46be
000000d0: 3343 8f3e c48e fdbe 12d5 073f 034b f93e
000000e0: acb1 a1be fe9f 353e 3172 533e 4ad4 a0be
000000f0: 3abf a8be 65c5 c1bc 821f debe cab2 14bf
-0.35861367 -0.3650699 0.21682295 0.18901943 0.1958181 -0.43162772 -0.43685284 0.45974362
-0.35789105 -0.5052691 0.07313185 -0.13899295 -0.066079326 0.32828248 0.27272147 -0.5614273
-0.38386953 -0.21789345 0.5582578 0.33383343 0.27649263 0.66305286 0.33723694 -0.6934726
0.47841606 -0.22189602 -0.21013027 -0.2756281 0.35270536 -0.19906445 -0.4344856 -0.34378064
-0.24934705 0.5369277 0.58917433 0.4833006 0.12686975 -0.065844566 -0.080357864 -0.42255512
0.2987016 -0.4822607 0.0060644983 0.3460069 0.5593914 -0.5833097 0.46966398 -0.3501239
-0.36450672 0.66077477 0.472525 -0.19387697 0.27980956 -0.49522984 0.53059494 0.48690042
-0.31580865 0.17736813 0.2064903 -0.31411964 -0.32958394 -0.023653695 -0.43383414 -0.5808531

BRD_net.encoder.2.bias f4 [8]
00000000: beff 333c e511 753e a160 d4bc 5706 d8bd
00000010: 0d50 cebd 4730 da3e cf70 053e 1fab 1ebe
0.010986267 0.23932607 -0.025924983 -0.10548084 -0.10073862 0.42614958 0.13031314 -0.15494965

BRD_net.decoder.weight f4 [1, 8]
00000000: 0396 253e ec2e efbe cb44 10bf 74c0 bd3d
00000010: 705a 1dbf 7ea5 5a3f 940a 65be 4c37 13bf
0.16170506 -0.46715486 -0.5635497 0.09265223 -0.6146612 0.8540877 -0.22367316 -0.5750625
