example/Embryogenesis/Output/ckpt_itr1100.pth (torch, 8074 bytes, 15 tensors)

GRN_net.encoder.0.weight f4 [10, 6]
0	0xbda70c54	-0.08156648
1	0xbe855295	-0.26039568
2	0x3d840570	0.064463496
3	0x3e21a441	0.15785314
4	0x3eb055a8	0.3444035
5	0x3e210ba8	0.15727103
6	0x3e6fc552	0.23415115
7	0x3e98bd83	0.29832086
8	0x3e69f8e9	0.22848858
9	0x3c20a66c	0.009805303
10	0xbe3a353f	-0.18184374
11	0x3eecd055	0.46252695
12	0x3db4a00f	0.08819591
13	0x3f070c42	0.5275308
14	0x3f1f0534	0.62117314
15	0xbe2eed6b	-0.17082755
16	0x3f07bd68	0.53023386
17	0xbd38d28e	-0.045122676
18	0x3f082a1b	0.5318925
19	0x3f2ccb6f	0.67497915
20	0xbee01ae3	-0.43770513
21	0x3dab146b	0.08353504
22	0xbed3bcb1	-0.41354898
23	0xbeb484f2	-0.3525768
24	0xbe154f53	-0.14581041
25	0xbe27db56	-0.16392264
26	0xbe1913de	-0.14948985
27	0xbf126f4f	-0.57201093
28	0xbeafe951	-0.34357694
29	0xbd46097e	-0.048348896
30	0xbde965f4	-0.11396399
31	0x3ea750bf	0.32678792
32	0x3eca5a6e	0.39522117
33	0x3ea3b9e5	0.31977764
34	0x3ef5c9c4	0.48005497
35	0xbf10f906	-0.5662998
36	0x3ef353bc	0.47524822
37	0xbf39bfb2	-0.7255813
38	0xbdc4e9a7	-0.09614878
39	0xbf0473bd	-0.517391
40	0x3e8d00fb	0.2753981
41	0xbee3079a	-0.44341737
42	0xbeb16c86	-0.3465311
43	0xbec46090	-0.3835492
44	0xbea9c5d0	-0.3315873
45	0xbead8d63	-0.33896932
46	0x3f48a502	0.7837678
47	0xbe08e511	-0.13368632
48	0x3e287e08	0.16454327
49	0xbee35038	-0.4439714
50	0x3f4d75f5	0.80258113
51	0xbe7753d1	-0.24153067
52	0xbf1d580a	-0.6146246
53	0x3ed97e98	0.42479396
54	0xbde8a433	-0.113594435
55	0x3f2d56f4	0.67710805
56	0xbf0c4ee5	-0.54807884
57	0xbeea5172	-0.45765263
58	0xbeb8b54f	-0.36075827
59	0x3ea27bc1	0.31735042

GRN_net.encoder.0.bias f4 [10]
0	0xbe8bfe5c	-0.27342498
1	0x3e8688cd	0.26276246
2	0x3e816495	0.2527205
3	0x3ea52101	0.32251742
4	0xbe8244bb	-0.25443062
5	0xbe078194	-0.13233024
6	0xbda06c20	-0.07833123
7	0x3bf3cb7e	0.0074400296
8	0xbe9f08fa	-0.31061536
9	0xbe88e387	-0.2673609

GRN_net.encoder.2.weight f4 [10, 10]
0	0xbdd852b9	-0.10562653
1	0xbec9fb44	-0.39449513
2	0x3e213015	0.15740998
3	0x3ccdfd28	0.025145128
4	0x3e1dc788	0.15408146
5	0xbe9d895f	-0.30768868
6	0xbef1b0c3	-0.4720517
7	0x3e8233eb	0.25430235
8	0xbeaf2f89	-0.34215954
9	0x3ecce4fc	0.4001845
10	0x3ed9d9d4	0.42549002
11	0xbed484b7	-0.41507503
12	0xbea3d9b7	-0.3200204
13	0x3dd51322	0.1040404
14	0xbf02a9d8	-0.5104041
15	0x3d4a5a38	0.049402446
16	0xbe586eb1	-0.21135975
17	0xbe44963a	-0.19197932
18	0xbefe8b17	-0.49715492
19	0x3e87fa21	0.2655802
20	0xbecef721	-0.4042292
21	0xbecf3e75	-0.40477338
22	0xbdb1727b	-0.086644135
23	0xbe6e5cce	-0.2327759
24	0xbefd6613	-0.4949194
25	0x3ea9a42d	0.3313307
26	0xbe454b59	-0.19267024
27	0x3e84f608	0.25968957
28	0x3ea99605	0.33122268
29	0xbe9fa91f	-0.31183717
30	0xbe85d749	-0.26140812
31	0xbe5f7dcb	-0.2182533
32	0x3e9de3bd	0.30837813
33	0xbdaa6553	-0.08320107
34	0xbe3bc3e2	-0.18336442
35	0x3ebbbada	0.36665994
36	0x3f007080	0.5017166
37	0x3ef1d506	0.47232836
38	0xbee2efa6	-0.44323462
39	0xbd980f22	-0.07424761
40	0xbe1db812	-0.15402249
41	0x3ec2dddf	0.380599
42	0xbea2ad48	-0.31772828
43	0xbe9728c0	-0.29523277
44	0x3d2263c5	0.03964593
45	0xbd6abb15	-0.05730732
46	0x3eab66f3	0.33476982
47	0x3dcdf499	0.10056419
48	0xbeea6a0f	-0.4578404
49	0x3eea743a	0.457918
50	0x3ebee85a	0.37286645
51	0x3dc2a202	0.09503557
52	0xbf07675a	-0.52892077
53	0x3e8e7aee	0.27828163
54	0x3ebf6529	0.37381867
55	0x3e2205bb	0.15822499
56	0xbe6e630e	-0.23279974
57	0x3d6eda61	0.05831373
58	0xbea5cbd2	-0.32382065
59	0x3f08b94a	0.5340773
60	0x3f00d38c	0.50322795
61	0xbe06a4fb	-0.13148873
62	0xbee46cbc	-0.44614208
63	0x3eb508c6	0.35358256
64	0x3e9f0aa2	0.310628
65	0x3e90acb6	0.28256768
66	0xbea750b8	-0.3267877
67	0x3e5d2201	0.21595003
68	0xbe6ec132	-0.23315886
69	0xbf037208	-0.5134587
70	0xbeb11faa	-0.3459447
71	0x3e6b04e8	0.2295109
72	0x3e653746	0.22384366
73	0xbeffdae1	-0.4997168
74	0x3e8b285a	0.27179223
75	0x3e91b881	0.28461078
76	0x3eeba94a	0.46027595
77	0x3edd8350	0.43264246
78	0x3d3b2566	0.045689963
79	0x3e92c51e	0.28666013
80	0x3ee83857	0.45355484
81	0x3e7af78e	0.24508497
82	0xbeb6b457	-0.35684463
83	0xbe0da4c9	-0.13832392
84	0x3eef7b6a	0.46773845
85	0x3eb7467b	0.3579596
86	0x3edf1154	0.43567908
87	0xbe2a0218	-0.16602361
88	0xbcb715c2	-0.022349242
89	0xbef23e3a	-0.473131
90	0xbe89a160	-0.26880932
91	0x3eae0bfd	0.3399352
92	0xbf04aa8e	-0.51822746
93	0xbe5b7f38	-0.21435249
94	0x3e215dea	0.15758482
95	0xbea86d7a	-0.32896024
96	0x3d9d0fe8	0.076690495
97	0x3c88563e	0.016642686
98	0x3e951560	0.2911787
99	0xbecc5f51	-0.3991647

GRN_net.encoder.2.bias f4 [10]
0	0xbd834ebe	-0.06411503
1	0x3dd4fa43	0.10399296
2	0x3d2ec26c	0.042665884
3	0x3d7131ff	0.05888557
4	0x3e987e51	0.29783872
5	0x3e8a89a1	0.27058128
6	0x3e485473	0.19563465
7	0x3c35ebb8	0.011103563
8	0xbe615f9a	-0.22009125
9	0x3e5fd6ef	0.21859334

GRN_net.encoder.4.weight f4 [10, 10]
0	0x3d18f4a2	0.037342675
1	0xbf0000e1	-0.5000134
2	0x3e9c1e64	0.30491936
3	0x3effec77	0.49985096
4	0xbe058302	-0.13038257
5	0x3d97de36	0.0741543
6	0xbe973e42	-0.29539686
7	0xbecb6353	-0.39724216
8	0xbe99763b	-0.29973015
9	0xbe627531	-0.22115017
10	0x3da374c9	0.079812594
11	0xbdaf7820	-0.08567834
12	0x3cac4b37	0.021031959
13	0xbed55037	-0.41662762
14	0xbebc2352	-0.36745697
15	0xbefad777	-0.48992512
16	0xbed17a5b	-0.40913662
17	0x3ee4f1a9	0.44715622
18	0x3e3c26c5	0.18374164
19	0xbf055fdb	-0.5209939
20	0xbd8c34df	-0.06846022
21	0x3db023af	0.08600556
22	0x3eaca6aa	0.33720905
23	0x3f02e5e2	0.51132023
24	0x3de873a2	0.1135018
25	0x3eca3750	0.39495325
26	0xbe1137fe	-0.14181516
27	0x3d4278c2	0.047478445
28	0xbe9d5854	-0.30731452
29	0x3db2a542	0.08722927
30	0x3ef903ae	0.4863562
31	0x3ec6f905	0.38861862
32	0x3eb3134a	0.34975654
33	0xbe4ff71a	-0.20309106
34	0xbccc4fab	-0.024940332
35	0x3e1740ed	0.14770861
36	0x3ec9666f	0.39335963
37	0xbefc09b9	-0.49226168
38	0xbe6e4e8c	-0.23272151
39	0x3ce54ec1	0.027991654
40	0xbe983351	-0.2972665
41	0x3e46175d	0.1934485
42	0xbce0a402	-0.027421955
43	0xbe053ff4	-0.13012677
44	0x3e4a14e4	0.19734532
45	0x3ec845e3	0.3911582
46	0x3f0527f3	0.5201408
47	0x3e8a12eb	0.26967558
48	0x3c668ddf	0.014071911
49	0x3ed2cd24	0.41172135
50	0x3eee7303	0.46572122
51	0xbe936921	-0.28791144
52	0x3e8238e7	0.25434038
53	0x3c6dba6d	0.014509779
54	0xbeb52932	-0.35382992
55	0xbde53fd3	-0.11193814
56	0xbdd1e6f5	-0.1024913
57	0xbe958704	-0.2920457
58	0xbe34a88b	-0.17642419
59	0x3deecb55	0.11659876
60	0x3ec6e148	0.3884375
61	0x3d2eb06d	0.04264872
62	0xbf0c0d59	-0.54707867
63	0x3e90c4e5	0.2827522
64	0xbe0a0aa6	-0.13480625
65	0x3eee8a0d	0.465897
66	0xbf0464e0	-0.51716423
67	0xbe0c9fcf	-0.13732837
68	0x3ecf5cc5	0.40500465
69	0x3e81ef65	0.25377956
70	0xbe81746b	-0.25284132
71	0xbef049e9	-0.4693139
72	0x3d87023b	0.06592222
73	0x3e4b049b	0.19825976
74	0xbf1004d6	-0.5625738
75	0xbee82aaf	-0.45345065
76	0x3c06052d	0.008179945
77	0xbdbfff8c	-0.093749136
78	0x3ec6e89d	0.38849345
79	0xbf0d1066	-0.5510315
80	0xbe0e0269	-0.13868107
81	0xbee6dc54	-0.45089972
82	0xbd5ffe0c	-0.054685637
83	0xbe073ef6	-0.13207611
84	0x3e5bc858	0.21463144
85	0xbf02fd12	-0.51167405
86	0xbeec80e1	-0.46192077
87	0xbe9e3917	-0.3090293
88	0xbefdbb6a	-0.49557048
89	0x3ee3f9d0	0.4452653
90	0xbdad08a4	-0.08448914
91	0xbeaea662	-0.34111315
92	0x3e7f9649	0.24959673
93	0xbd9a96ce	-0.07548295
94	0x3e83ec45	0.25766197
95	0xbe1be6fa	-0.1522483
96	0xbf045548	-0.5169263
97	0x3e74f449	0.23921312
98	0x3ebfdd20	0.37473392
99	0xbf19e0d5	-0.6010869

GRN_net.encoder.4.bias f4 [10]
0	0xbcff1ab7	-0.031140668
1	0x3dd5d44c	0.10440883
2	0x3e7f0eb9	0.2490796
3	0x3d94bc49	0.07262475
4	0xbe07f201	-0.13275911
5	0xbe2df054	-0.16986209
6	0xbe869de5	-0.2629234
7	0x3e79d610	0.24398065
8	0x3c7417f3	0.014898288
9	0x3d44fe67	0.04809418

GRN_net.encoder.6.weight f4 [10, 10]
0	0x3d114cf4	0.03547378
1	0x3de0b427	0.10971861
2	0x3a7238bc	0.00092400215
3	0xbc51cec4	-0.012805644
4	0xbe385df3	-0.18004589
5	0xbec6e1d1	-0.3884416
6	0x3dc2dc48	0.095146716
7	0xbecc9e4d	-0.39964524
8	0xbedef78d	-0.4354824
9	0xbe4442f6	-0.19166169
10	0xbec9ef3d	-0.39440337
11	0x3e267ce6	0.16258582
12	0x3eb14d4a	0.3462928
13	0x3ecd3254	0.4007746
14	0xbea6640f	-0.32498214
15	0x3e9dab25	0.30794635
16	0x3ebf4f42	0.37365156
17	0xbbc48242	-0.0059969733
18	0x3e8af821	0.27142432
19	0x3e83a0da	0.25708658
20	0x3efbdffd	0.49194327
21	0x3e58029f	0.2109475
22	0x3e8ccd1c	0.27500236
23	0xbe227ede	-0.15868708
24	0xbea28e98	-0.31749415
25	0xbe59502d	-0.21221991
26	0x3ecdfaba	0.40230352
27	0xbd909873	-0.070603274
28	0x3dd3693c	0.10322806
29	0xbf11b278	-0.56912947
30	0xbd03db2b	-0.032191437
31	0xbe81d2ad	-0.25356045
32	0xbe6fc147	-0.23413573
33	0x3ed6fe72	0.41991
34	0xbec993d1	-0.39370587
35	0xbe57dad1	-0.21079566
36	0xbca4297c	-0.020039313
37	0xbf07bf0b	-0.53025883
38	0x3e9674fc	0.29386127
39	0xbe673a88	-0.22580922
40	0x3e53f2bb	0.20698063
41	0x3ed66adf	0.4187841
42	0x3ebd5bda	0.3698414
43	0x3d9c1a19	0.07622165
44	0x3eb1305f	0.34607217
45	0x3f0b5635	0.54428416
46	0x3e1e4169	0.1545464
47	0xbd9dc630	-0.07703817
48	0xbe38b719	-0.18038596
49	0x3ddf2238	0.108951986
50	0x3dd29374	0.10282031
51	0xbee5f395	-0.449124
52	0x3ec0fac3	0.37691316
53	0x3e10d9bc	0.14145559
54	0xbeef8516	-0.46781224
55	0x3e3825ba	0.17983142
56	0x3ec171e5	0.37782207
57	0x3deb8647	0.11500221
58	0x3ec1e84c	0.3787254
59	0x3dcd6008	0.10028082
60	0xbedd412c	-0.43213785
61	0xbd49c656	-0.049261414
62	0x3ebd3625	0.36955371
63	0xbe80832f	-0.25100085
64	0x3e41de6b	0.18932502
65	0x3e326143	0.17419915
66	0xbd4017ca	-0.046897687
67	0x3c181326	0.009281909
68	0x3e3e24ce	0.18568727
69	0xbec605f0	-0.38676405
70	0x3ea729f4	0.32649195
71	0x3ea1c6b6	0.31596917
72	0x3ec3cf80	0.38244247
73	0x3efcb423	0.49356183
74	0x3d4c8e9a	0.049940683
75	0xbf05f770	-0.52330685
76	0x3d8af180	0.06784344
77	0xbe1dd3f4	-0.15412885
78	0x3e22ba30	0.15891337
79	0x3eeb51ee	0.45960945
80	0xbe91abe5	-0.28451458
81	0x3db6f27a	0.089329675
82	0x3f1b1737	0.605823
83	0xbeca574c	-0.39519727
84	0xbd5bfda1	-0.053708676
85	0x3ee954f1	0.45572618
86	0x3eba69e6	0.3640892
87	0x3e47adf4	0.19499952
88	0xbea6b353	-0.3255869
89	0x3ccb5015	0.02481846
90	0xbee9f5dd	-0.4569539
91	0xbeeecc87	-0.46640417
92	0xbf07309c	-0.5280855
93	0x3f00f6df	0.50376695
94	0x3ecacdb3	0.3961006
95	0x3e737b65	0.2377754
96	0xbe0a41ff	-0.13501738
97	0x3f0640e6	0.5244278
98	0xbe36b9ad	-0.17844267
99	0x3ece6109	0.40308407

GRN_net.encoder.6.bias f4 [10]
0	0x3d0dd9dd	0.0346316
1	0x3e80141f	0.2501535
2	0x3db08185	0.08618454
3	0xbe05a027	-0.13049375
4	0x3e8cbe64	0.27489007
5	0xbcbdbeaa	-0.023162205
6	0x3e4dbbfa	0.20091239
7	0x3d9cc388	0.07654482
8	0x3e8513c4	0.25991642
9	0x3e33bb76	0.1755198

GRN_net.decoder.0.weight f4 [6, 10]
0	0x3caf475d	0.021396333
1	0xbeadc616	-0.3394019
2	0xbe38ea52	-0.18058136
3	0xbe5f046c	-0.2177903
4	0xbf07c0d9	-0.5302864
5	0x3e281974	0.1641596
6	0xbe5166e0	-0.204494
7	0x3e80c5cd	0.2515091
8	0x3ed34df9	0.41270426
9	0xbda4dd03	-0.08049967
10	0x3e6dbfb6	0.23217663
11	0x3e4ed9c5	0.2020026
12	0x3ec287aa	0.37994128
13	0xbe91f77f	-0.28509137
14	0xbe60192c	-0.21884602
15	0xbe353529	-0.1769606
16	0x3efe0396	0.4961211
17	0xbf2d9c41	-0.6781655
18	0xbed25aa5	-0.4108478
19	0x3d8b852d	0.06812511
20	0x3f06f0d4	0.52711225
21	0x3ea25202	0.31703192
22	0xbf1f66b3	-0.6226608
23	0xbeda7f97	-0.42675468
24	0x3f0c9ce4	0.54926896
25	0x3bf0a222	0.0073435465
26	0xbf0ee41d	-0.55816823
27	0xbe6cfb4d	-0.23142739
28	0x3e6ba051	0.23010375
29	0xbdca4593	-0.098765515
30	0xbee32fbe	-0.44372362
31	0xbeba0777	-0.3633382
32	0xbe9911aa	-0.2989629
33	0x3c931077	0.017952187
34	0x3e47843b	0.19484036
35	0x3e8a2191	0.26978734
36	0xbea11020	-0.31457615
37	0xbe478513	-0.19484358
38	0xbef124f4	-0.47098505
39	0x3eebcabb	0.4605311
40	0x3f1a3f8e	0.60253227
41	0x3f1c98f1	0.6117087
42	0x3e6a1ddd	0.22862954
43	0xbd713db8	-0.05889675
44	0xbdedfb71	-0.11620224
45	0x3e6e1a7b	0.23252289
46	0xbeff3481	-0.49844745
47	0x3caa1da4	0.020766087
48	0xbefd9a4c	-0.49531782
49	0xbf14f23b	-0.58182114
50	0x3d6928de	0.05692374
51	0xbc929d79	-0.017897354
52	0xbeea462c	-0.45756662
53	0x3e4f580b	0.2024843
54	0x3e3085be	0.17238519
55	0x3d41ad9c	0.047284707
56	0xbebf130b	-0.37319216
57	0xbf010b71	-0.50408083
58	0xbcf186f3	-0.029483294
59	0xbe465247	-0.19367324

GRN_net.decoder.0.bias f4 [6]
0	0x3dec60bb	0.115418874
1	0xbe9ade85	-0.30247894
2	0x3e56c316	0.20972857
3	0x3d96844e	0.07349454
4	0xbd0a0595	-0.03369673
5	0x3df06393	0.11737742

BRD_net.encoder.0.weight f4 [8, 7]
0	0xbe460dcf	-0.19341205
1	0x3ede6143	0.4343358
2	0x3e084876	0.13308892
3	0x3f163c55	0.5868581
4	0x3c7a4deb	0.015277366
5	0xbef6aded	-0.4817957
6	0x3e2f694b	0.1713001
7	0xbee7106c	-0.45129716
8	0x3e6b65f0	0.22988105
9	0xbf0f26e9	-0.5591875
10	0x3e75b76d	0.23995753
11	0xbf1bfba1	-0.6093083
12	0x3f11b2ce	0.5691346
13	0x3f0e2704	0.55528283
14	0x3ec7d803	0.3903199
15	0x3e8a1d5f	0.26975533
16	0x3e55d7f6	0.20883164
17	0xbee02429	-0.43777588
18	0xbe943324	-0.28945267
19	0xbd078db2	-0.033094116
20	0xbf1acb7e	-0.60466754
21	0x3f13e768	0.5777497
22	0xbe9997b9	-0.29998568
23	0x3ef1c31a	0.47219163
24	0x3e26e446	0.16298017
25	0x3ea0b3c3	0.31387147
26	0xbead24aa	-0.33817035
27	0xbf186927	-0.5953545
28	0x3ed8ace5	0.42319408
29	0xbd158c89	-0.036510978
30	0x3ee715b8	0.45133758
31	0xbef84406	-0.48489398
32	0x3e24af6a	0.1608254
33	0xbf17481c	-0.59094405
34	0xbe452a00	-0.19254303
35	0xbc389d36	-0.011267951
36	0xbe865e14	-0.2624365
37	0xbf2fc2ab	-0.68656415
38	0xbe9a582d	-0.30145398
39	0x3e8b2f9c	0.2718476
40	0x3f403ab3	0.7508957
41	0xbe94cc15	-0.29061952
42	0xbce7304c	-0.028221272
43	0xbf571449	-0.8401533
44	0xbebb95ac	-0.36637628
45	0xbea061ac	-0.31324518
46	0x3e8f4345	0.2798101
47	0x3d91e4e5	0.07123736
48	0x3b956f58	0.0045603923
49	0x3f34d49d	0.7063692
50	0xbea75665	-0.326831
51	0x3f4c016e	0.7968968
52	0x3f41db57	0.7572531
53	0x3f5b1435	0.8557771
54	0x3e731de9	0.23741879
55	0xbec0be78	-0.37645316

BRD_net.encoder.0.bias f4 [8]
0	0x3eae0f87	0.3399622
1	0xbe65e51a	-0.22450677
2	0xbe8fae2a	-0.28062564
3	0xbe7213ea	-0.23640409
4	0x3e76adfa	0.24089804
5	0xbd610f40	-0.054946184
6	0xbdbad4df	-0.09122633
7	0xbc83241b	-0.016008427

BRD_net.encoder.2.weight f4 [8, 8]
0	0xbeb5eed8	-0.35533786
1	0xbec0aa68	-0.3763001
2	0x3e5e0de9	0.21684994
3	0x3e5eb647	0.21749221
4	0x3e577264	0.2103973
5	0xbee33b09	-0.44380978
6	0xbee16dbd	-0.44029036
7	0x3eef4674	0.4673344
8	0xbeb518c3	-0.35370454
9	0xbf018d8c	-0.5060661
10	0x3d8d88e4	0.069108754
11	0xbe108f96	-0.14117274
12	0xbd85181f	-0.06498741
13	0x3ea9b41a	0.3314522
14	0x3e8b6b5c	0.27230346
15	0xbf0f8875	-0.5606759
16	0xbebf6047	-0.3737814
17	0xbe5ef1cc	-0.21771926
18	0x3f0d30ad	0.551524
19	0x3ea8fcce	0.33005375
20	0x3e8da959	0.27668265
21	0x3f2a259e	0.6646365
22	0x3eaca32f	0.3371825
23	0xbf31d6c5	-0.6946834
24	0x3ef7444a	0.48294288
25	0xbe692766	-0.22768936
26	0xbe542c9f	-0.20720147
27	0xbe87d355	-0.2652842
28	0x3eb7dbd0	0.3590989
29	0xbe5ad3f4	-0.21369916
30	0xbee1526a	-0.4400819
31	0xbead8788	-0.33892465
32	0xbe7aea3f	-0.2450342
33	0x3f094dc9	0.53634316
34	0x3f1682e4	0.58793473
35	0x3ef65057	0.4810817
36	0x3e034012	0.1281741
37	0xbd7b6ec7	-0.061384942
38	0xbda78b77	-0.08180898
39	0xbed845c8	-0.4224074
40	0x3e986a7a	0.29768735
41	0xbef7bb51	-0.483851
42	0x3bc2e9bd	0.005948274
43	0x3eb39169	0.35071877
44	0x3f0f80f5	0.5605615
45	0xbf168a4f	-0.5880479
46	0x3ef0ee27	0.47056696
47	0xbeb2de2d	-0.34935132
48	0xbeb74362	-0.35793597
49	0x3f28c479	0.65924793
50	0x3eeeb338	0.46621108
51	0xbe48d6a9	-0.19613136
52	0x3e9035b4	0.28165972
53	0xbefd51b3	-0.49476394
54	0x3f0770da	0.5290657
55	0x3efa6868	0.4890778
56	0xbe9f0a2c	-0.31062448
57	0x3e34419d	0.17603154
58	0x3e4f8f63	0.20269541
59	0xbea277f7	-0.3173215
60	0xbea7af4b	-0.32750925
61	0xbcb92ab5	-0.022603372
62	0xbedf0ec4	-0.43565953
63	0xbf143b18	-0.5790267

BRD_net.encoder.2.bias f4 [8]
0	0x3c5f7510	0.01363875
1	0x3e782291	0.24231936
2	0xbcc4fe0b	-0.024046918
3	0xbdd62681	-0.10456563
4	0xbdc8ab53	-0.097983025
5	0x3ed96695	0.42461076
6	0x3e0a5ca0	0.13511896
7	0xbe1a58ff	-0.15073012

BRD_net.decoder.weight f4 [1, 8]
0	0x3e25d618	0.16194952
1	0xbef08230	-0.46974325
2	0xbf0f9d65	-0.5609954
3	0x3dba9d31	0.09112013
4	0xbf1c6bc1	-0.6110192
5	0x3f5a479e	0.8526553
6	0xbe62f817	-0.22164951
7	0xbf12cbe0	-0.5734234
