example/Embryogenesis/Output/ckpt_itr1500.pth (torch, 8074 bytes, 15 tensors)

GRN_net.encoder.0.weight f4 [10, 6]
000000 79 29 fe bd dd 27 74 be 65 22 14 3d b7 f9 fe 3d
       -0.12410254 -0.23843332 0.036165614 0.12449973
000010 23 48 a0 3e 91 93 40 3e f6 1a 8d 3e 56 0f 87 3e
       0.31305036 0.18806292 0.27559632 0.26378888
000020 53 c3 4f 3e ed d1 21 3d fa 97 00 be e0 f5 fa 3e
       0.20289354 0.03950684 -0.12557974 0.49015713
000030 d4 0d 04 3e 62 d2 ff 3e a9 9b 25 3f d3 16 53 be
       0.128959 0.49965197 0.64690644 -0.20614175
000040 36 f2 0f 3f 7a 74 9c bd a4 13 fe 3e 93 2c 33 3f
       0.5622896 -0.07639404 0.4962436 0.6998989
000050 cd 8c ee be 85 50 f0 3d 17 e0 e3 be 9b 3f a9 be
       -0.46591797 0.11734108 -0.44506904 -0.3305634
000060 85 4b 2b be 0c 4c 70 be ca ef 30 be 84 41 1a bf
       -0.16728027 -0.2346651 -0.17278972 -0.6025622
000070 55 84 bc be 88 27 9c bc cd 82 a1 bd 8c d2 94 3e
       -0.3681971 -0.019061819 -0.078862764 0.29066885
000080 e8 ed d8 3e 9e 46 94 3e 21 e3 e4 3e a1 e8 09 bf
       0.42369008 0.28960127 0.44704536 -0.5387059
000090 e4 86 05 3f cf 2c 41 bf a0 b0 a2 bd a5 c6 de be
       0.5215895 -0.75459 -0.07943845 -0.4351093
0000a0 88 f3 9c 3e 5f bf d9 be cc 01 97 be 85 c2 dc be
       0.3065455 -0.42528817 -0.29493558 -0.43117157
0000b0 bc 1f 97 be 96 19 b7 be 6a fc 52 3f ed 04 df bd
       -0.295164 -0.35761708 0.82416403 -0.108896114
0000c0 d3 28 a3 3c 8a 12 eb be c2 8e 4e 3f 40 6e 8b be
       0.019916927 -0.45912582 0.8068658 -0.27232552
0000d0 d5 49 25 bf 91 34 eb 3e a5 5e 09 be 55 44 35 3f
       -0.64565784 0.45938542 -0.1341501 0.7080739
0000e0 fc f3 0c bf bf 98 fc be f8 36 a8 be 7b 0c 94 3e
       -0.5505979 -0.49335286 -0.32854438 0.28915772

GRN_net.encoder.0.bias f4 [10]
000000 27 50 9b be 4e b4 a4 3e ea 82 92 3e b1 49 96 3e
       -0.3033459 0.32168812 0.28615505 0.29353097
000010 8c a7 89 be 23 d1 3a be a6 ef 31 bd d0 14 6b 3d
       -0.2688564 -0.18243842 -0.043441437 0.057392895
000020 6b e6 90 be 0f 5f 99 be
       -0.28300795 -0.29955336

GRN_net.encoder.2.weight f4 [10, 10]
000000 35 4c 07 be dd 77 d7 be 66 98 59 3e 85 03 11 3c
       -0.13212664 -0.42083636 0.21249542 0.008850937
000010 ef 8f 38 3e 0a 3f 8e be bd 03 fd be 1f 04 93 3e
       0.18023656 -0.2778247 -0.49416915 0.28714082
000020 89 bd c8 be 00 9d da 3e 79 dd e7 3e 78 cf e8 be
       -0.39207104 0.42697906 0.45286158 -0.45470786
000030 0a 25 9a be ad 6e 90 3d 0c 76 e6 be 17 14 94 3d
       -0.30106384 0.0705236 -0.45011938 0.07230394
000040 ca 4c 81 be 3b 0c 2b be 57 e0 06 bf 36 70 a6 3e
       -0.25253898 -0.16703884 -0.52686065 0.32507485
000050 6e 4c dc be 45 40 be be aa cb 4d bd b9 c5 bf be
       -0.4302706 -0.3715841 -0.050243057 -0.37455538
000060 8c da e0 be 25 bb 9f 3e 5e 21 4b be 36 63 6b 3e
       -0.43916738 0.31197467 -0.19836947 0.22987065
000070 c3 0e b8 3e 9f 53 ad be 8f 73 95 be 3e 8c 40 be
       0.35948762 -0.3385286 -0.29189727 -0.18803498
000080 a7 46 ac 3e 3c b3 8e bc 38 d1 57 be 40 60 ca 3e
       0.33647653 -0.01741945 -0.21075904 0.39526558
000090 7d de 08 3f e4 98 d2 3e ff bd 01 bf 40 36 d1 bd
       0.5346449 0.4113227 -0.50680536 -0.102154255
0000a0 30 db 4b be 27 1d d7 3e 53 cc 8c be c7 02 7c be
       -0.19907832 0.4201443 -0.27499637 -0.24610434
0000b0 03 b8 84 3b 1d d3 b5 bc ca fe c1 3e 29 3e 84 3d
       0.004050256 -0.022195393 0.378897 0.064571686
0000c0 d0 5a e0 be 46 6f d9 3e c6 01 cf 3e d3 7d 7f 3d
       -0.43819284 0.42467707 0.4043104 0.062375855
0000d0 95 de f4 be 72 cf 7a 3e d7 ed cf 3e 8b ef 46 3e
       -0.47826067 0.24493197 0.40611145 0.19427316
0000e0 97 1a 4a be 67 69 bc 3d bb c8 bd be 61 0a 11 3f
       -0.19736706 0.091997914 -0.37067208 0.5665646
0000f0 8a 4b f9 3e 8c d7 cc bd ba 95 f3 be 88 64 ad 3e
       0.48690444 -0.1000205 -0.4757517 0.33865762
000100 e5 61 ae 3e 49 b9 81 3e 3b ba b9 be af ee 40 3e
       0.34059063 0.25336674 -0.36274895 0.1884105
000110 ee 2d 36 be 83 4c f9 be 05 9a 9f be ea c2 56 3e
       -0.17790958 -0.48691186 -0.31172195 0.20972791
000120 45 89 8e 3e 33 df 08 bf 34 41 9b 3e 9e 58 81 3e
       0.27839103 -0.53465575 0.30323184 0.25262922
000130 96 98 00 3f 23 3c f0 3e 86 4e 2d bc 8c 97 a0 3e
       0.5023283 0.4692088 -0.0105778035 0.3136562
000140 d5 7f d5 3e 07 04 4b 3e d3 53 c8 be e6 b2 2b be
       0.4169909 0.19825755 -0.39126453 -0.16767463
000150 05 4e 00 3f 63 0d a8 3e b8 11 f4 3e 68 4d 08 be
       0.5011905 0.32822713 0.47669768 -0.13310778
000160 5d b3 e0 3b 77 ca e0 be f6 9f 72 be 87 08 aa 3e
       0.0068573193 -0.43904468 -0.23693833 0.3320963
000170 96 52 0c bf 14 29 40 be 13 1c e4 3d 3c 33 98 be
       -0.54813516 -0.1876567 0.11138167 -0.2972659
000180 68 38 2e 3d c8 94 41 3d 55 d5 87 3e c6 1d c0 be
       0.042534262 0.04726103 0.26529947 -0.37522715

GRN_net.encoder.2.bias f4 [10]
000000 9f 37 b8 bd fe 6f 6d 3d da b6 85 3d c0 88 ae 3d
       -0.08994984 0.057968132 0.06529017 0.08522177
000010 4a e6 a9 3e 7f c5 71 3e e2 6b 29 3e fd c8 23 bc
       0.3318351 0.23610495 0.1654506 -0.00999665
000020 e9 26 83 be 8e 18 6c 3e
       -0.25615624 0.23056242

GRN_net.encoder.4.weight f4 [10, 10]
000000 d3 32 44 3c 9b c7 03 bf 99 13 a7 3e 07 ce 06 3f
       0.011975008 -0.5147645 0.3263214 0.5265812
000010 1f eb 24 be 0a 7e 4e 3d 0f 8a 84 be fa 7c e0 be
       -0.16105317 0.05041317 -0.2588658 -0.4384535
000020 b4 a0 88 be 7f 84 68 be 64 1a 08 3e 8e 9d 96 bc
       -0.26685107 -0.22706793 0.13291317 -0.018385675
000030 dd ea 2d 3d 72 b2 c6 be 05 69 a4 be d0 98 f6 be
       0.04246031 -0.38808018 -0.32111374 -0.48163462
000040 6a 94 be be 24 07 f4 3e a9 84 5d 3e 4a 27 0f bf
       -0.37222606 0.47661698 0.21632637 -0.55919325
000050 de 5b bb bd 57 47 80 3d 0a e9 bc 3e 0f 0b 0a 3f
       -0.09148382 0.06263607 0.36896545 0.53923124
000060 06 00 c3 3c d9 44 bd 3e ea 3e c0 bd 2b 26 9f 3d
       0.023803722 0.3696659 -0.09387 0.07770952
000070 73 3b 89 be 79 57 2a 3d 62 8f ed 3e 3a a0 bc 3e
       -0.2680317 0.041587327 0.46398455 0.36840993
000080 45 99 c2 3e ec be 74 be c7 83 73 bd 41 77 00 3e
       0.3800756 -0.23900956 -0.059451845 0.12545492
000090 6a f3 bd 3e 2c 99 05 bf cd 91 83 be 65 fb 32 3d
       0.37099773 -0.52186847 -0.25697175 0.04369678
0000a0 21 33 87 be 8c a8 24 3e 4e 6d 45 bd 5f 4f 25 be
       -0.26406196 0.1607992 -0.048199944 -0.16143559
0000b0 a8 a7 4d 3e 0c 2e d3 3e f4 23 fc 3e 71 7b 82 3e
       0.20083487 0.41246068 0.4924618 0.25484803
0000c0 3d e5 34 bc ef 91 e2 3e 53 fc fa 3e c7 a9 e9 be
       -0.011040983 0.44251963 0.49020633 -0.45637342
0000d0 5d 4e 6f 3e 6d c8 1b bc 7c 19 9e be 5b 2d ba bd
       0.23369737 -0.009508234 -0.30878818 -0.09090682
0000e0 84 79 0e be 44 1e 83 be 4e be 66 be e3 c6 cd 3d
       -0.13913542 -0.25609028 -0.22533533 0.100477
0000f0 94 4f 88 3e f3 0f a1 3d b8 a1 08 bf c8 23 a0 3e
       0.26623213 0.0786437 -0.53371763 0.312773
000100 ab ce 56 bd a2 98 dd 3e a3 57 fa be 6b d8 e0 bd
       -0.052443188 0.43280512 -0.48894987 -0.109787785
000110 b9 d7 dd 3e be 9a 5d 3e c7 e0 8e be a2 6e ff be
       0.43328646 0.2164106 -0.27905867 -0.49889094
000120 a0 2b 2e 3d 2b be 27 3e 4b 5e 0e bf 90 f2 f4 be
       0.042522073 0.16381137 -0.5561263 -0.4784131
000130 1f 77 9d bc d6 bb f9 bd 91 ed b9 3e ae 3f 05 bf
       -0.01922184 -0.1219403 0.3631406 -0.5205029
000140 1f f1 2b be 33 83 d2 be 8b 77 b2 bc 70 a0 3b be
       -0.16791199 -0.41115722 -0.021785518 -0.18322921
000150 30 0b 36 3e 49 32 0a bf 34 f5 d9 be b5 3b ae be
       0.17777705 -0.5398298 -0.42569888 -0.34029928
000160 38 20 06 bf 62 15 f2 3e 8a ae fb bd 6e 53 bd be
       -0.5239291 0.4728194 -0.1228915 -0.36977714
000170 1f 72 6e 3e ed 16 da bd d1 f4 62 3e 00 6c 44 be
       0.23285721 -0.10648904 0.22163703 -0.19181824
000180 43 7a 0b bf 02 92 8c 3e 13 bf df 3e b9 92 10 bf
       -0.5448343 0.27455145 0.43700466 -0.5647388

GRN_net.encoder.4.bias f4 [10]
000000 7a ef f0 bb e5 26 50 3d e0 3e 88 3e 4d 68 bf 3d
       -0.0073527666 0.050818343 0.2661047 0.09346066
000010 58 0f 37 be 25 46 46 be ba c7 90 be 16 9e 8a 3e
       -0.17876947 -0.19362696 -0.2827738 0.27073735
000020 d1 11 38 3d 60 e7 98 3d
       0.044938866 0.07466006

GRN_net.encoder.6.weight f4 [10, 10]
000000 33 a1 f6 3d 45 fd 4c 3d 30 85 15 3d ff 65 d5 bd
       0.12042465 0.050046224 0.03650397 -0.10419845
000010 71 b2 1f be f5 c7 e0 be 71 d7 07 3e 14 7b d4 be
       -0.15595414 -0.43902555 0.13265778 -0.4150015
000020 5b a2 ed be 63 82 1e be bf 02 b4 be 39 2f f2 3d
       -0.4641293 -0.15479426 -0.35158345 0.11825413
000030 8e 09 c1 3e 05 9f dc 3e 25 e4 96 be 66 fb 89 3e
       0.37702602 0.43090072 -0.29470935 0.26949614
000040 60 9e d7 3e 30 fc 34 bd 47 4d 74 3e da 18 97 3e
       0.42113018 -0.044185817 0.23857604 0.29511148
000050 28 ed f9 3e f3 ae 39 3e a1 b1 99 3e 0d 0b d6 bd
       0.48813748 0.18133144 0.30018333 -0.104513265
000060 db 7a 2d be ec 54 72 be 8c 52 c0 3e 60 84 86 bd
       -0.16941397 -0.23665208 0.37562978 -0.06568217
000070 9c 7e e1 3d 91 38 1b bf 39 b1 2c 3d 04 de 64 be
       0.11010477 -0.6063319 0.0421612 -0.22350317
000080 bf 3d 7d be 3d 0f e4 3e 32 ac e4 be a4 3e 3e be
       -0.24730586 0.44542876 -0.44662625 -0.18578583
000090 f0 bc 99 bd e4 82 f2 be d8 5d 94 3e f8 a7 79 be
       -0.0750674 -0.47365487 0.28977847 -0.24380481
0000a0 bc 9a 92 3e 41 10 e6 3e b0 b9 b2 3e 23 8c 4a be
       0.28633678 0.44934276 0.34907293 -0.1978002
0000b0 e2 80 97 3e 7d 05 13 3f 67 5b 38 3e 3a 4b c7 bd
       0.29590517 0.5743025 0.18003617 -0.09731145
0000c0 c1 35 48 be 85 a1 1b 3e 34 0a d0 3d 78 d8 d4 be
       -0.19551755 0.15198334 0.10158196 -0.41571403
0000d0 31 09 ae 3e b2 0a cb 3d 1d ec f9 be 03 70 5e 3e
       0.33991387 0.09914149 -0.48812953 0.21722417
0000e0 83 c8 ac 3e 00 6e 21 3e 5a a2 d6 3e c4 82 01 3e
       0.33746728 0.15764618 0.4192074 0.1264754
0000f0 ee 3a 00 bf 8b 86 9a bd da 9b cb 3e 07 11 51 be
       -0.5008992 -0.07545193 0.39767343 -0.20416652
000100 24 55 8b 3e f4 21 1a 3e d8 a4 a6 bd 45 ff 1b bd
       0.27213395 0.15052015 -0.0813691 -0.03808524
000110 fb 37 52 3e 4e 23 d6 be 1a 31 ad 3e 96 d2 b0 3e
       0.20529167 -0.4182381 0.33826524 0.34535664
000120 0c 63 41 3e 18 60 f3 3e 35 ce 01 3d c5 8c fd be
       0.1888544 0.4753425 0.031690795 -0.4952146
000130 3b f3 3a 3d e7 e4 05 be 81 02 34 3e 51 d0 ef 3e
       0.04564212 -0.130756 0.1757908 0.4683862
000140 36 f0 7c be ff 51 f0 3d 9d f9 11 3f a1 46 d9 be
       -0.24701008 0.117343895 0.57021505 -0.42436698
000150 9a f8 b8 bd 54 a6 fe 3e ea fe da 3e de 13 73 3e
       -0.09031792 0.49736273 0.4277261 0.23738047
000160 e7 31 95 be 02 0f 56 3d ef 81 04 bf 33 53 bd be
       -0.29139635 0.052260406 -0.5176076 -0.36977538
000170 c5 6e 12 bf eb b3 15 3f 5a 96 be 3e e1 b2 95 3e
       -0.5720027 0.5847766 0.37224084 0.29238036
000180 93 46 31 be 15 9b f8 3e 1c dc 19 be 49 0e be 3e
       -0.17312078 0.48555818 -0.15025371 0.37120274

GRN_net.encoder.6.bias f4 [10]
000000 5e 84 fb 3b cb 10 58 3e bf a1 e4 3d ed 26 e4 bd
       0.0076756915 0.21100156 0.11163663 -0.11140237
000010 4c dd 7e 3e ee 51 64 3c 95 e6 69 3e 42 54 c1 3d
       0.24889106 0.013935549 0.22841866 0.09439899
000020 a2 e9 57 3e a5 5e 50 3e
       0.21085218 0.20348604

GRN_net.decoder.0.weight f4 [6, 10]
000000 c7 10 4e bc e6 0c c1 be 9b 7b 65 be c1 21 81 be
       -0.012577242 -0.37705153 -0.22410433 -0.25221065
000010 a0 f6 11 bf 9d fd c4 3d b7 0a 25 be ca 9a 55 3e
       -0.57016945 0.096186854 -0.16117369 0.20859829
000020 01 4e e2 3e 17 f5 ea bc 4b 56 84 3e a6 f7 40 3e
       0.44200137 -0.028681321 0.25847086 0.1884447
000030 6f 96 d0 3e 91 88 83 be e7 4e 7b be 0b d4 03 3e
       0.40739772 -0.2569013 -0.24541818 0.12873857
000040 72 f5 09 3f 08 ed 1c bf f1 89 de be 9c ef 9b 3d
       0.53890145 -0.6129918 -0.43464616 0.07614061
000050 99 6d 0e 3f e3 b2 8f 3e 42 a3 11 bf b8 62 f0 be
       0.5563598 0.28066167 -0.56889737 -0.46950316
000060 12 d1 12 3f 87 85 ab bb 7c b2 17 bf 1c 8d 6b be
       0.57350266 -0.0052344236 -0.5925672 -0.23003048
000070 2d ee 85 3e 64 94 06 be 85 29 f0 be c7 6c a9 be
       0.26158276 -0.13142544 -0.46906677 -0.33090803
000080 36 ba 96 be 5e 83 4d 3d 29 81 35 3e d1 e6 84 3e
       -0.29438943 0.05017411 0.17725052 0.2595735
000090 b5 68 90 be 58 3c 71 be 2d ad 00 bf 6b 59 f8 3e
       -0.28204885 -0.23558176 -0.50264245 0.4850572
0000a0 f1 e8 38 3f 2d bd 14 3f 26 67 44 3e 19 f7 a5 bd
       0.7223044 0.5810116 0.19179973 -0.08103771
0000b0 d9 45 e7 bd 44 4d 11 3e 9c b6 12 bf a6 66 dd 3c
       -0.11292619 0.14189631 -0.5730989 0.027026486
0000c0 c1 50 f0 be e9 d8 0b bf b2 3d 92 3d 81 ca 22 bd
       -0.4693661 -0.54627854 0.07140674 -0.039743904
0000d0 03 0b ee be 37 39 33 3e e2 c5 48 3e 43 9b 39 3d
       -0.46492776 0.17502294 0.19606736 0.045314085
0000e0 b5 7e ca be 35 2c fa be 98 b7 45 3d 1d 4d 49 be
       -0.39549795 -0.48861852 0.04827079 -0.19658323

GRN_net.decoder.0.bias f4 [6]
000000 df d3 12 3e a4 93 a0 be c8 e0 34 3e e7 a6 cc 3d
       0.14338635 -0.3136264 0.17663872 0.099927716
000010 7c e1 23 bd 23 c5 cc 3d
       -0.04000996 0.09998538

BRD_net.encoder.0.weight f4 [8, 7]
000000 20 b1 5f be 46 3f cc 3e 7b 1b cd 3d 63 8c 0b 3f
       -0.21844912 0.39892024 0.10015007 0.5451109
000010 b2 50 73 3d 3b c0 07 bf b5 c6 18 3e d8 21 da be
       0.05940313 -0.53027695 0.1491955 -0.42603946
000020 66 f8 e9 3e 35 07 08 bf d9 1f 8c 3e 2c 3a 26 bf
       0.45697325 -0.53136 0.27368048 -0.64932513
000030 c3 c9 19 3f bc c7 15 3f de 5f d4 3e be 98 a0 3e
       0.6007349 0.58507895 0.4147939 0.31366533
000040 ed b7 80 3e 67 fc cd be 0c 89 b1 be 9c a0 37 3d
       0.25140324 -0.4023163 -0.3467487 0.044830903
000050 58 9a 15 bf 20 de 16 3f 72 d5 8c be 70 9d e4 3e
       -0.58438635 0.58932686 -0.27506596 0.44651365
000060 de 48 09 3e 2f 7e ba 3e c4 fa b8 be a4 bf 23 bf
       0.13406703 0.36424395 -0.3612882 -0.63964295
000070 9d c0 c4 3e ca 6b 04 bd 70 0b d9 3e 67 b4 04 bf
       0.38428202 -0.03232936 0.4239154 -0.5183777
000080 02 53 51 3e 99 c1 1e bf b4 85 68 be 02 47 66 3c
       0.20441821 -0.62014157 -0.22707254 0.0140550155
000090 75 30 60 be 9e e3 28 bf f8 5b 86 be c8 63 6b 3e
       -0.21893485 -0.65972316 -0.26242042 0.22987282
0000a0 94 28 4a 3f d5 59 87 be c7 c9 c6 3b 82 af 4c bf
       0.7896817 -0.26435724 0.006066534 -0.79955304
0000b0 57 74 c8 be 29 9a b1 be 12 b6 51 bf 42 8e 69 3d
       -0.3915126 -0.34687927 -0.8191844 0.057020433
0000c0 b5 e6 a3 3c 17 70 31 3f 1c 1c c4 be 87 b7 45 3f
       0.02000747 0.6931166 -0.38302696 0.77233166
0000d0 60 1d 39 3f ac 78 66 3f 47 95 49 3e d4 1d cb be
       0.7231045 0.9002788 0.19685851 -0.39671195

BRD_net.encoder.0.bias f4 [8]
000000 b3 6f a4 3e b9 4b 4d be 19 3f 86 be 0f 70 a7 be
       0.3211647 -0.20048417 -0.26220015 -0.3270268
000010 d2 d3 57 3e 41 4e 05 bd 18 76 80 bd 3b b7 e1 bc
       0.21076897 -0.032545332 -0.062725246 -0.027553191

BRD_net.encoder.2.weight f4 [8, 8]
000000 42 37 c8 be 9b 1d b4 be 19 9d 82 3e 07 b9 3c 3e
       -0.39104658 -0.35178837 0.2551048 0.18429957
000010 70 aa 37 3e 72 88 cf be 0d 09 d0 be b8 ee df 3e
       0.1793611 -0.40533787 -0.40631905 0.43736815
000020 45 e0 a1 be 30 a1 06 bf 2d 91 c2 3d bc b6 f2 bd
       -0.31616417 -0.525897 0.09500346 -0.1185126
000030 e1 e3 36 bd b3 3c 9b 3e 90 57 78 3e 98 13 0a bf
       -0.044650916 0.30319747 0.24252152 -0.5393615
000040 11 7b a7 be b1 d0 75 be d7 46 15 3f ba 69 b6 3e
       -0.3271108 -0.2400539 0.5831122 0.35627538
000050 42 33 99 3e 53 9f 23 3f f9 4c 9d 3e 75 c8 2b bf
       0.2992192 0.63914984 0.30722788 -0.6710275
000060 56 2d e3 3e 5d ef 46 be a6 81 74 be 0b 2e 9b be
       0.44370526 -0.19427247 -0.23877582 -0.30308565
000070 99 5b a6 3e 20 63 2e be c1 ee ce be 98 7b be be
       0.32491758 -0.1703 -0.4041653 -0.3720367
000080 16 ba 44 be 5c 27 04 3f 3a 24 1c 3f cc ee 00 3f
       -0.19211611 0.5162256 0.6099278 0.50364375
000090 89 a2 17 3e 90 9e bb bd 55 56 e2 bd 9c 2a cd be
       0.14808096 -0.09161103 -0.11051623 -0.4007157
0000a0 79 69 86 3e b7 5c ee be fd fa e1 3d 22 d9 a9 3e
       0.26252344 -0.4655511 0.110342 0.33173472
0000b0 cf 53 0a 3f 9f 54 0e bf f4 09 00 3f 2f b2 be be
       0.5403413 -0.5559787 0.5001519 -0.37245318
0000c0 db 61 a8 be 5c fa 23 3f d7 8e fd 3e a1 fc 31 be
       -0.32887158 0.64053893 0.4952304 -0.17381527
0000d0 3a 30 9a 3e 8d 3c 05 bf 08 21 00 3f 97 59 02 3f
       0.3011492 -0.5204552 0.500504 0.50917953
0000e0 73 1c 8e be 21 d2 23 3e 74 fe 56 3e fd eb 98 be
       -0.2775608 0.15998127 0.20995504 -0.29867545
0000f0 93 07 9f be 56 8b 4f bd bf a8 ed be b9 16 0f bf
       -0.31060466 -0.05066999 -0.46417806 -0.5589405

BRD_net.encoder.2.bias f4 [8]
000000 4a b3 4e bc 40 e7 85 3e 1a cd 77 bb 14 08 09 be
       -0.012615988 0.26152992 -0.003781146 -0.13381988
000010 2a 7a a1 bd 5d 3b ce 3e 2f 98 1c 3e 1e 45 07 be
       -0.07884629 0.40279666 0.15292428 -0.1320996

BRD_net.decoder.weight f4 [1, 8]
000000 0e 9f 0f 3e e8 4f dd be 5a cd 06 bf c6 ca 9c 3a
       0.14025518 -0.43225026 -0.5265709 0.0011962287
000010 0b 2a 16 bf 90 4b 55 3f 3d d1 6f be 80 be 0d bf
       -0.586579 0.83318424 -0.23419662 -0.55368805
