example/Embryogenesis/Output/ckpt_itr3100.pth (torch, 8074 bytes, 15 tensors)

GRN_net.encoder.0.weight f4 [10, 6]
-0.123655826 -0.20931834 0.035369273 0.11703291 0.31991363 0.16697383 0.27653158 0.2586841
0.21162197 0.04185818 -0.05407158 0.476134 0.13315783 0.48553017 0.63609266 -0.18358065
0.5679716 -0.05820217 0.492597 0.7019542 -0.462907 0.06063374 -0.45019415 -0.44252324
-0.21826907 -0.24733119 -0.16959232 -0.58292514 -0.33802322 -0.03124693 -0.07354267 0.28968847
0.3678372 0.30082402 0.48446333 -0.5435 0.5461331 -0.75485444 -0.09055947 0.26034477
0.30988547 -0.4001818 -0.27768993 -0.49906358 -0.2730546 -0.14498773 0.88985866 -0.12377209
-0.062963486 -0.48703843 0.8256376 -0.26912045 -0.632296 0.44819552 -0.111922435 0.66383284
-0.6005682 -0.4839928 -0.33063132 0.2941766
00000000: 443f fdbd 8c57 56be 5fdf 103d f3ae ef3d
00000010: b8cb a33e 30fb 2a3e 8c95 8d3e 3e72 843e
00000020: 6eb3 583e 7c73 2b3d 297a 5dbd d6c7 f33e
00000030: 875a 083e 6997 f83e f8d6 223f 91fc 3bbe
00000040: 9666 113f 6665 6ebd ad35 fc3e 45b3 333f
00000050: 2502 edbe 165b 783d d97f e6be 6892 e2be
00000060: ed81 5fbe 6344 7dbe 9ca9 2dbe 953a 15bf
00000070: 6111 adbe 90f9 ffbc 8a9d 96bd 0c52 943e
00000080: 2855 bc3e 9b05 9a3e 940b f83e d122 0bbf
00000090: 61cf 0b3f 243e 41bf 3e77 b9bd e94b 853e
000000a0: 4fa9 9e3e a1e4 ccbe 602d 8ebe 4385 ffbe
000000b0: d0cd 8bbe aa77 14be c7cd 633f 397c fdbd
000000c0: 00f3 80bd 1a5d f9be fc5c 533f 28ca 89be
000000d0: 27de 21bf e279 e53e 9737 e5bd f3f0 293f
000000e0: d6be 19bf e7cd f7be 8248 a9be 519e 963e

GRN_net.encoder.0.bias f4 [10]
-0.31599027 0.33039394 0.3363593 0.28540286 -0.28982118 -0.16593963 -0.025689201 0.091891445
-0.2862847 -0.28695783
00000000: 7ac9 a1be 6529 a93e 4937 ac3e 5320 923e
00000010: 7163 94be 14ec 29be 2972 d2bc 9531 bc3d
00000020: e893 92be 23ec 92be

GRN_net.encoder.2.weight f4 [10, 10]
-0.10219717 -0.41359484 0.20876525 -0.018622031 0.17354849 -0.2825061 -0.49384215 0.2894768
-0.38077706 0.41326034 0.43716475 -0.44911316 -0.5324595 0.08279388 -0.2864239 0.05365171
-0.27121198 -0.19140673 -0.51535463 0.38123655 -0.42249477 -0.3749871 -0.04857797 -0.37831208
-0.47461227 0.3629278 -0.173395 0.24134867 0.35309523 -0.38804027 -0.48600394 -0.1530629
0.34622583 0.00034818347 -0.22085325 0.37263858 0.53957665 0.36960688 -0.4519418 -0.1112101
-0.28780913 0.42107353 -0.2790401 -0.19729419 0.010019023 -0.029210938 0.40944356 0.055809166
-0.45155263 0.4323231 0.39971298 0.07575581 -0.47136754 0.24113858 0.39522585 0.18253069
-0.1933824 0.08501147 -0.34653464 0.54737085 0.49965075 -0.13616294 -0.4627086 0.32964268
0.34023547 0.27193362 -0.3492631 0.2100576 -0.1878488 -0.4936477 -0.29411718 0.2143499
0.28153032 -0.5423111 0.2749715 0.2642865 0.5022304 0.4780021 -0.20458366 0.2791517
0.56471574 0.17391843 -0.3953752 -0.15571256 0.49023828 0.33418605 0.4839485 -0.1061839
-0.0155789545 -0.44269234 -0.24927086 0.33926398 -0.51782036 -0.27295795 0.1165766 -0.2759911
0.048692487 0.026473071 0.28504983 -0.39743745
00000000: c04c d1bd b4c2 d3be 8fc6 553e 3b8d 98bc
00000010: b2b6 313e a4a4 90be e1d8 fcbe 4e36 943e
00000020: 36f5 c2be dc96 d33e 0fd4 df3e 29f2 e5be
00000030: 444f 08bf d68f a93d 27a6 92be e5c1 5b3d
00000040: 4cdc 8abe 2000 44be 48ee 03bf 7031 c33e
00000050: 3c51 d8be 4ffe bfbe b2f9 46bd 1fb2 c1be
00000060: 6100 f3be acd1 b93e 758e 31be 1b24 773e
00000070: e6c8 b43e 37ad c6be 82d5 f8be 85bc 1cbe
00000080: 8344 b13e 658c b639 5b27 62be 7cca be3e
00000090: b221 0a3f 1d3d bd3e ea64 e7be 1fc2 e3bd
000000a0: b85b 93be f396 d73e 58de 8ebe 7d07 4abe
000000b0: d426 243c c74b efbc 96a2 d13e 2798 643d
000000c0: e831 e7be 7459 dd3e 2ea7 cc3e dd25 9b3d
000000d0: 1657 f1be 08ed 763e 0b5b ca3e 53e9 3a3e
000000e0: 0906 46be 7e1a ae3d fd6c b1be 7f20 0c3f
000000f0: 39d2 ff3e 4c6e 0bbe 24e8 ecbe edc6 a83e
00000100: 5833 ae3e e23a 8b3e 9dd2 b2be 5719 573e
00000110: 705b 40be 64bf fcbe 8796 96be 8a7e 5b3e
00000120: be24 903e e6d4 0abf 10c9 8c3e 8f50 873e
00000130: 2c92 003f b1bc f43e 617e 51be f9ec 8e3e
00000140: 3691 103f ac17 323e 9e6e cabe 1d73 1fbe
00000150: 8300 fb3e 6f1a ab3e 19c8 f73e f276 d9bd
00000160: df3e 7fbc 92a8 e2be dc40 7fbe 02b4 ad3e
00000170: e08f 04bf 25c1 8bbe b6bf ee3d b54e 8dbe
00000180: c671 473d 0ede d83c 0df2 913e ec7c cbbe

GRN_net.encoder.2.bias f4 [10]
-0.08087314 0.041514244 0.07883501 0.10150018 0.32759154 0.2433387 0.15494582 0.005155289
-0.2568033 0.26133072
00000000: d1a0 a5bd d70a 2a3d 4074 a13d 54df cf3d
00000010: 14ba a73e c82d 793e 1eaa 1e3e b3ed a83b
00000020: b97b 83be 24cd 853e

GRN_net.encoder.4.weight f4 [10, 10]
0.01784926 -0.49091554 0.29701355 0.5103176 -0.1507343 0.061592102 -0.27050808 -0.47195774
-0.3028556 -0.20438507 0.14347059 0.039727688 0.043110684 -0.39828387 -0.36318013 -0.4155021
-0.367375 0.46606028 0.2082505 -0.55028486 -0.10497735 0.037310526 0.38223708 0.5310449
-0.17300145 0.359715 -0.14070791 0.06727178 -0.27597684 0.0736131 0.46997127 0.37584573
0.35988897 -0.23503476 -0.056763474 0.13365269 0.37220988 -0.51879954 -0.2554819 0.02483038
-0.28228363 0.1613536 -0.025974244 -0.15160155 0.17959206 0.37131646 0.5020095 0.30926484
0.0056424183 0.42727643 0.4834868 -0.54387504 0.27956808 0.003655369 -0.32873628 -0.10223688
-0.11690319 -0.2347461 -0.17484014 0.10282016 0.16721651 0.05361399 -0.5453198 0.30154157
-0.072723866 0.41984433 -0.50492513 -0.1306962 0.41886055 0.24278697 -0.26994035 -0.48854488
0.055055622 0.16793676 -0.57747376 -0.46890903 -0.008918181 -0.11022356 0.37716842 -0.53068286
-0.16244428 -0.41124484 -0.03138669 -0.22034816 0.16307852 -0.5343253 -0.43621296 -0.34257227
-0.52565527 0.47108123 -0.11958391 -0.3629147 0.17381008 -0.09512258 0.23636138 -0.18500051
-0.5354609 0.2812668 0.45665875 -0.57264763
00000000: 9c38 923c 4859 fbbe 2912 983e 2da4 023f
00000010: 185a 1abe 0048 7c3d 0980 8abe 72a4 f1be
00000020: e40f 9bbe 524a 51be f4e9 123e 80b9 223d
00000030: d494 303d ddeb cbbe bff2 b9be b1bc d4be
00000040: 9318 bcbe 749f ee3e 9e3f 553e 78df 0cbf
00000050: 5dfe d6bd ecd2 183d 94b4 c33e 8ff2 073f
00000060: 4b27 31be 912c b83e bc15 10be c9c5 893d
00000070: d64c 8dbe 77c2 963d 13a0 f03e da6e c03e
00000080: 5e43 b83e f4ac 70be d180 68bd 40dc 083e
00000090: 4b92 be3e 0cd0 04bf 86ce 82be 1569 cb3c
000000a0: 7b87 90be e139 253e f0c7 d4bc 703d 1bbe
000000b0: fbe6 373e 311d be3e b283 003f f657 9e3e
000000c0: 09e4 b83b fac3 da3e 958b f73e 653b 0bbf
000000d0: 8c23 8f3e ea8e 6f3b 1f50 a8be 9261 d1bd
000000e0: f16a efbd 4861 70be 4b09 33be 6093 d23d
000000f0: ce3a 2b3e 589a 5b3d 149a 0bbf a863 9a3e
00000100: 40f0 94bd d6f5 d63e c642 01bf 3ad5 05be
00000110: e474 d63e 269d 783e 9f35 8abe 8e22 fabe
00000120: 0182 613d 9df7 2b3e 52d5 13bf d814 f0be
00000130: 901d 12bc e4bc e1bd 381c c13e d5da 07bf
00000140: cb57 26be af8e d2be 548f 00bd f3a2 61be
00000150: 0efe 263e 8bc9 08bf 4e57 dfbe a265 afbe
00000160: 5891 06bf 8f31 f13e 69e8 f4bd f5cf b9be
00000170: 45fb 313e a1cf c2bd b808 723e c670 3dbe
00000180: f713 09bf 3402 903e 2dcf e93e 0999 12bf

GRN_net.encoder.4.bias f4 [10]
-0.009934749 0.036218826 0.28273565 0.08757831 -0.17281444 -0.18683952 -0.26066893 0.2607267
0.039632745 0.08935634
00000000: 5cc5 22bc 315a 143d bac2 903e 425c b33d
00000010: 45f6 30be dc52 3fbe 6676 85be f87d 853e
00000020: f255 223d 7500 b73d

GRN_net.encoder.6.weight f4 [10, 10]
0.07517499 0.043435764 0.0191411 -0.0445486 -0.14437528 -0.4046357 0.13523823 -0.4627046
-0.45718184 -0.17379354 -0.35742858 0.11555931 0.36791816 0.4375198 -0.2841748 0.33073822
0.40234974 -0.027431797 0.25010327 0.27849662 0.4969399 0.18525831 0.29295394 -0.105099775
-0.25686678 -0.2188572 0.37937272 -0.05963139 0.13214499 -0.6043717 0.04672484 -0.23971182
-0.23890196 0.44118354 -0.45532486 -0.20437498 -0.04871548 -0.48908243 0.29490677 -0.26357168
0.26828378 0.45243686 0.36074167 -0.14135031 0.31553903 0.5717192 0.16102645 -0.08514293
-0.20309725 0.15275012 0.110018164 -0.40811965 0.3413316 0.09616726 -0.49550867 0.21603711
0.33543983 0.15984777 0.41717052 0.15032858 -0.43643397 -0.060888164 0.40178114 -0.21369727
0.15402086 0.1748632 -0.103758395 -0.007262638 0.22130772 -0.4001085 0.33427712 0.33585626
0.12904392 0.4798539 0.0329216 -0.53641474 0.05622856 -0.13674168 0.17267893 0.4512933
-0.24090078 0.10734195 0.5791505 -0.42260852 -0.089978814 0.378701 0.53424233 0.23002887
-0.29255795 0.045041997 -0.49825132 -0.2770626 -0.553398 0.5216434 0.3660539 0.26388934
-0.1956847 0.5054293 -0.15854311 0.3929151
00000000: 58f5 993d b3e9 313d cccd 9c3c 9878 36bd
00000010: 1dd7 13be 692c cfbe e47b 0a3e 9ee7 ecbe
00000020: bd13 eabe eff6 31be e100 b7be 5caa ec3d
00000030: c55f bc3e 9802 e03e 5c7f 91be 8556 a93e
00000040: c900 ce3e a6b8 e0bc 890d 803e 1c97 8e3e
00000050: e86e fe3e 5bb4 3d3e 0ffe 953e 8d3e d7bd
00000060: 0b84 83be 1a1c 60be 243d c23e 0b40 74bd
00000070: 0451 073e 1bb8 1abf 8c62 3f3d 0477 75be
00000080: b7a2 74be cfe2 e13e 5720 e9be ad47 51be
00000090: e289 47bd 0369 fabe 05fe 963e def2 86be
000000a0: 7e5c 893e cea5 e73e 22b3 b83e 23be 10be
000000b0: 558e a13e 315c 123f 1ee4 243e 6b5f aebd
000000c0: baf8 4fbe 876a 1c3e 3451 e13d 0ff5 d0be
000000d0: 04c3 ae3e 57f3 c43d 50b3 fdbe d538 5d3e
000000e0: c5be ab3e 22af 233e 6097 d53e bcef 193e
000000f0: 4674 dfbe de65 79bd 42b6 cd3e 75d3 5abe
00000100: a5b7 1d3e 570f 333e 487f d4bd 6cfb edbb
00000110: 7e9e 623e 05db ccbe 5f26 ab3e 5af5 ab3e
00000120: 1724 043e 69af f53e cdd8 063d 7a52 09bf
00000130: eb4f 663d 0306 0cbe bfd2 303e ea0f e73e
00000140: b2ae 76be 19d6 db3d 3543 143f 2560 d8be
00000150: d046 b8bd 19e5 c13e 1bc4 083f b08c 6b3e
00000160: 28ca 95be f57d 383d cc1a ffbe 26db 8dbe
00000170: 7eab 0dbf 6c8a 053f 6b6b bb3e 811c 873e
00000180: 9261 48be d163 013f 2059 22be 2b2c c93e

GRN_net.encoder.6.bias f4 [10]
0.004630705 0.21673591 0.10817239 -0.083096564 0.25347337 0.013551073 0.22785027 0.0896294
0.2208429 0.2014893
00000000: 2bbd 973b 05f0 5d3e 7c89 dd3d 882e aabd
00000010: 43c7 813e 5205 5e3c 9551 693e 9e8f b73d
00000020: a424 623e 3653 4e3e

GRN_net.decoder.0.weight f4 [6, 10]
0.0077246837 -0.3738152 -0.19239998 -0.24178556 -0.5821066 0.10482407 -0.16880338 0.21188176
0.444128 -0.07303918 0.24192265 0.20307894 0.2081969 -0.26737034 -0.19158646 0.21411027
0.53006214 -0.60886216 -0.4196488 0.11340568 0.53007066 0.2536423 -0.6369473 -0.49079132
0.60404456 -0.026274763 -0.58056426 -0.2425339 0.256137 -0.11988866 -0.44874892 -0.34465212
-0.3178905 0.036361173 0.19692749 0.20970404 -0.29362553 -0.22065729 -0.49229068 0.4636554
0.7664262 0.59559745 0.2228673 -0.057992786 -0.17957148 0.32065585 -0.42587268 -0.007867903
-0.48835826 -0.54175687 0.07616278 -0.036409233 -0.45676234 0.20560448 0.1751264 0.049837843
-0.39139277 -0.4828378 0.038256355 -0.20704001
00000000: 581f fd3b b564 bfbe 8004 45be a296 77be
00000010: f004 15bf 01ae d63d cbda 2cbe 88f7 583e
00000020: bf64 e33e 9195 95bd 92ba 773e edf3 4f3e
00000030: 9131 553e c4e4 88be 3e2f 44be b93f 5b3e
00000040: 27b2 073f 64de 1bbf 35dc d6be 3d41 e83d
00000050: b6b2 073f 67dd 813e fa0e 23bf 0049 fbbe
00000060: aaa2 1a3f 2c3e d7bc dc9f 14bf cf5a 78be
00000070: 6424 833e 3088 f5bd 6bc2 e5be 3e76 b0be
00000080: 8bc2 a2be 74ef 143d 5ca7 493e a8bc 563e
00000090: 1656 96be fcf3 61be 860d fcbe 3e64 ed3e
000000a0: 8234 443f 1379 183f 5337 643e d889 6dbd
000000b0: 96e1 37be 012d a43e fc0b dabe 61e8 00bc
000000c0: 180a fabe 94b0 0abf 3bfb 9b3d d921 15bd
000000d0: c1dc e9be fb89 523e 5654 333e c422 4c3d
000000e0: a264 c8be 8436 f7be b2b2 1c3d 4c02 54be

GRN_net.decoder.0.bias f4 [6]
0.13526031 -0.30207276 0.18168344 0.09404192 -0.04670961 0.10410117
00000000: ae81 0a3e 48a9 9abe 390b 3a3e 0d99 c03d
00000010: 9352 3fbd ff32 d53d

BRD_net.encoder.0.weight f4 [8, 7]
-0.20441087 0.39078566 0.15490584 0.5475636 0.051081855 -0.48280448 0.15225783 -0.4493565
0.9303168 -0.5479884 0.26702082 -0.6293441 0.56843984 0.5824888 0.40106156 0.3358402
0.2059717 -0.40921414 -0.35561183 -6.832913e-05 -0.5874945 0.5638582 -0.34418094 0.4687161
0.15838364 0.4173602 -0.32568485 -0.65542775 0.39623094 -0.22191057 0.44594732 -0.5028834
0.2240568 -0.5887922 -0.22603215 -0.003081482 -0.20273602 -0.72801435 -0.27196673 0.23998989
0.7247175 -0.26899788 0.005646068 -0.83220565 -0.3575726 -0.30995235 -1.0139383 0.1288116
0.018862143 0.7246855 -0.43345582 0.8140564 0.71824414 0.8685946 0.26624238 -0.38135788
00000000: 1551 51be 0f15 c83e a39f 1e3e 212d 0c3f
00000010: 353b 513d 2632 f7be 7ae9 1b3e 0e12 e6be
00000020: 3e29 6e3f f848 0cbf f4b6 883e b21c 21bf
00000030: 4685 113f fc1d 153f f157 cd3e 3ff3 ab3e
00000040: 3fea 523e 8484 d1be c112 b6be ec4b 8fb8
00000050: 0a66 16bf 0359 103f 7c38 b0be 8ffb ef3e
00000060: 522f 223e 3cb0 d53e 2ac0 a6be 1dca 27bf
00000070: c8de ca3e 863c 63be 3553 e43e f7bc 00bf
00000080: 256f 653e 16bb 16bf f974 67be b0f2 49bb
00000090: 089a 4fbe 265f 3abf 393f 8bbe e9bf 753e
000000a0: 1687 393f 17ba 89be a702 b93b 6e0b 55bf
000000b0: c113 b7be 13b2 9ebe bbc8 81bf 30e7 033e
000000c0: c884 9a3c fd84 393f eced ddbe 0066 503f
000000d0: d9de 373f 375c 5e3f ec50 883e 5741 c3be

BRD_net.encoder.0.bias f4 [8]
0.3400175 -0.22098982 -0.28186142 -0.3268021 0.22996564 -0.056568567 -0.050097387 0.009138601
00000000: c616 ae3e 284b 62be 2450 90be 9b52 a7be
00000010: 1d7c 6b3e 71b4 67bd eb32 4dbd 12ba 153c

BRD_net.encoder.2.weight f4 [8, 8]
-0.3965274 -0.40104046 0.2616094 0.23737317 0.20951208 -0.40242445 -0.40164834 0.46614316
-0.27782777 -0.4976413 0.06273495 -0.14428961 -0.0681244 0.30433393 0.24214095 -0.5657222
-0.13753077 -0.21788166 0.5635106 0.33867085 0.28068927 0.6409427 0.30475017 -0.6945158
0.4549065 -0.17945257 -0.25864574 -0.31693602 0.31333196 -0.17157918 -0.40553856 -0.3869994
-0.107341975 0.5456416 0.5728532 0.47484156 0.12125652 -0.08784731 -0.10849406 -0.42813274
0.25647208 -0.5066959 0.14973924 0.36685914 0.5650806 -0.55156153 0.5008209 -0.3428064
-0.3172286 0.66601855 0.46628734 -0.19666873 0.281205 -0.5184701 0.50080705 0.48691854
-0.26646462 0.19420785 0.15175451 -0.32857046 -0.33505902 -0.052899733 -0.46640563 -0.58656216
00000000: a405 cbbe 2d55 cdbe abf1 853e f411 733e
00000010: 568a 563e 940a cebe daa4 cdbe 51aa ee3e
00000020: 713f 8ebe d7ca febe 2e7b 803d a8c0 13be
00000030: ce84 8bbd a8d1 9b3e ccf3 773e 2cd3 10bf
00000040: ded4 0cbe 5f1c 5fbe 3b42 103f 4466 ad3e
00000050: 81b6 8f3e d214 243f 3708 9c3e cacb 31bf
00000060: 81e9 e83e 6ac2 37be 376d 84be 7045 a2be
00000070: 0c6d a03e 74b2 2fbe c0a2 cfbe c924 c6be
00000080: 1cd6 dbbd 2baf 0b3f 82a6 123f 6f1e f33e
00000090: 5755 f83d 4ae9 b3bd 2232 debd 3734 dbbe
000000a0: 4f50 833e d3b6 01bf 3e55 193e f6d4 bb3e
000000b0: 1fa9 103f 2333 0dbf cc35 003f 5284 afbe
000000c0: c96b a2be 3180 2a3f 37bd ee3e 8763 49be
000000d0: 1afa 8f3e 75ba 04bf e434 003f 634d f93e
000000e0: 0d6e 88be 6cde 463e 8965 1b3e 633a a8be
000000f0: db8c abbe 64ad 58bd b8cc eebe f028 16bf

BRD_net.encoder.2.bias f4 [8]
0.014134616 0.2343465 -0.029485721 -0.15041488 -0.10671827 0.4313298 0.13023324 -0.15963653
00000000: e094 673c 87f8 6f3e 0a8c f1bc 5c06 1abe
00000010: 1c8f dabd 42d7 dc3e dd5b 053e c277 23be

BRD_net.decoder.weight f4 [1, 8]
0.16706297 -0.42463264 -0.52099514 -0.16053909 -0.6073012 0.8606512 -0.18680155 -0.5834864
00000000: 8e12 2b3e 7369 d9be f05f 05bf 5c64 24be
00000010: 1778 1bbf a353 5c3f e848 3fbe 5d5f 15bf
