example/Embryogenesis/Output/ckpt_itr3800.pth (torch, 8074 bytes, 15 tensors)

GRN_net.encoder.0.weight f4 [10, 6]
00000000: 39a7 fcbd 95c3 57be d556 133d 0e58 f63d
00000010: 2848 a43e 076f 273e ee0e 893e 71bf 843e
00000020: f581 593e a3ff 313d a3c8 a2bd f9ce f23e
00000030: aeba 073e 855c fa3e 30ac 213f dc47 39be
00000040: 2c72 113f b22e 68bd 9d71 fc3e 50a1 333f
00000050: 1488 edbe e85e 4b3d 0e16 e7be 9b27 ebbe
00000060: b56e 65be 9d88 7abe f507 2cbe d684 13bf
00000070: e619 afbe 10b6 09bd 8965 8fbd 8810 943e
00000080: 1541 be3e 2371 9b3e 6f4a fb3e 0fb7 0bbf
00000090: 4cd3 0a3f 3fe4 40bf 7a82 b5bd f99e 973e
000000a0: a4e0 9d3e a0fe ccbe d245 8dbe 7d84 00bf
000000b0: d08d 8cbe 4828 01be 99d3 643f 752d 04be
000000c0: b6e2 a7bd 23b6 f5be ece7 543f 9c00 8bbe
000000d0: aa3b 21bf a67c e43e 8ce8 dfbd 7bfe 253f
000000e0: 678d 1cbf f603 f7be bcb3 a9be da99 973e
-0.12336583 -0.21070702 0.03597148 0.12028514 0.320863 0.16350947 0.26769203 0.25927308
0.21240981 0.043456685 -0.07948425 0.47423533 0.13254806 0.48898712 0.6315336 -0.18093818
0.5681484 -0.056685157 0.4930543 0.7016802 -0.46392882 0.049651057 -0.45134014 -0.45928654
-0.22405513 -0.24466176 -0.1679991 -0.57624567 -0.34199446 -0.033620894 -0.07001788 0.28918862
0.3715903 0.30359754 0.49080226 -0.545762 0.54228663 -0.75348276 -0.08862777 0.29613474
0.3083545 -0.40038013 -0.2759233 -0.5020216 -0.27451944 -0.12613022 0.8938537 -0.12907965
-0.081975386 -0.47990522 0.83166385 -0.27148902 -0.62981665 0.4462635 -0.10933027 0.6484143
-0.6115326 -0.4824521 -0.3314494 0.29609567

GRN_net.encoder.0.bias f4 [10]
00000000: 2d78 a2be c321 a43e a274 ab3e 4deb 913e
00000010: 8b1c 97be 0847 2abe 1fff f3bc 9764 b53d
00000020: 8813 94be bbe9 91be
-0.31732312 0.32057008 0.3348742 0.28499833 -0.29513964 -0.16628659 -0.029784737 0.088570766
-0.2892115 -0.28498635

GRN_net.encoder.2.weight f4 [10, 10]
00000000: 5429 dbbd 8cfc d1be c7dd 563e 84a2 aebc
00000010: e7c1 2e3e 39cb 91be fa93 fabe 79a4 953e
00000020: 71f5 c2be 4400 d13e 387d e03e a144 e6be
00000030: 092b 0fbf a5ef 9d3d 0d46 86be 27b1 5a3d
00000040: cadc 8cbe edb2 43be 1164 03bf bb0d c53e
00000050: c064 d7be c94b c0be 48ea 46bd 59c3 bdbe
00000060: d6a8 f6be c2d6 bd3e cbee 21be 7490 7a3e
00000070: 2aba b33e 65b3 cdbe 94f9 04bf 5baa 1abe
00000080: 9d3b b13e 24a7 3a3c 3c78 62be d4b4 bd3e
00000090: 983a 0a3f f434 b93e b8e9 e7be 4cc8 e1bd
000000a0: 02c1 99be 204a d83e b376 90be 28d4 45be
000000b0: dd46 413c 534f 0cbd 99e3 d63e 5b47 603d
000000c0: 2e70 e7be 070c de3e 8788 cc3e 16ca 9e3d
000000d0: 2da2 f6be 9fee 743e 64ba c93e 1195 373e
000000e0: 1f74 46be c326 ad3d 8692 aebe c97e 0c3f
000000f0: d6ca fc3e 32d2 0fbe f300 ecbe 5395 b33e
00000100: ae38 af3e 69cc 8b3e ed0f b1be 8fa0 573e
00000110: 8984 45be 2850 fdbe 6980 95be 2be4 5b3e
00000120: 834c 923e fd16 0bbf f30a 883e 0e35 8a3e
00000130: 64ac 003f 4c6b f43e 125e 6bbe e706 8c3e
00000140: 940a 1d3f 1d40 213e 3dff cabe 0bae 20be
00000150: 81d6 f93e c56c ac3e 73ca f73e 5e6b d7bd
00000160: 6f38 8cbc b6e8 e2be 05b1 81be 6ad9 ad3e
00000170: 5234 04bf cc55 87be f58f f73d 5a1a 92be
00000180: 92b9 473d b9e8 893c 06a2 933e 09ce cbbe
-0.10701242 -0.4101299 0.20983039 -0.021317728 0.17066155 -0.2847536 -0.48941022 0.29227045
-0.38077882 0.40820515 0.43845534 -0.44974235 -0.5592504 0.07711724 -0.2622532 0.053391602
-0.275122 -0.19111224 -0.51324564 0.38487038 -0.42069054 -0.3755782 -0.04856327 -0.370631
-0.48175687 0.3707791 -0.15813749 0.24469167 0.3510297 -0.4017593 -0.51943326 -0.15104048
0.34615794 0.0113923885 -0.22116178 0.37052023 0.53995657 0.36173213 -0.452955 -0.11024532
-0.30030066 0.42244053 -0.2821556 -0.19319212 0.01179668 -0.034255337 0.41970518 0.05475555
-0.45202774 0.4336855 0.39947912 0.077533886 -0.48170605 0.23919152 0.39400017 0.17927958
-0.19380234 0.08454659 -0.34096164 0.5488096 0.49373502 -0.14045027 -0.46094474 0.35074863
0.3422293 0.2730439 -0.34582463 0.21057342 -0.1928884 -0.49475217 -0.29199532 0.21473758
0.28574 -0.5433195 0.26570854 0.26993603 0.5026305 0.4773811 -0.22985104 0.27349016
0.61344266 0.15747114 -0.39647856 -0.15691392 0.48796466 0.33676735 0.48396644 -0.105185255
-0.017116753 -0.4431817 -0.25330368 0.33954936 -0.51642334 -0.26432645 0.120880045 -0.2853573
0.048760958 0.016834604 0.28834552 -0.3980563

GRN_net.encoder.2.bias f4 [10]
00000000: 1a72 9cbd fd81 223d d04e a83d 9696 d03d
00000010: 6f5a a83e d235 7a3e 91d3 1e3e 816d 2f3b
00000020: 3573 85be 35b2 873e
-0.07638951 0.039674748 0.08218157 0.10184972 0.32881495 0.24434593 0.15510394 0.002676815
-0.26064458 0.2650315

GRN_net.encoder.4.weight f4 [10, 10]
00000000: f649 953c 3777 fabe 096b 963e a006 033f
00000010: 733e 17be 0815 813d 6035 8bbe 3897 f0be
00000020: 7df7 9cbe 667f 48be 076d 103e 4859 433d
00000030: 4479 533d 77af cbbe 32f5 bcbe 4713 d6be
00000040: d402 bbbe ae79 ef3e ee48 563e cbd5 0cbf
00000050: d194 d7bd b06f 203d 7929 c63e 58a6 073f
00000060: 879d 6cbe f213 b83e 52bc 0dbe 62fe 873d
00000070: ab10 8dbe 3f0d 993d 2b30 f13e 2724 c13e
00000080: c396 b73e 062e 6ebe 2c3c 63bd 1195 0a3e
00000090: 2837 c03e 0cd1 03bf ac8c 81be bec8 ae3c
000000a0: 7c52 94be 4fc9 253e c145 bfbc 4fec 19be
000000b0: a85e 363e efa4 b93e e0e5 003f d8ba 9e3e
000000c0: cf93 013c ec53 d93e b52d f73e 24ad 0dbf
000000d0: 48da 8f3e cb16 5a3b 5291 a7be dcd3 d3bd
000000e0: 2c3a ecbd eb6d 72be a198 34be 30e4 d43d
000000f0: af17 213e cd1e 703d 122a 0bbf c391 993e
00000100: 8c73 a3bd 6951 d73e 1c1c 02bf 5502 08be
00000110: 54ff d43e d92b 7b3e 7f62 89be 39b8 f8be
00000120: 155c 6d3d 260a 2c3e f033 16bf d27f efbe
00000130: e579 edbb 701e e1bd f7cf c23e f695 08bf
00000140: addd 26be 366d d5be 3a2d 01bd c1ea 5dbe
00000150: 5c35 263e f442 09bf bc47 e1be 2f61 afbe
00000160: 4321 07bf aae8 f13e 2a15 f5bd 6e3c b9be
00000170: 4176 1f3e c212 c1bd 4a84 743e d145 3cbe
00000180: 4bea 08bf 619c 903e 081a ec3e 08d7 12bf
0.018223744 -0.4891908 0.29378536 0.51181984 -0.14769916 0.063028395 -0.2718916 -0.4699037
-0.3065757 -0.19579849 0.1410409 0.047692567 0.05162932 -0.39782307 -0.3690582 -0.41811582
-0.36525595 0.46772522 0.20926258 -0.5501372 -0.10526431 0.039169014 0.38703516 0.52988195
-0.23106967 0.35952717 -0.1384137 0.066403165 -0.2755178 0.074732296 0.47107062 0.37722895
0.3585721 -0.23259744 -0.055477306 0.13533427 0.3754208 -0.51490855 -0.25302637 0.021335956
-0.2896918 0.16190074 -0.023348691 -0.15031551 0.17809546 0.36258647 0.5035076 0.31001925
0.0079087755 0.4244684 0.4827706 -0.55342317 0.28096223 0.0033277746 -0.32728058 -0.10343143
-0.11534533 -0.23674743 -0.17636348 0.10395086 0.15731691 0.058623124 -0.5436107 0.2999402
-0.07981023 0.420543 -0.5082414 -0.1328214 0.4160105 0.24528445 -0.2683296 -0.4857805
0.057949144 0.16800746 -0.58673 -0.46777207 -0.007247197 -0.109921336 0.3804929 -0.5335382
-0.162955 -0.41684884 -0.031537272 -0.21671583 0.16231292 -0.5361779 -0.4400004 -0.34253833
-0.5278513 0.4724782 -0.11966927 -0.36178917 0.15572454 -0.09427406 0.2387859 -0.18386008
-0.534825 0.28244308 0.4611361 -0.5735936

GRN_net.encoder.4.bias f4 [10]
00000000: 9e37 0ebc 9ecd 1a3d dc4d 8f3e 88bd b23d
00000010: a50c 2ebe 8881 3ebe 90a1 86be 27d8 833e
00000020: 245c 243d d7c6 bb3d
-0.008680252 0.037793748 0.2798909 0.087275565 -0.16997011 -0.186041 -0.26295137 0.2575085
0.040126935 0.09168785

GRN_net.encoder.6.weight f4 [10, 10]
00000000: a355 a73d 9225 363d 7f84 903c 5e46 33bd
00000010: 9382 17be 0205 ccbe f169 0b3e 9332 efbe
00000020: 6c12 e9be 4a7e 32be 82e3 b5be 3b3f ec3d
00000030: a39c bc3e 73ae df3e 7696 91be 013b ac3e
00000040: f75f cc3e d187 c9bc 9fdf 803e 9745 8e3e
00000050: b130 003f 6dd5 3e3e 416f 963e 8ce8 d8bd
00000060: f6dd 84be 026b 5fbe 57c9 c13e c736 5abd
00000070: 2924 093e cd51 1abf 5fe3 023d 0bf9 7bbe
00000080: a0a8 75be e10b e23e 5756 e3be 2c87 55be
00000090: 6160 34bd d1da fdbe 3251 953e fb3f 8fbe
000000a0: e30f 873e 3bcb e63e 6d31 ba3e e9d0 17be
000000b0: 9f22 a43e 85af 113f e6a7 223e 1389 aebd
000000c0: ca17 51be 9627 1b3e 054a d53d 862d cfbe
000000d0: d2ed ac3e 95fa c53d d3d3 00bf c06f 603e
000000e0: a60f ad3e 9c69 233e a8cc d43e 5024 1d3e
000000f0: 902d dbbe 322a 6fbd bd70 ce3e 8bf6 5abe
00000100: 0d31 173e 51c4 363e b576 e1bd 0624 7539
00000110: 15a3 613e 6194 cbbe ec84 aa3e b7e8 ac3e
00000120: 93e4 183e 03ab f53e 83c0 0c3d 4ba2 0dbf
00000130: 0480 653d a434 0cbe ba05 303e b8a7 e73e
00000140: 6af6 73be 488d db3d 0ab8 143f 442f d8be
00000150: f888 b9bd e9b7 c23e bee3 073f b9fb 6a3e
00000160: 30ab 94be 7df5 353d feb1 fcbe 9028 8abe
00000170: 16eb 0cbf cb3c 023f d989 ba3e 8191 833e
00000180: a1f2 4dbe 07cb 023f c185 23be c95f cb3e
0.08170631 0.044469424 0.017641304 -0.04376828 -0.14795904 -0.3984757 0.13614632 -0.46718273
-0.45521867 -0.17430988 -0.35525137 0.11535498 0.36838254 0.43687782 -0.28435105 0.33638766
0.39916965 -0.024600895 0.2517061 0.27787468 0.500743 0.18636103 0.29381755 -0.1059123
-0.25950593 -0.21818164 0.37848923 -0.053274896 0.133927 -0.6028107 0.03195512 -0.24606721
-0.23990107 0.44149688 -0.4440181 -0.20852345 -0.044037227 -0.49581006 0.2916351 -0.279785
0.26379308 0.45076928 0.36365834 -0.14825787 0.32057664 0.56908447 0.1588436 -0.085222386
-0.20419231 0.1515182 0.10414509 -0.4046442 0.33775192 0.09666935 -0.5032322 0.21917629
0.33801 0.15958256 0.4156239 0.15345883 -0.428082 -0.05838985 0.40320387 -0.21383111
0.14764805 0.17848326 -0.1100897 0.0002337844 0.22034867 -0.39761642 0.33304536 0.33771297
0.14930944 0.47982034 0.03436328 -0.55325764 0.05603029 -0.13691956 0.17189685 0.45245147
-0.23824468 0.10720307 0.5809332 -0.4222356 -0.09059328 0.38030937 0.5308188 0.22947587
-0.29036856 0.04442357 -0.49354547 -0.26984072 -0.5504621 0.5087401 0.36433294 0.25696948
-0.20112087 0.51091045 -0.15968992 0.39721516

GRN_net.encoder.6.bias f4 [10]
00000000: d505 9f3b 666c 5f3e d482 dc3d 2a15 98bd
00000010: 0d9a 823e 6fe0 253c c1ba 673e f882 b63d
00000020: c614 653e fc32 4e3e
0.00485299 0.21818694 0.10767141 -0.07425912 0.25508156 0.01012431 0.22629835 0.08911699
0.22371206 0.20136636

GRN_net.decoder.0.weight f4 [6, 10]
00000000: a12e ec3b d855 bdbe fa04 40be c4af 75be
00000010: 11ce 14bf 8c3c e63d db36 30be 0b45 5a3e
00000020: 85ff e43e 757c a6bd 0c84 743e 2386 593e
00000030: aaab 473e aa89 89be 8bfc 3dbe f45f 753e
00000040: 585c 063f 216f 1cbf 313c d6be 7c57 f73d
00000050: 0f31 063f 84d6 823e e97c 22bf f341 fdbe
00000060: 212e 1d3f b14e 5dbc ec72 14bf af3d 66be
00000070: 7ec9 833e a8d2 f5bd af63 e3be 56e8 b1be
00000080: bc46 a4be 1c1e 103d f5fd 453e 0153 4f3e
00000090: fcac 97be 9e02 60be 855a fbbe 3ba5 ec3e
000000a0: 58f7 493f 2813 193f 867a 6d3e ca77 5fbd
000000b0: 6078 3dbe d2e9 b03e 92f1 d3be c42a 0fbc
000000c0: 4e4e fabe 3f70 0bbf e65c a03d 7237 0bbd
000000d0: 33e0 e8be c901 6c3e 6684 283e 820d 4a3d
000000e0: 27ad c7be 7ad7 fabe 12ce 963c 79f4 53be
0.007207707 -0.36979556 -0.18751898 -0.2399283 -0.5812693 0.11242017 -0.17208426 0.213154
0.44726196 -0.08129207 0.23878497 0.21242575 0.19499078 -0.26862842 -0.18553369 0.23962384
0.52484655 -0.6110707 -0.41842797 0.12077233 0.5241861 0.25554287 -0.6347185 -0.49464378
0.6139851 -0.013507531 -0.57987857 -0.22484468 0.25739664 -0.1200307 -0.4441199 -0.3474757
-0.32085216 0.035184965 0.19335158 0.20246507 -0.29624164 -0.21875998 -0.49092498 0.4621981
0.7889304 0.59794855 0.2319127 -0.0545576 -0.1850295 0.3455339 -0.4139524 -0.008738223
-0.48887867 -0.5446815 0.07830219 -0.033988424 -0.4548355 0.23047556 0.16456756 0.04932929
-0.38999292 -0.4899252 0.018408809 -0.20698728

GRN_net.decoder.0.bias f4 [6]
00000000: 1a0b 093e d3a7 9bbe 9817 3c3e 7ad0 be3d
00000010: 21e7 35bd c8cb d53d
0.13383141 -0.30401477 0.18368375 0.093171075 -0.044409875 0.10439259

BRD_net.encoder.0.weight f4 [8, 7]
00000000: 7baf 50be 8b4b c83e ce4d 243e e5e8 0a3f
00000010: 9dcf 383d 8c3b f1be b502 1c3e 867c e6be
00000020: ac59 813f 173d 0dbf 1310 883e 866a 1ebf
00000030: c0db 0e3f 9103 153f d193 cd3e bb06 aa3e
00000040: 598c 4f3e 6135 cebe 4c07 aabe 5655 1ebb
00000050: 4e60 16bf d6bd 0f3f a8b8 b7be 77d8 ee3e
00000060: 1957 253e d403 d53e 707b a0be 2d9f 29bf
00000070: 868c cb3e 1e4d 85be 3b9c e53e 0ede ffbe
00000080: 9043 673e 1519 14bf 4bf8 66be 2ea9 8bbb
00000090: 5c16 4ebe 4ee2 3cbf 774b 89be 2c4b 7b3e
000000a0: 4572 343f ef80 8abe 21a6 ae3b 1611 57bf
000000b0: 6e6b b3be b410 99be 2e8b 85bf 7ff7 223e
000000c0: 094b 963c e066 3a3f 36d6 ecbe 3e1d 543f
000000d0: f24b 373f eab5 5c3f da84 923e 0d78 bfbe
-0.2037944 0.39120135 0.16045305 0.5426162 0.04511987 -0.47115743 0.15235408 -0.4501688
1.0105491 -0.5517134 0.26574764 -0.6188129 0.5580406 0.58208567 0.40151837 0.3320826
0.20268382 -0.402751 -0.33208692 -0.002415975 -0.587407 0.5614904 -0.3588307 0.46649525
0.16146506 0.41604483 -0.31344175 -0.6625851 0.39755648 -0.26035398 0.44845757 -0.49974102
0.22584367 -0.5785077 -0.22555654 -0.004262111 -0.20125717 -0.73782814 -0.26815388 0.24540395
0.7048686 -0.27051494 0.0053298627 -0.84010446 -0.350429 -0.29895556 -1.0433099 0.15914725
0.018346326 0.72813225 -0.4625718 0.8285712 0.7160026 0.8621508 0.28616983 -0.3739628

BRD_net.encoder.0.bias f4 [8]
00000000: 14d6 ae3e 548b 65be 3bac 90be 130f a3be
00000010: e3bd 6f3e b54b 74bd 1963 3cbd df04 953c
0.34147704 -0.2241643 -0.282564 -0.31847438 0.2341228 -0.059642512 -0.045992944 0.0181908

BRD_net.encoder.2.weight f4 [8, 8]
00000000: 0d9f cbbe 32b2 cebe 8a64 833e 06fb 6d3e
00000010: 2095 563e 8e87 ccbe f107 cbbe 56ef ef3e
00000020: a589 8bbe c234 febe 3663 773d 6cd4 13be
00000030: 1955 8dbd f766 9b3e df8c 753e 5f3a 11bf
00000040: d280 ccbd 2884 5dbe 47ce 0f3f 7e73 ad3e
00000050: 8403 8f3e a41b 243f a26c 9a3e a24f 32bf
00000060: 33fa eb3e 8b0a 36be 599c 85be 4d0a a2be
00000070: 5bf0 9f3e 2b1b 32be 0fcc d2be 315b c7be
00000080: 9b90 e1bd 59ff 0b3f c2ff 113f 39c5 f23e
00000090: 9f9a f53d 1c6c aebd 7ce7 dcbd 770a dcbe
000000a0: 3a45 823e 3105 02bf ac7f dc3d 922d ba3e
000000b0: c768 103f 7ef9 0bbf b9fe 003f f636 aebe
000000c0: 36f1 a0be 9d72 2a3f bdcd ed3e fc2e 48be
000000d0: 8027 903e 2d38 05bf 45ba fe3e 732c f93e
000000e0: 5e73 87be 10ee 473e 367c 1f3e 5e5d a7be
000000f0: 929f abbe 4496 61bd 3167 f0be 26c4 16bf
-0.39769784 -0.40370327 0.25662643 0.23240289 0.20955324 -0.3994717 -0.39654496 0.46862286
-0.27253452 -0.49649626 0.06039735 -0.14436501 -0.06900997 0.30351993 0.2397952 -0.5672969
-0.09985508 -0.21632445 0.5617413 0.33877176 0.2793237 0.64104676 0.30161005 -0.6965276
0.46089324 -0.1777746 -0.26095846 -0.31648484 0.31238064 -0.17393176 -0.4117131 -0.3893676
-0.110139094 0.54686505 0.5703088 0.47416094 0.11992382 -0.08516714 -0.1078634 -0.42976734
0.2544344 -0.5078917 0.10766539 0.36362892 0.5640988 -0.5467757 0.50388676 -0.34026307
-0.3143403 0.66581136 0.46446028 -0.19549173 0.28155136 -0.5203884 0.49751487 0.48666725
-0.26455206 0.19524407 0.15574726 -0.3268842 -0.3352018 -0.055074945 -0.4695373 -0.5889305

BRD_net.encoder.2.bias f4 [8]
00000000: 44b2 913c b95a 6d3e 974e 05bd 2e87 1ebe
00000010: 134d dfbd a6cb de3e a117 043e f349 27be
0.017785199 0.23179139 -0.032545652 -0.15481254 -0.109033726 0.43514746 0.12899639 -0.16336803

BRD_net.decoder.weight f4 [1, 8]
00000000: 71c1 2b3e fcb7 d8be 0cb0 05bf 0834 36be
00000010: 431a 1cbf bca1 5c3f 91c0 39be f8e2 15bf
0.16773011 -0.4232787 -0.5222175 -0.17793286 -0.6097757 0.8618429 -0.18139865 -0.5854945
